{"backend": "tensorflow", "keras_version": "2.0.9", "config": {"input_layers": [["input_2", 0, 0]], "name": "model_2", "output_layers": [["dense_2", 0, 0]], "layers": [{"name": "input_2", "config": {"sparse": false, "dtype": "float32", "batch_input_shape": [null, 299, 299, 3], "name": "input_2"}, "inbound_nodes": [], "class_name": "InputLayer"}, {"name": "conv2d_95", "config": {"bias_initializer": {"class_name": "Zeros", "config": {}}, "kernel_size": [3, 3], "bias_regularizer": null, "data_format": "channels_last", "kernel_initializer": {"class_name": "VarianceScaling", "config": {"scale": 1.0, "mode": "fan_avg", "distribution": "uniform", "seed": null}}, "filters": 32, "use_bias": false, "name": "conv2d_95", "activation": "linear", "kernel_constraint": null, "kernel_regularizer": null, "strides": [2, 2], "padding": "valid", "dilation_rate": [1, 1], "bias_constraint": null, "trainable": false, "activity_regularizer": null}, "inbound_nodes": [[["input_2", 0, 0, {}]]], "class_name": "Conv2D"}, {"name": "batch_normalization_95", "config": {"scale": false, "axis": 3, "gamma_regularizer": null, "moving_mean_initializer": {"class_name": "Zeros", "config": {}}, "beta_constraint": null, "gamma_constraint": null, "moving_variance_initializer": {"class_name": "Ones", "config": {}}, "name": "batch_normalization_95", "beta_initializer": {"class_name": "Zeros", "config": {}}, "momentum": 0.99, "gamma_initializer": {"class_name": "Ones", "config": {}}, "beta_regularizer": null, "trainable": false, "epsilon": 0.001, "center": true}, "inbound_nodes": [[["conv2d_95", 0, 0, {}]]], "class_name": "BatchNormalization"}, {"name": "activation_95", "config": {"activation": "relu", "trainable": false, "name": "activation_95"}, "inbound_nodes": [[["batch_normalization_95", 0, 0, {}]]], "class_name": "Activation"}, {"name": "conv2d_96", "config": {"bias_initializer": {"class_name": "Zeros", "config": {}}, "kernel_size": [3, 3], "bias_regularizer": null, "data_format": "channels_last", "kernel_initializer": {"class_name": "VarianceScaling", "config": {"scale": 1.0, "mode": "fan_avg", "distribution": "uniform", "seed": null}}, "filters": 32, "use_bias": false, "name": "conv2d_96", "activation": "linear", "kernel_constraint": null, "kernel_regularizer": null, "strides": [1, 1], "padding": "valid", "dilation_rate": [1, 1], "bias_constraint": null, "trainable": false, "activity_regularizer": null}, "inbound_nodes": [[["activation_95", 0, 0, {}]]], "class_name": "Conv2D"}, {"name": "batch_normalization_96", "config": {"scale": false, "axis": 3, "gamma_regularizer": null, "moving_mean_initializer": {"class_name": "Zeros", "config": {}}, "beta_constraint": null, "gamma_constraint": null, "moving_variance_initializer": {"class_name": "Ones", "config": {}}, "name": "batch_normalization_96", "beta_initializer": {"class_name": "Zeros", "config": {}}, "momentum": 0.99, "gamma_initializer": {"class_name": "Ones", "config": {}}, "beta_regularizer": null, "trainable": false, "epsilon": 0.001, "center": true}, "inbound_nodes": [[["conv2d_96", 0, 0, {}]]], "class_name": "BatchNormalization"}, {"name": "activation_96", "config": {"activation": "relu", "trainable": false, "name": "activation_96"}, "inbound_nodes": [[["batch_normalization_96", 0, 0, {}]]], "class_name": "Activation"}, {"name": "conv2d_97", "config": {"bias_initializer": {"class_name": "Zeros", "config": {}}, "kernel_size": [3, 3], "bias_regularizer": null, "data_format": "channels_last", "kernel_initializer": {"class_name": "VarianceScaling", "config": {"scale": 1.0, "mode": "fan_avg", "distribution": "uniform", "seed": null}}, "filters": 64, "use_bias": false, "name": "conv2d_97", "activation": "linear", "kernel_constraint": null, "kernel_regularizer": null, "strides": [1, 1], "padding": "same", "dilation_rate": [1, 1], "bias_constraint": null, "trainable": false, "activity_regularizer": null}, "inbound_nodes": [[["activation_96", 0, 0, {}]]], "class_name": "Conv2D"}, {"name": "batch_normalization_97", "config": {"scale": false, "axis": 3, "gamma_regularizer": null, "moving_mean_initializer": {"class_name": "Zeros", "config": {}}, "beta_constraint": null, "gamma_constraint": null, "moving_variance_initializer": {"class_name": "Ones", "config": {}}, "name": "batch_normalization_97", "beta_initializer": {"class_name": "Zeros", "config": {}}, "momentum": 0.99, "gamma_initializer": {"class_name": "Ones", "config": {}}, "beta_regularizer": null, "trainable": false, "epsilon": 0.001, "center": true}, "inbound_nodes": [[["conv2d_97", 0, 0, {}]]], "class_name": "BatchNormalization"}, {"name": "activation_97", "config": {"activation": "relu", "trainable": false, "name": "activation_97"}, "inbound_nodes": [[["batch_normalization_97", 0, 0, {}]]], "class_name": "Activation"}, {"name": "max_pooling2d_5", "config": {"strides": [2, 2], "padding": "valid", "data_format": "channels_last", "trainable": false, "pool_size": [3, 3], "name": "max_pooling2d_5"}, "inbound_nodes": [[["activation_97", 0, 0, {}]]], "class_name": "MaxPooling2D"}, {"name": "conv2d_98", "config": {"bias_initializer": {"class_name": "Zeros", "config": {}}, "kernel_size": [1, 1], "bias_regularizer": null, "data_format": "channels_last", "kernel_initializer": {"class_name": "VarianceScaling", "config": {"scale": 1.0, "mode": "fan_avg", "distribution": "uniform", "seed": null}}, "filters": 80, "use_bias": false, "name": "conv2d_98", "activation": "linear", "kernel_constraint": null, "kernel_regularizer": null, "strides": [1, 1], "padding": "valid", "dilation_rate": [1, 1], "bias_constraint": null, "trainable": false, "activity_regularizer": null}, "inbound_nodes": [[["max_pooling2d_5", 0, 0, {}]]], "class_name": "Conv2D"}, {"name": "batch_normalization_98", "config": {"scale": false, "axis": 3, "gamma_regularizer": null, "moving_mean_initializer": {"class_name": "Zeros", "config": {}}, "beta_constraint": null, "gamma_constraint": null, "moving_variance_initializer": {"class_name": "Ones", "config": {}}, "name": "batch_normalization_98", "beta_initializer": {"class_name": "Zeros", "config": {}}, "momentum": 0.99, "gamma_initializer": {"class_name": "Ones", "config": {}}, "beta_regularizer": null, "trainable": false, "epsilon": 0.001, "center": true}, "inbound_nodes": [[["conv2d_98", 0, 0, {}]]], "class_name": "BatchNormalization"}, {"name": "activation_98", "config": {"activation": "relu", "trainable": false, "name": "activation_98"}, "inbound_nodes": [[["batch_normalization_98", 0, 0, {}]]], "class_name": "Activation"}, {"name": "conv2d_99", "config": {"bias_initializer": {"class_name": "Zeros", "config": {}}, "kernel_size": [3, 3], "bias_regularizer": null, "data_format": "channels_last", "kernel_initializer": {"class_name": "VarianceScaling", "config": {"scale": 1.0, "mode": "fan_avg", "distribution": "uniform", "seed": null}}, "filters": 192, "use_bias": false, "name": "conv2d_99", "activation": "linear", "kernel_constraint": null, "kernel_regularizer": null, "strides": [1, 1], "padding": "valid", "dilation_rate": [1, 1], "bias_constraint": null, "trainable": false, "activity_regularizer": null}, "inbound_nodes": [[["activation_98", 0, 0, {}]]], "class_name": "Conv2D"}, {"name": "batch_normalization_99", "config": {"scale": false, "axis": 3, "gamma_regularizer": null, "moving_mean_initializer": {"class_name": "Zeros", "config": {}}, "beta_constraint": null, "gamma_constraint": null, "moving_variance_initializer": {"class_name": "Ones", "config": {}}, "name": "batch_normalization_99", "beta_initializer": {"class_name": "Zeros", "config": {}}, "momentum": 0.99, "gamma_initializer": {"class_name": "Ones", "config": {}}, "beta_regularizer": null, "trainable": false, "epsilon": 0.001, "center": true}, "inbound_nodes": [[["conv2d_99", 0, 0, {}]]], "class_name": "BatchNormalization"}, {"name": "activation_99", "config": {"activation": "relu", "trainable": false, "name": "activation_99"}, "inbound_nodes": [[["batch_normalization_99", 0, 0, {}]]], "class_name": "Activation"}, {"name": "max_pooling2d_6", "config": {"strides": [2, 2], "padding": "valid", "data_format": "channels_last", "trainable": false, "pool_size": [3, 3], "name": "max_pooling2d_6"}, "inbound_nodes": [[["activation_99", 0, 0, {}]]], "class_name": "MaxPooling2D"}, {"name": "conv2d_103", "config": {"bias_initializer": {"class_name": "Zeros", "config": {}}, "kernel_size": [1, 1], "bias_regularizer": null, "data_format": "channels_last", "kernel_initializer": {"class_name": "VarianceScaling", "config": {"scale": 1.0, "mode": "fan_avg", "distribution": "uniform", "seed": null}}, "filters": 64, "use_bias": false, "name": "conv2d_103", "activation": "linear", "kernel_constraint": null, "kernel_regularizer": null, "strides": [1, 1], "padding": "same", "dilation_rate": [1, 1], "bias_constraint": null, "trainable": false, "activity_regularizer": null}, "inbound_nodes": [[["max_pooling2d_6", 0, 0, {}]]], "class_name": "Conv2D"}, {"name": "batch_normalization_103", "config": {"scale": false, "axis": 3, "gamma_regularizer": null, "moving_mean_initializer": {"class_name": "Zeros", "config": {}}, "beta_constraint": null, "gamma_constraint": null, "moving_variance_initializer": {"class_name": "Ones", "config": {}}, "name": "batch_normalization_103", "beta_initializer": {"class_name": "Zeros", "config": {}}, "momentum": 0.99, "gamma_initializer": {"class_name": "Ones", "config": {}}, "beta_regularizer": null, "trainable": false, "epsilon": 0.001, "center": true}, "inbound_nodes": [[["conv2d_103", 0, 0, {}]]], "class_name": "BatchNormalization"}, {"name": "activation_103", "config": {"activation": "relu", "trainable": false, "name": "activation_103"}, "inbound_nodes": [[["batch_normalization_103", 0, 0, {}]]], "class_name": "Activation"}, {"name": "conv2d_101", "config": {"bias_initializer": {"class_name": "Zeros", "config": {}}, "kernel_size": [1, 1], "bias_regularizer": null, "data_format": "channels_last", "kernel_initializer": {"class_name": "VarianceScaling", "config": {"scale": 1.0, "mode": "fan_avg", "distribution": "uniform", "seed": null}}, "filters": 48, "use_bias": false, "name": "conv2d_101", "activation": "linear", "kernel_constraint": null, "kernel_regularizer": null, "strides": [1, 1], "padding": "same", "dilation_rate": [1, 1], "bias_constraint": null, "trainable": false, "activity_regularizer": null}, "inbound_nodes": [[["max_pooling2d_6", 0, 0, {}]]], "class_name": "Conv2D"}, {"name": "conv2d_104", "config": {"bias_initializer": {"class_name": "Zeros", "config": {}}, "kernel_size": [3, 3], "bias_regularizer": null, "data_format": "channels_last", "kernel_initializer": {"class_name": "VarianceScaling", "config": {"scale": 1.0, "mode": "fan_avg", "distribution": "uniform", "seed": null}}, "filters": 96, "use_bias": false, "name": "conv2d_104", "activation": "linear", "kernel_constraint": null, "kernel_regularizer": null, "strides": [1, 1], "padding": "same", "dilation_rate": [1, 1], "bias_constraint": null, "trainable": false, "activity_regularizer": null}, "inbound_nodes": [[["activation_103", 0, 0, {}]]], "class_name": "Conv2D"}, {"name": "batch_normalization_101", "config": {"scale": false, "axis": 3, "gamma_regularizer": null, "moving_mean_initializer": {"class_name": "Zeros", "config": {}}, "beta_constraint": null, "gamma_constraint": null, "moving_variance_initializer": {"class_name": "Ones", "config": {}}, "name": "batch_normalization_101", "beta_initializer": {"class_name": "Zeros", "config": {}}, "momentum": 0.99, "gamma_initializer": {"class_name": "Ones", "config": {}}, "beta_regularizer": null, "trainable": false, "epsilon": 0.001, "center": true}, "inbound_nodes": [[["conv2d_101", 0, 0, {}]]], "class_name": "BatchNormalization"}, {"name": "batch_normalization_104", "config": {"scale": false, "axis": 3, "gamma_regularizer": null, "moving_mean_initializer": {"class_name": "Zeros", "config": {}}, "beta_constraint": null, "gamma_constraint": null, "moving_variance_initializer": {"class_name": "Ones", "config": {}}, "name": "batch_normalization_104", "beta_initializer": {"class_name": "Zeros", "config": {}}, "momentum": 0.99, "gamma_initializer": {"class_name": "Ones", "config": {}}, "beta_regularizer": null, "trainable": false, "epsilon": 0.001, "center": true}, "inbound_nodes": [[["conv2d_104", 0, 0, {}]]], "class_name": "BatchNormalization"}, {"name": "activation_101", "config": {"activation": "relu", "trainable": false, "name": "activation_101"}, "inbound_nodes": [[["batch_normalization_101", 0, 0, {}]]], "class_name": "Activation"}, {"name": "activation_104", "config": {"activation": "relu", "trainable": false, "name": "activation_104"}, "inbound_nodes": [[["batch_normalization_104", 0, 0, {}]]], "class_name": "Activation"}, {"name": "average_pooling2d_10", "config": {"strides": [1, 1], "padding": "same", "data_format": "channels_last", "trainable": false, "pool_size": [3, 3], "name": "average_pooling2d_10"}, "inbound_nodes": [[["max_pooling2d_6", 0, 0, {}]]], "class_name": "AveragePooling2D"}, {"name": "conv2d_100", "config": {"bias_initializer": {"class_name": "Zeros", "config": {}}, "kernel_size": [1, 1], "bias_regularizer": null, "data_format": "channels_last", "kernel_initializer": {"class_name": "VarianceScaling", "config": {"scale": 1.0, "mode": "fan_avg", "distribution": "uniform", "seed": null}}, "filters": 64, "use_bias": false, "name": "conv2d_100", "activation": "linear", "kernel_constraint": null, "kernel_regularizer": null, "strides": [1, 1], "padding": "same", "dilation_rate": [1, 1], "bias_constraint": null, "trainable": false, "activity_regularizer": null}, "inbound_nodes": [[["max_pooling2d_6", 0, 0, {}]]], "class_name": "Conv2D"}, {"name": "conv2d_102", "config": {"bias_initializer": {"class_name": "Zeros", "config": {}}, "kernel_size": [5, 5], "bias_regularizer": null, "data_format": "channels_last", "kernel_initializer": {"class_name": "VarianceScaling", "config": {"scale": 1.0, "mode": "fan_avg", "distribution": "uniform", "seed": null}}, "filters": 64, "use_bias": false, "name": "conv2d_102", "activation": "linear", "kernel_constraint": null, "kernel_regularizer": null, "strides": [1, 1], "padding": "same", "dilation_rate": [1, 1], "bias_constraint": null, "trainable": false, "activity_regularizer": null}, "inbound_nodes": [[["activation_101", 0, 0, {}]]], "class_name": "Conv2D"}, {"name": "conv2d_105", "config": {"bias_initializer": {"class_name": "Zeros", "config": {}}, "kernel_size": [3, 3], "bias_regularizer": null, "data_format": "channels_last", "kernel_initializer": {"class_name": "VarianceScaling", "config": {"scale": 1.0, "mode": "fan_avg", "distribution": "uniform", "seed": null}}, "filters": 96, "use_bias": false, "name": "conv2d_105", "activation": "linear", "kernel_constraint": null, "kernel_regularizer": null, "strides": [1, 1], "padding": "same", "dilation_rate": [1, 1], "bias_constraint": null, "trainable": false, "activity_regularizer": null}, "inbound_nodes": [[["activation_104", 0, 0, {}]]], "class_name": "Conv2D"}, {"name": "conv2d_106", "config": {"bias_initializer": {"class_name": "Zeros", "config": {}}, "kernel_size": [1, 1], "bias_regularizer": null, "data_format": "channels_last", "kernel_initializer": {"class_name": "VarianceScaling", "config": {"scale": 1.0, "mode": "fan_avg", "distribution": "uniform", "seed": null}}, "filters": 32, "use_bias": false, "name": "conv2d_106", "activation": "linear", "kernel_constraint": null, "kernel_regularizer": null, "strides": [1, 1], "padding": "same", "dilation_rate": [1, 1], "bias_constraint": null, "trainable": false, "activity_regularizer": null}, "inbound_nodes": [[["average_pooling2d_10", 0, 0, {}]]], "class_name": "Conv2D"}, {"name": "batch_normalization_100", "config": {"scale": false, "axis": 3, "gamma_regularizer": null, "moving_mean_initializer": {"class_name": "Zeros", "config": {}}, "beta_constraint": null, "gamma_constraint": null, "moving_variance_initializer": {"class_name": "Ones", "config": {}}, "name": "batch_normalization_100", "beta_initializer": {"class_name": "Zeros", "config": {}}, "momentum": 0.99, "gamma_initializer": {"class_name": "Ones", "config": {}}, "beta_regularizer": null, "trainable": false, "epsilon": 0.001, "center": true}, "inbound_nodes": [[["conv2d_100", 0, 0, {}]]], "class_name": "BatchNormalization"}, {"name": "batch_normalization_102", "config": {"scale": false, "axis": 3, "gamma_regularizer": null, "moving_mean_initializer": {"class_name": "Zeros", "config": {}}, "beta_constraint": null, "gamma_constraint": null, "moving_variance_initializer": {"class_name": "Ones", "config": {}}, "name": "batch_normalization_102", "beta_initializer": {"class_name": "Zeros", "config": {}}, "momentum": 0.99, "gamma_initializer": {"class_name": "Ones", "config": {}}, "beta_regularizer": null, "trainable": false, "epsilon": 0.001, "center": true}, "inbound_nodes": [[["conv2d_102", 0, 0, {}]]], "class_name": "BatchNormalization"}, {"name": "batch_normalization_105", "config": {"scale": false, "axis": 3, "gamma_regularizer": null, "moving_mean_initializer": {"class_name": "Zeros", "config": {}}, "beta_constraint": null, "gamma_constraint": null, "moving_variance_initializer": {"class_name": "Ones", "config": {}}, "name": "batch_normalization_105", "beta_initializer": {"class_name": "Zeros", "config": {}}, "momentum": 0.99, "gamma_initializer": {"class_name": "Ones", "config": {}}, "beta_regularizer": null, "trainable": false, "epsilon": 0.001, "center": true}, "inbound_nodes": [[["conv2d_105", 0, 0, {}]]], "class_name": "BatchNormalization"}, {"name": "batch_normalization_106", "config": {"scale": false, "axis": 3, "gamma_regularizer": null, "moving_mean_initializer": {"class_name": "Zeros", "config": {}}, "beta_constraint": null, "gamma_constraint": null, "moving_variance_initializer": {"class_name": "Ones", "config": {}}, "name": "batch_normalization_106", "beta_initializer": {"class_name": "Zeros", "config": {}}, "momentum": 0.99, "gamma_initializer": {"class_name": "Ones", "config": {}}, "beta_regularizer": null, "trainable": false, "epsilon": 0.001, "center": true}, "inbound_nodes": [[["conv2d_106", 0, 0, {}]]], "class_name": "BatchNormalization"}, {"name": "activation_100", "config": {"activation": "relu", "trainable": false, "name": "activation_100"}, "inbound_nodes": [[["batch_normalization_100", 0, 0, {}]]], "class_name": "Activation"}, {"name": "activation_102", "config": {"activation": "relu", "trainable": false, "name": "activation_102"}, "inbound_nodes": [[["batch_normalization_102", 0, 0, {}]]], "class_name": "Activation"}, {"name": "activation_105", "config": {"activation": "relu", "trainable": false, "name": "activation_105"}, "inbound_nodes": [[["batch_normalization_105", 0, 0, {}]]], "class_name": "Activation"}, {"name": "activation_106", "config": {"activation": "relu", "trainable": false, "name": "activation_106"}, "inbound_nodes": [[["batch_normalization_106", 0, 0, {}]]], "class_name": "Activation"}, {"name": "mixed0", "config": {"axis": 3, "trainable": false, "name": "mixed0"}, "inbound_nodes": [[["activation_100", 0, 0, {}], ["activation_102", 0, 0, {}], ["activation_105", 0, 0, {}], ["activation_106", 0, 0, {}]]], "class_name": "Concatenate"}, {"name": "conv2d_110", "config": {"bias_initializer": {"class_name": "Zeros", "config": {}}, "kernel_size": [1, 1], "bias_regularizer": null, "data_format": "channels_last", "kernel_initializer": {"class_name": "VarianceScaling", "config": {"scale": 1.0, "mode": "fan_avg", "distribution": "uniform", "seed": null}}, "filters": 64, "use_bias": false, "name": "conv2d_110", "activation": "linear", "kernel_constraint": null, "kernel_regularizer": null, "strides": [1, 1], "padding": "same", "dilation_rate": [1, 1], "bias_constraint": null, "trainable": false, "activity_regularizer": null}, "inbound_nodes": [[["mixed0", 0, 0, {}]]], "class_name": "Conv2D"}, {"name": "batch_normalization_110", "config": {"scale": false, "axis": 3, "gamma_regularizer": null, "moving_mean_initializer": {"class_name": "Zeros", "config": {}}, "beta_constraint": null, "gamma_constraint": null, "moving_variance_initializer": {"class_name": "Ones", "config": {}}, "name": "batch_normalization_110", "beta_initializer": {"class_name": "Zeros", "config": {}}, "momentum": 0.99, "gamma_initializer": {"class_name": "Ones", "config": {}}, "beta_regularizer": null, "trainable": false, "epsilon": 0.001, "center": true}, "inbound_nodes": [[["conv2d_110", 0, 0, {}]]], "class_name": "BatchNormalization"}, {"name": "activation_110", "config": {"activation": "relu", "trainable": false, "name": "activation_110"}, "inbound_nodes": [[["batch_normalization_110", 0, 0, {}]]], "class_name": "Activation"}, {"name": "conv2d_108", "config": {"bias_initializer": {"class_name": "Zeros", "config": {}}, "kernel_size": [1, 1], "bias_regularizer": null, "data_format": "channels_last", "kernel_initializer": {"class_name": "VarianceScaling", "config": {"scale": 1.0, "mode": "fan_avg", "distribution": "uniform", "seed": null}}, "filters": 48, "use_bias": false, "name": "conv2d_108", "activation": "linear", "kernel_constraint": null, "kernel_regularizer": null, "strides": [1, 1], "padding": "same", "dilation_rate": [1, 1], "bias_constraint": null, "trainable": false, "activity_regularizer": null}, "inbound_nodes": [[["mixed0", 0, 0, {}]]], "class_name": "Conv2D"}, {"name": "conv2d_111", "config": {"bias_initializer": {"class_name": "Zeros", "config": {}}, "kernel_size": [3, 3], "bias_regularizer": null, "data_format": "channels_last", "kernel_initializer": {"class_name": "VarianceScaling", "config": {"scale": 1.0, "mode": "fan_avg", "distribution": "uniform", "seed": null}}, "filters": 96, "use_bias": false, "name": "conv2d_111", "activation": "linear", "kernel_constraint": null, "kernel_regularizer": null, "strides": [1, 1], "padding": "same", "dilation_rate": [1, 1], "bias_constraint": null, "trainable": false, "activity_regularizer": null}, "inbound_nodes": [[["activation_110", 0, 0, {}]]], "class_name": "Conv2D"}, {"name": "batch_normalization_108", "config": {"scale": false, "axis": 3, "gamma_regularizer": null, "moving_mean_initializer": {"class_name": "Zeros", "config": {}}, "beta_constraint": null, "gamma_constraint": null, "moving_variance_initializer": {"class_name": "Ones", "config": {}}, "name": "batch_normalization_108", "beta_initializer": {"class_name": "Zeros", "config": {}}, "momentum": 0.99, "gamma_initializer": {"class_name": "Ones", "config": {}}, "beta_regularizer": null, "trainable": false, "epsilon": 0.001, "center": true}, "inbound_nodes": [[["conv2d_108", 0, 0, {}]]], "class_name": "BatchNormalization"}, {"name": "batch_normalization_111", "config": {"scale": false, "axis": 3, "gamma_regularizer": null, "moving_mean_initializer": {"class_name": "Zeros", "config": {}}, "beta_constraint": null, "gamma_constraint": null, "moving_variance_initializer": {"class_name": "Ones", "config": {}}, "name": "batch_normalization_111", "beta_initializer": {"class_name": "Zeros", "config": {}}, "momentum": 0.99, "gamma_initializer": {"class_name": "Ones", "config": {}}, "beta_regularizer": null, "trainable": false, "epsilon": 0.001, "center": true}, "inbound_nodes": [[["conv2d_111", 0, 0, {}]]], "class_name": "BatchNormalization"}, {"name": "activation_108", "config": {"activation": "relu", "trainable": false, "name": "activation_108"}, "inbound_nodes": [[["batch_normalization_108", 0, 0, {}]]], "class_name": "Activation"}, {"name": "activation_111", "config": {"activation": "relu", "trainable": false, "name": "activation_111"}, "inbound_nodes": [[["batch_normalization_111", 0, 0, {}]]], "class_name": "Activation"}, {"name": "average_pooling2d_11", "config": {"strides": [1, 1], "padding": "same", "data_format": "channels_last", "trainable": false, "pool_size": [3, 3], "name": "average_pooling2d_11"}, "inbound_nodes": [[["mixed0", 0, 0, {}]]], "class_name": "AveragePooling2D"}, {"name": "conv2d_107", "config": {"bias_initializer": {"class_name": "Zeros", "config": {}}, "kernel_size": [1, 1], "bias_regularizer": null, "data_format": "channels_last", "kernel_initializer": {"class_name": "VarianceScaling", "config": {"scale": 1.0, "mode": "fan_avg", "distribution": "uniform", "seed": null}}, "filters": 64, "use_bias": false, "name": "conv2d_107", "activation": "linear", "kernel_constraint": null, "kernel_regularizer": null, "strides": [1, 1], "padding": "same", "dilation_rate": [1, 1], "bias_constraint": null, "trainable": false, "activity_regularizer": null}, "inbound_nodes": [[["mixed0", 0, 0, {}]]], "class_name": "Conv2D"}, {"name": "conv2d_109", "config": {"bias_initializer": {"class_name": "Zeros", "config": {}}, "kernel_size": [5, 5], "bias_regularizer": null, "data_format": "channels_last", "kernel_initializer": {"class_name": "VarianceScaling", "config": {"scale": 1.0, "mode": "fan_avg", "distribution": "uniform", "seed": null}}, "filters": 64, "use_bias": false, "name": "conv2d_109", "activation": "linear", "kernel_constraint": null, "kernel_regularizer": null, "strides": [1, 1], "padding": "same", "dilation_rate": [1, 1], "bias_constraint": null, "trainable": false, "activity_regularizer": null}, "inbound_nodes": [[["activation_108", 0, 0, {}]]], "class_name": "Conv2D"}, {"name": "conv2d_112", "config": {"bias_initializer": {"class_name": "Zeros", "config": {}}, "kernel_size": [3, 3], "bias_regularizer": null, "data_format": "channels_last", "kernel_initializer": {"class_name": "VarianceScaling", "config": {"scale": 1.0, "mode": "fan_avg", "distribution": "uniform", "seed": null}}, "filters": 96, "use_bias": false, "name": "conv2d_112", "activation": "linear", "kernel_constraint": null, "kernel_regularizer": null, "strides": [1, 1], "padding": "same", "dilation_rate": [1, 1], "bias_constraint": null, "trainable": false, "activity_regularizer": null}, "inbound_nodes": [[["activation_111", 0, 0, {}]]], "class_name": "Conv2D"}, {"name": "conv2d_113", "config": {"bias_initializer": {"class_name": "Zeros", "config": {}}, "kernel_size": [1, 1], "bias_regularizer": null, "data_format": "channels_last", "kernel_initializer": {"class_name": "VarianceScaling", "config": {"scale": 1.0, "mode": "fan_avg", "distribution": "uniform", "seed": null}}, "filters": 64, "use_bias": false, "name": "conv2d_113", "activation": "linear", "kernel_constraint": null, "kernel_regularizer": null, "strides": [1, 1], "padding": "same", "dilation_rate": [1, 1], "bias_constraint": null, "trainable": false, "activity_regularizer": null}, "inbound_nodes": [[["average_pooling2d_11", 0, 0, {}]]], "class_name": "Conv2D"}, {"name": "batch_normalization_107", "config": {"scale": false, "axis": 3, "gamma_regularizer": null, "moving_mean_initializer": {"class_name": "Zeros", "config": {}}, "beta_constraint": null, "gamma_constraint": null, "moving_variance_initializer": {"class_name": "Ones", "config": {}}, "name": "batch_normalization_107", "beta_initializer": {"class_name": "Zeros", "config": {}}, "momentum": 0.99, "gamma_initializer": {"class_name": "Ones", "config": {}}, "beta_regularizer": null, "trainable": false, "epsilon": 0.001, "center": true}, "inbound_nodes": [[["conv2d_107", 0, 0, {}]]], "class_name": "BatchNormalization"}, {"name": "batch_normalization_109", "config": {"scale": false, "axis": 3, "gamma_regularizer": null, "moving_mean_initializer": {"class_name": "Zeros", "config": {}}, "beta_constraint": null, "gamma_constraint": null, "moving_variance_initializer": {"class_name": "Ones", "config": {}}, "name": "batch_normalization_109", "beta_initializer": {"class_name": "Zeros", "config": {}}, "momentum": 0.99, "gamma_initializer": {"class_name": "Ones", "config": {}}, "beta_regularizer": null, "trainable": false, "epsilon": 0.001, "center": true}, "inbound_nodes": [[["conv2d_109", 0, 0, {}]]], "class_name": "BatchNormalization"}, {"name": "batch_normalization_112", "config": {"scale": false, "axis": 3, "gamma_regularizer": null, "moving_mean_initializer": {"class_name": "Zeros", "config": {}}, "beta_constraint": null, "gamma_constraint": null, "moving_variance_initializer": {"class_name": "Ones", "config": {}}, "name": "batch_normalization_112", "beta_initializer": {"class_name": "Zeros", "config": {}}, "momentum": 0.99, "gamma_initializer": {"class_name": "Ones", "config": {}}, "beta_regularizer": null, "trainable": false, "epsilon": 0.001, "center": true}, "inbound_nodes": [[["conv2d_112", 0, 0, {}]]], "class_name": "BatchNormalization"}, {"name": "batch_normalization_113", "config": {"scale": false, "axis": 3, "gamma_regularizer": null, "moving_mean_initializer": {"class_name": "Zeros", "config": {}}, "beta_constraint": null, "gamma_constraint": null, "moving_variance_initializer": {"class_name": "Ones", "config": {}}, "name": "batch_normalization_113", "beta_initializer": {"class_name": "Zeros", "config": {}}, "momentum": 0.99, "gamma_initializer": {"class_name": "Ones", "config": {}}, "beta_regularizer": null, "trainable": false, "epsilon": 0.001, "center": true}, "inbound_nodes": [[["conv2d_113", 0, 0, {}]]], "class_name": "BatchNormalization"}, {"name": "activation_107", "config": {"activation": "relu", "trainable": false, "name": "activation_107"}, "inbound_nodes": [[["batch_normalization_107", 0, 0, {}]]], "class_name": "Activation"}, {"name": "activation_109", "config": {"activation": "relu", "trainable": false, "name": "activation_109"}, "inbound_nodes": [[["batch_normalization_109", 0, 0, {}]]], "class_name": "Activation"}, {"name": "activation_112", "config": {"activation": "relu", "trainable": false, "name": "activation_112"}, "inbound_nodes": [[["batch_normalization_112", 0, 0, {}]]], "class_name": "Activation"}, {"name": "activation_113", "config": {"activation": "relu", "trainable": false, "name": "activation_113"}, "inbound_nodes": [[["batch_normalization_113", 0, 0, {}]]], "class_name": "Activation"}, {"name": "mixed1", "config": {"axis": 3, "trainable": false, "name": "mixed1"}, "inbound_nodes": [[["activation_107", 0, 0, {}], ["activation_109", 0, 0, {}], ["activation_112", 0, 0, {}], ["activation_113", 0, 0, {}]]], "class_name": "Concatenate"}, {"name": "conv2d_117", "config": {"bias_initializer": {"class_name": "Zeros", "config": {}}, "kernel_size": [1, 1], "bias_regularizer": null, "data_format": "channels_last", "kernel_initializer": {"class_name": "VarianceScaling", "config": {"scale": 1.0, "mode": "fan_avg", "distribution": "uniform", "seed": null}}, "filters": 64, "use_bias": false, "name": "conv2d_117", "activation": "linear", "kernel_constraint": null, "kernel_regularizer": null, "strides": [1, 1], "padding": "same", "dilation_rate": [1, 1], "bias_constraint": null, "trainable": false, "activity_regularizer": null}, "inbound_nodes": [[["mixed1", 0, 0, {}]]], "class_name": "Conv2D"}, {"name": "batch_normalization_117", "config": {"scale": false, "axis": 3, "gamma_regularizer": null, "moving_mean_initializer": {"class_name": "Zeros", "config": {}}, "beta_constraint": null, "gamma_constraint": null, "moving_variance_initializer": {"class_name": "Ones", "config": {}}, "name": "batch_normalization_117", "beta_initializer": {"class_name": "Zeros", "config": {}}, "momentum": 0.99, "gamma_initializer": {"class_name": "Ones", "config": {}}, "beta_regularizer": null, "trainable": false, "epsilon": 0.001, "center": true}, "inbound_nodes": [[["conv2d_117", 0, 0, {}]]], "class_name": "BatchNormalization"}, {"name": "activation_117", "config": {"activation": "relu", "trainable": false, "name": "activation_117"}, "inbound_nodes": [[["batch_normalization_117", 0, 0, {}]]], "class_name": "Activation"}, {"name": "conv2d_115", "config": {"bias_initializer": {"class_name": "Zeros", "config": {}}, "kernel_size": [1, 1], "bias_regularizer": null, "data_format": "channels_last", "kernel_initializer": {"class_name": "VarianceScaling", "config": {"scale": 1.0, "mode": "fan_avg", "distribution": "uniform", "seed": null}}, "filters": 48, "use_bias": false, "name": "conv2d_115", "activation": "linear", "kernel_constraint": null, "kernel_regularizer": null, "strides": [1, 1], "padding": "same", "dilation_rate": [1, 1], "bias_constraint": null, "trainable": false, "activity_regularizer": null}, "inbound_nodes": [[["mixed1", 0, 0, {}]]], "class_name": "Conv2D"}, {"name": "conv2d_118", "config": {"bias_initializer": {"class_name": "Zeros", "config": {}}, "kernel_size": [3, 3], "bias_regularizer": null, "data_format": "channels_last", "kernel_initializer": {"class_name": "VarianceScaling", "config": {"scale": 1.0, "mode": "fan_avg", "distribution": "uniform", "seed": null}}, "filters": 96, "use_bias": false, "name": "conv2d_118", "activation": "linear", "kernel_constraint": null, "kernel_regularizer": null, "strides": [1, 1], "padding": "same", "dilation_rate": [1, 1], "bias_constraint": null, "trainable": false, "activity_regularizer": null}, "inbound_nodes": [[["activation_117", 0, 0, {}]]], "class_name": "Conv2D"}, {"name": "batch_normalization_115", "config": {"scale": false, "axis": 3, "gamma_regularizer": null, "moving_mean_initializer": {"class_name": "Zeros", "config": {}}, "beta_constraint": null, "gamma_constraint": null, "moving_variance_initializer": {"class_name": "Ones", "config": {}}, "name": "batch_normalization_115", "beta_initializer": {"class_name": "Zeros", "config": {}}, "momentum": 0.99, "gamma_initializer": {"class_name": "Ones", "config": {}}, "beta_regularizer": null, "trainable": false, "epsilon": 0.001, "center": true}, "inbound_nodes": [[["conv2d_115", 0, 0, {}]]], "class_name": "BatchNormalization"}, {"name": "batch_normalization_118", "config": {"scale": false, "axis": 3, "gamma_regularizer": null, "moving_mean_initializer": {"class_name": "Zeros", "config": {}}, "beta_constraint": null, "gamma_constraint": null, "moving_variance_initializer": {"class_name": "Ones", "config": {}}, "name": "batch_normalization_118", "beta_initializer": {"class_name": "Zeros", "config": {}}, "momentum": 0.99, "gamma_initializer": {"class_name": "Ones", "config": {}}, "beta_regularizer": null, "trainable": false, "epsilon": 0.001, "center": true}, "inbound_nodes": [[["conv2d_118", 0, 0, {}]]], "class_name": "BatchNormalization"}, {"name": "activation_115", "config": {"activation": "relu", "trainable": false, "name": "activation_115"}, "inbound_nodes": [[["batch_normalization_115", 0, 0, {}]]], "class_name": "Activation"}, {"name": "activation_118", "config": {"activation": "relu", "trainable": false, "name": "activation_118"}, "inbound_nodes": [[["batch_normalization_118", 0, 0, {}]]], "class_name": "Activation"}, {"name": "average_pooling2d_12", "config": {"strides": [1, 1], "padding": "same", "data_format": "channels_last", "trainable": false, "pool_size": [3, 3], "name": "average_pooling2d_12"}, "inbound_nodes": [[["mixed1", 0, 0, {}]]], "class_name": "AveragePooling2D"}, {"name": "conv2d_114", "config": {"bias_initializer": {"class_name": "Zeros", "config": {}}, "kernel_size": [1, 1], "bias_regularizer": null, "data_format": "channels_last", "kernel_initializer": {"class_name": "VarianceScaling", "config": {"scale": 1.0, "mode": "fan_avg", "distribution": "uniform", "seed": null}}, "filters": 64, "use_bias": false, "name": "conv2d_114", "activation": "linear", "kernel_constraint": null, "kernel_regularizer": null, "strides": [1, 1], "padding": "same", "dilation_rate": [1, 1], "bias_constraint": null, "trainable": false, "activity_regularizer": null}, "inbound_nodes": [[["mixed1", 0, 0, {}]]], "class_name": "Conv2D"}, {"name": "conv2d_116", "config": {"bias_initializer": {"class_name": "Zeros", "config": {}}, "kernel_size": [5, 5], "bias_regularizer": null, "data_format": "channels_last", "kernel_initializer": {"class_name": "VarianceScaling", "config": {"scale": 1.0, "mode": "fan_avg", "distribution": "uniform", "seed": null}}, "filters": 64, "use_bias": false, "name": "conv2d_116", "activation": "linear", "kernel_constraint": null, "kernel_regularizer": null, "strides": [1, 1], "padding": "same", "dilation_rate": [1, 1], "bias_constraint": null, "trainable": false, "activity_regularizer": null}, "inbound_nodes": [[["activation_115", 0, 0, {}]]], "class_name": "Conv2D"}, {"name": "conv2d_119", "config": {"bias_initializer": {"class_name": "Zeros", "config": {}}, "kernel_size": [3, 3], "bias_regularizer": null, "data_format": "channels_last", "kernel_initializer": {"class_name": "VarianceScaling", "config": {"scale": 1.0, "mode": "fan_avg", "distribution": "uniform", "seed": null}}, "filters": 96, "use_bias": false, "name": "conv2d_119", "activation": "linear", "kernel_constraint": null, "kernel_regularizer": null, "strides": [1, 1], "padding": "same", "dilation_rate": [1, 1], "bias_constraint": null, "trainable": false, "activity_regularizer": null}, "inbound_nodes": [[["activation_118", 0, 0, {}]]], "class_name": "Conv2D"}, {"name": "conv2d_120", "config": {"bias_initializer": {"class_name": "Zeros", "config": {}}, "kernel_size": [1, 1], "bias_regularizer": null, "data_format": "channels_last", "kernel_initializer": {"class_name": "VarianceScaling", "config": {"scale": 1.0, "mode": "fan_avg", "distribution": "uniform", "seed": null}}, "filters": 64, "use_bias": false, "name": "conv2d_120", "activation": "linear", "kernel_constraint": null, "kernel_regularizer": null, "strides": [1, 1], "padding": "same", "dilation_rate": [1, 1], "bias_constraint": null, "trainable": false, "activity_regularizer": null}, "inbound_nodes": [[["average_pooling2d_12", 0, 0, {}]]], "class_name": "Conv2D"}, {"name": "batch_normalization_114", "config": {"scale": false, "axis": 3, "gamma_regularizer": null, "moving_mean_initializer": {"class_name": "Zeros", "config": {}}, "beta_constraint": null, "gamma_constraint": null, "moving_variance_initializer": {"class_name": "Ones", "config": {}}, "name": "batch_normalization_114", "beta_initializer": {"class_name": "Zeros", "config": {}}, "momentum": 0.99, "gamma_initializer": {"class_name": "Ones", "config": {}}, "beta_regularizer": null, "trainable": false, "epsilon": 0.001, "center": true}, "inbound_nodes": [[["conv2d_114", 0, 0, {}]]], "class_name": "BatchNormalization"}, {"name": "batch_normalization_116", "config": {"scale": false, "axis": 3, "gamma_regularizer": null, "moving_mean_initializer": {"class_name": "Zeros", "config": {}}, "beta_constraint": null, "gamma_constraint": null, "moving_variance_initializer": {"class_name": "Ones", "config": {}}, "name": "batch_normalization_116", "beta_initializer": {"class_name": "Zeros", "config": {}}, "momentum": 0.99, "gamma_initializer": {"class_name": "Ones", "config": {}}, "beta_regularizer": null, "trainable": false, "epsilon": 0.001, "center": true}, "inbound_nodes": [[["conv2d_116", 0, 0, {}]]], "class_name": "BatchNormalization"}, {"name": "batch_normalization_119", "config": {"scale": false, "axis": 3, "gamma_regularizer": null, "moving_mean_initializer": {"class_name": "Zeros", "config": {}}, "beta_constraint": null, "gamma_constraint": null, "moving_variance_initializer": {"class_name": "Ones", "config": {}}, "name": "batch_normalization_119", "beta_initializer": {"class_name": "Zeros", "config": {}}, "momentum": 0.99, "gamma_initializer": {"class_name": "Ones", "config": {}}, "beta_regularizer": null, "trainable": false, "epsilon": 0.001, "center": true}, "inbound_nodes": [[["conv2d_119", 0, 0, {}]]], "class_name": "BatchNormalization"}, {"name": "batch_normalization_120", "config": {"scale": false, "axis": 3, "gamma_regularizer": null, "moving_mean_initializer": {"class_name": "Zeros", "config": {}}, "beta_constraint": null, "gamma_constraint": null, "moving_variance_initializer": {"class_name": "Ones", "config": {}}, "name": "batch_normalization_120", "beta_initializer": {"class_name": "Zeros", "config": {}}, "momentum": 0.99, "gamma_initializer": {"class_name": "Ones", "config": {}}, "beta_regularizer": null, "trainable": false, "epsilon": 0.001, "center": true}, "inbound_nodes": [[["conv2d_120", 0, 0, {}]]], "class_name": "BatchNormalization"}, {"name": "activation_114", "config": {"activation": "relu", "trainable": false, "name": "activation_114"}, "inbound_nodes": [[["batch_normalization_114", 0, 0, {}]]], "class_name": "Activation"}, {"name": "activation_116", "config": {"activation": "relu", "trainable": false, "name": "activation_116"}, "inbound_nodes": [[["batch_normalization_116", 0, 0, {}]]], "class_name": "Activation"}, {"name": "activation_119", "config": {"activation": "relu", "trainable": false, "name": "activation_119"}, "inbound_nodes": [[["batch_normalization_119", 0, 0, {}]]], "class_name": "Activation"}, {"name": "activation_120", "config": {"activation": "relu", "trainable": false, "name": "activation_120"}, "inbound_nodes": [[["batch_normalization_120", 0, 0, {}]]], "class_name": "Activation"}, {"name": "mixed2", "config": {"axis": 3, "trainable": false, "name": "mixed2"}, "inbound_nodes": [[["activation_114", 0, 0, {}], ["activation_116", 0, 0, {}], ["activation_119", 0, 0, {}], ["activation_120", 0, 0, {}]]], "class_name": "Concatenate"}, {"name": "conv2d_122", "config": {"bias_initializer": {"class_name": "Zeros", "config": {}}, "kernel_size": [1, 1], "bias_regularizer": null, "data_format": "channels_last", "kernel_initializer": {"class_name": "VarianceScaling", "config": {"scale": 1.0, "mode": "fan_avg", "distribution": "uniform", "seed": null}}, "filters": 64, "use_bias": false, "name": "conv2d_122", "activation": "linear", "kernel_constraint": null, "kernel_regularizer": null, "strides": [1, 1], "padding": "same", "dilation_rate": [1, 1], "bias_constraint": null, "trainable": false, "activity_regularizer": null}, "inbound_nodes": [[["mixed2", 0, 0, {}]]], "class_name": "Conv2D"}, {"name": "batch_normalization_122", "config": {"scale": false, "axis": 3, "gamma_regularizer": null, "moving_mean_initializer": {"class_name": "Zeros", "config": {}}, "beta_constraint": null, "gamma_constraint": null, "moving_variance_initializer": {"class_name": "Ones", "config": {}}, "name": "batch_normalization_122", "beta_initializer": {"class_name": "Zeros", "config": {}}, "momentum": 0.99, "gamma_initializer": {"class_name": "Ones", "config": {}}, "beta_regularizer": null, "trainable": false, "epsilon": 0.001, "center": true}, "inbound_nodes": [[["conv2d_122", 0, 0, {}]]], "class_name": "BatchNormalization"}, {"name": "activation_122", "config": {"activation": "relu", "trainable": false, "name": "activation_122"}, "inbound_nodes": [[["batch_normalization_122", 0, 0, {}]]], "class_name": "Activation"}, {"name": "conv2d_123", "config": {"bias_initializer": {"class_name": "Zeros", "config": {}}, "kernel_size": [3, 3], "bias_regularizer": null, "data_format": "channels_last", "kernel_initializer": {"class_name": "VarianceScaling", "config": {"scale": 1.0, "mode": "fan_avg", "distribution": "uniform", "seed": null}}, "filters": 96, "use_bias": false, "name": "conv2d_123", "activation": "linear", "kernel_constraint": null, "kernel_regularizer": null, "strides": [1, 1], "padding": "same", "dilation_rate": [1, 1], "bias_constraint": null, "trainable": false, "activity_regularizer": null}, "inbound_nodes": [[["activation_122", 0, 0, {}]]], "class_name": "Conv2D"}, {"name": "batch_normalization_123", "config": {"scale": false, "axis": 3, "gamma_regularizer": null, "moving_mean_initializer": {"class_name": "Zeros", "config": {}}, "beta_constraint": null, "gamma_constraint": null, "moving_variance_initializer": {"class_name": "Ones", "config": {}}, "name": "batch_normalization_123", "beta_initializer": {"class_name": "Zeros", "config": {}}, "momentum": 0.99, "gamma_initializer": {"class_name": "Ones", "config": {}}, "beta_regularizer": null, "trainable": false, "epsilon": 0.001, "center": true}, "inbound_nodes": [[["conv2d_123", 0, 0, {}]]], "class_name": "BatchNormalization"}, {"name": "activation_123", "config": {"activation": "relu", "trainable": false, "name": "activation_123"}, "inbound_nodes": [[["batch_normalization_123", 0, 0, {}]]], "class_name": "Activation"}, {"name": "conv2d_121", "config": {"bias_initializer": {"class_name": "Zeros", "config": {}}, "kernel_size": [3, 3], "bias_regularizer": null, "data_format": "channels_last", "kernel_initializer": {"class_name": "VarianceScaling", "config": {"scale": 1.0, "mode": "fan_avg", "distribution": "uniform", "seed": null}}, "filters": 384, "use_bias": false, "name": "conv2d_121", "activation": "linear", "kernel_constraint": null, "kernel_regularizer": null, "strides": [2, 2], "padding": "valid", "dilation_rate": [1, 1], "bias_constraint": null, "trainable": false, "activity_regularizer": null}, "inbound_nodes": [[["mixed2", 0, 0, {}]]], "class_name": "Conv2D"}, {"name": "conv2d_124", "config": {"bias_initializer": {"class_name": "Zeros", "config": {}}, "kernel_size": [3, 3], "bias_regularizer": null, "data_format": "channels_last", "kernel_initializer": {"class_name": "VarianceScaling", "config": {"scale": 1.0, "mode": "fan_avg", "distribution": "uniform", "seed": null}}, "filters": 96, "use_bias": false, "name": "conv2d_124", "activation": "linear", "kernel_constraint": null, "kernel_regularizer": null, "strides": [2, 2], "padding": "valid", "dilation_rate": [1, 1], "bias_constraint": null, "trainable": false, "activity_regularizer": null}, "inbound_nodes": [[["activation_123", 0, 0, {}]]], "class_name": "Conv2D"}, {"name": "batch_normalization_121", "config": {"scale": false, "axis": 3, "gamma_regularizer": null, "moving_mean_initializer": {"class_name": "Zeros", "config": {}}, "beta_constraint": null, "gamma_constraint": null, "moving_variance_initializer": {"class_name": "Ones", "config": {}}, "name": "batch_normalization_121", "beta_initializer": {"class_name": "Zeros", "config": {}}, "momentum": 0.99, "gamma_initializer": {"class_name": "Ones", "config": {}}, "beta_regularizer": null, "trainable": false, "epsilon": 0.001, "center": true}, "inbound_nodes": [[["conv2d_121", 0, 0, {}]]], "class_name": "BatchNormalization"}, {"name": "batch_normalization_124", "config": {"scale": false, "axis": 3, "gamma_regularizer": null, "moving_mean_initializer": {"class_name": "Zeros", "config": {}}, "beta_constraint": null, "gamma_constraint": null, "moving_variance_initializer": {"class_name": "Ones", "config": {}}, "name": "batch_normalization_124", "beta_initializer": {"class_name": "Zeros", "config": {}}, "momentum": 0.99, "gamma_initializer": {"class_name": "Ones", "config": {}}, "beta_regularizer": null, "trainable": false, "epsilon": 0.001, "center": true}, "inbound_nodes": [[["conv2d_124", 0, 0, {}]]], "class_name": "BatchNormalization"}, {"name": "activation_121", "config": {"activation": "relu", "trainable": false, "name": "activation_121"}, "inbound_nodes": [[["batch_normalization_121", 0, 0, {}]]], "class_name": "Activation"}, {"name": "activation_124", "config": {"activation": "relu", "trainable": false, "name": "activation_124"}, "inbound_nodes": [[["batch_normalization_124", 0, 0, {}]]], "class_name": "Activation"}, {"name": "max_pooling2d_7", "config": {"strides": [2, 2], "padding": "valid", "data_format": "channels_last", "trainable": false, "pool_size": [3, 3], "name": "max_pooling2d_7"}, "inbound_nodes": [[["mixed2", 0, 0, {}]]], "class_name": "MaxPooling2D"}, {"name": "mixed3", "config": {"axis": 3, "trainable": false, "name": "mixed3"}, "inbound_nodes": [[["activation_121", 0, 0, {}], ["activation_124", 0, 0, {}], ["max_pooling2d_7", 0, 0, {}]]], "class_name": "Concatenate"}, {"name": "conv2d_129", "config": {"bias_initializer": {"class_name": "Zeros", "config": {}}, "kernel_size": [1, 1], "bias_regularizer": null, "data_format": "channels_last", "kernel_initializer": {"class_name": "VarianceScaling", "config": {"scale": 1.0, "mode": "fan_avg", "distribution": "uniform", "seed": null}}, "filters": 128, "use_bias": false, "name": "conv2d_129", "activation": "linear", "kernel_constraint": null, "kernel_regularizer": null, "strides": [1, 1], "padding": "same", "dilation_rate": [1, 1], "bias_constraint": null, "trainable": false, "activity_regularizer": null}, "inbound_nodes": [[["mixed3", 0, 0, {}]]], "class_name": "Conv2D"}, {"name": "batch_normalization_129", "config": {"scale": false, "axis": 3, "gamma_regularizer": null, "moving_mean_initializer": {"class_name": "Zeros", "config": {}}, "beta_constraint": null, "gamma_constraint": null, "moving_variance_initializer": {"class_name": "Ones", "config": {}}, "name": "batch_normalization_129", "beta_initializer": {"class_name": "Zeros", "config": {}}, "momentum": 0.99, "gamma_initializer": {"class_name": "Ones", "config": {}}, "beta_regularizer": null, "trainable": false, "epsilon": 0.001, "center": true}, "inbound_nodes": [[["conv2d_129", 0, 0, {}]]], "class_name": "BatchNormalization"}, {"name": "activation_129", "config": {"activation": "relu", "trainable": false, "name": "activation_129"}, "inbound_nodes": [[["batch_normalization_129", 0, 0, {}]]], "class_name": "Activation"}, {"name": "conv2d_130", "config": {"bias_initializer": {"class_name": "Zeros", "config": {}}, "kernel_size": [7, 1], "bias_regularizer": null, "data_format": "channels_last", "kernel_initializer": {"class_name": "VarianceScaling", "config": {"scale": 1.0, "mode": "fan_avg", "distribution": "uniform", "seed": null}}, "filters": 128, "use_bias": false, "name": "conv2d_130", "activation": "linear", "kernel_constraint": null, "kernel_regularizer": null, "strides": [1, 1], "padding": "same", "dilation_rate": [1, 1], "bias_constraint": null, "trainable": false, "activity_regularizer": null}, "inbound_nodes": [[["activation_129", 0, 0, {}]]], "class_name": "Conv2D"}, {"name": "batch_normalization_130", "config": {"scale": false, "axis": 3, "gamma_regularizer": null, "moving_mean_initializer": {"class_name": "Zeros", "config": {}}, "beta_constraint": null, "gamma_constraint": null, "moving_variance_initializer": {"class_name": "Ones", "config": {}}, "name": "batch_normalization_130", "beta_initializer": {"class_name": "Zeros", "config": {}}, "momentum": 0.99, "gamma_initializer": {"class_name": "Ones", "config": {}}, "beta_regularizer": null, "trainable": false, "epsilon": 0.001, "center": true}, "inbound_nodes": [[["conv2d_130", 0, 0, {}]]], "class_name": "BatchNormalization"}, {"name": "activation_130", "config": {"activation": "relu", "trainable": false, "name": "activation_130"}, "inbound_nodes": [[["batch_normalization_130", 0, 0, {}]]], "class_name": "Activation"}, {"name": "conv2d_126", "config": {"bias_initializer": {"class_name": "Zeros", "config": {}}, "kernel_size": [1, 1], "bias_regularizer": null, "data_format": "channels_last", "kernel_initializer": {"class_name": "VarianceScaling", "config": {"scale": 1.0, "mode": "fan_avg", "distribution": "uniform", "seed": null}}, "filters": 128, "use_bias": false, "name": "conv2d_126", "activation": "linear", "kernel_constraint": null, "kernel_regularizer": null, "strides": [1, 1], "padding": "same", "dilation_rate": [1, 1], "bias_constraint": null, "trainable": false, "activity_regularizer": null}, "inbound_nodes": [[["mixed3", 0, 0, {}]]], "class_name": "Conv2D"}, {"name": "conv2d_131", "config": {"bias_initializer": {"class_name": "Zeros", "config": {}}, "kernel_size": [1, 7], "bias_regularizer": null, "data_format": "channels_last", "kernel_initializer": {"class_name": "VarianceScaling", "config": {"scale": 1.0, "mode": "fan_avg", "distribution": "uniform", "seed": null}}, "filters": 128, "use_bias": false, "name": "conv2d_131", "activation": "linear", "kernel_constraint": null, "kernel_regularizer": null, "strides": [1, 1], "padding": "same", "dilation_rate": [1, 1], "bias_constraint": null, "trainable": false, "activity_regularizer": null}, "inbound_nodes": [[["activation_130", 0, 0, {}]]], "class_name": "Conv2D"}, {"name": "batch_normalization_126", "config": {"scale": false, "axis": 3, "gamma_regularizer": null, "moving_mean_initializer": {"class_name": "Zeros", "config": {}}, "beta_constraint": null, "gamma_constraint": null, "moving_variance_initializer": {"class_name": "Ones", "config": {}}, "name": "batch_normalization_126", "beta_initializer": {"class_name": "Zeros", "config": {}}, "momentum": 0.99, "gamma_initializer": {"class_name": "Ones", "config": {}}, "beta_regularizer": null, "trainable": false, "epsilon": 0.001, "center": true}, "inbound_nodes": [[["conv2d_126", 0, 0, {}]]], "class_name": "BatchNormalization"}, {"name": "batch_normalization_131", "config": {"scale": false, "axis": 3, "gamma_regularizer": null, "moving_mean_initializer": {"class_name": "Zeros", "config": {}}, "beta_constraint": null, "gamma_constraint": null, "moving_variance_initializer": {"class_name": "Ones", "config": {}}, "name": "batch_normalization_131", "beta_initializer": {"class_name": "Zeros", "config": {}}, "momentum": 0.99, "gamma_initializer": {"class_name": "Ones", "config": {}}, "beta_regularizer": null, "trainable": false, "epsilon": 0.001, "center": true}, "inbound_nodes": [[["conv2d_131", 0, 0, {}]]], "class_name": "BatchNormalization"}, {"name": "activation_126", "config": {"activation": "relu", "trainable": false, "name": "activation_126"}, "inbound_nodes": [[["batch_normalization_126", 0, 0, {}]]], "class_name": "Activation"}, {"name": "activation_131", "config": {"activation": "relu", "trainable": false, "name": "activation_131"}, "inbound_nodes": [[["batch_normalization_131", 0, 0, {}]]], "class_name": "Activation"}, {"name": "conv2d_127", "config": {"bias_initializer": {"class_name": "Zeros", "config": {}}, "kernel_size": [1, 7], "bias_regularizer": null, "data_format": "channels_last", "kernel_initializer": {"class_name": "VarianceScaling", "config": {"scale": 1.0, "mode": "fan_avg", "distribution": "uniform", "seed": null}}, "filters": 128, "use_bias": false, "name": "conv2d_127", "activation": "linear", "kernel_constraint": null, "kernel_regularizer": null, "strides": [1, 1], "padding": "same", "dilation_rate": [1, 1], "bias_constraint": null, "trainable": false, "activity_regularizer": null}, "inbound_nodes": [[["activation_126", 0, 0, {}]]], "class_name": "Conv2D"}, {"name": "conv2d_132", "config": {"bias_initializer": {"class_name": "Zeros", "config": {}}, "kernel_size": [7, 1], "bias_regularizer": null, "data_format": "channels_last", "kernel_initializer": {"class_name": "VarianceScaling", "config": {"scale": 1.0, "mode": "fan_avg", "distribution": "uniform", "seed": null}}, "filters": 128, "use_bias": false, "name": "conv2d_132", "activation": "linear", "kernel_constraint": null, "kernel_regularizer": null, "strides": [1, 1], "padding": "same", "dilation_rate": [1, 1], "bias_constraint": null, "trainable": false, "activity_regularizer": null}, "inbound_nodes": [[["activation_131", 0, 0, {}]]], "class_name": "Conv2D"}, {"name": "batch_normalization_127", "config": {"scale": false, "axis": 3, "gamma_regularizer": null, "moving_mean_initializer": {"class_name": "Zeros", "config": {}}, "beta_constraint": null, "gamma_constraint": null, "moving_variance_initializer": {"class_name": "Ones", "config": {}}, "name": "batch_normalization_127", "beta_initializer": {"class_name": "Zeros", "config": {}}, "momentum": 0.99, "gamma_initializer": {"class_name": "Ones", "config": {}}, "beta_regularizer": null, "trainable": false, "epsilon": 0.001, "center": true}, "inbound_nodes": [[["conv2d_127", 0, 0, {}]]], "class_name": "BatchNormalization"}, {"name": "batch_normalization_132", "config": {"scale": false, "axis": 3, "gamma_regularizer": null, "moving_mean_initializer": {"class_name": "Zeros", "config": {}}, "beta_constraint": null, "gamma_constraint": null, "moving_variance_initializer": {"class_name": "Ones", "config": {}}, "name": "batch_normalization_132", "beta_initializer": {"class_name": "Zeros", "config": {}}, "momentum": 0.99, "gamma_initializer": {"class_name": "Ones", "config": {}}, "beta_regularizer": null, "trainable": false, "epsilon": 0.001, "center": true}, "inbound_nodes": [[["conv2d_132", 0, 0, {}]]], "class_name": "BatchNormalization"}, {"name": "activation_127", "config": {"activation": "relu", "trainable": false, "name": "activation_127"}, "inbound_nodes": [[["batch_normalization_127", 0, 0, {}]]], "class_name": "Activation"}, {"name": "activation_132", "config": {"activation": "relu", "trainable": false, "name": "activation_132"}, "inbound_nodes": [[["batch_normalization_132", 0, 0, {}]]], "class_name": "Activation"}, {"name": "average_pooling2d_13", "config": {"strides": [1, 1], "padding": "same", "data_format": "channels_last", "trainable": false, "pool_size": [3, 3], "name": "average_pooling2d_13"}, "inbound_nodes": [[["mixed3", 0, 0, {}]]], "class_name": "AveragePooling2D"}, {"name": "conv2d_125", "config": {"bias_initializer": {"class_name": "Zeros", "config": {}}, "kernel_size": [1, 1], "bias_regularizer": null, "data_format": "channels_last", "kernel_initializer": {"class_name": "VarianceScaling", "config": {"scale": 1.0, "mode": "fan_avg", "distribution": "uniform", "seed": null}}, "filters": 192, "use_bias": false, "name": "conv2d_125", "activation": "linear", "kernel_constraint": null, "kernel_regularizer": null, "strides": [1, 1], "padding": "same", "dilation_rate": [1, 1], "bias_constraint": null, "trainable": false, "activity_regularizer": null}, "inbound_nodes": [[["mixed3", 0, 0, {}]]], "class_name": "Conv2D"}, {"name": "conv2d_128", "config": {"bias_initializer": {"class_name": "Zeros", "config": {}}, "kernel_size": [7, 1], "bias_regularizer": null, "data_format": "channels_last", "kernel_initializer": {"class_name": "VarianceScaling", "config": {"scale": 1.0, "mode": "fan_avg", "distribution": "uniform", "seed": null}}, "filters": 192, "use_bias": false, "name": "conv2d_128", "activation": "linear", "kernel_constraint": null, "kernel_regularizer": null, "strides": [1, 1], "padding": "same", "dilation_rate": [1, 1], "bias_constraint": null, "trainable": false, "activity_regularizer": null}, "inbound_nodes": [[["activation_127", 0, 0, {}]]], "class_name": "Conv2D"}, {"name": "conv2d_133", "config": {"bias_initializer": {"class_name": "Zeros", "config": {}}, "kernel_size": [1, 7], "bias_regularizer": null, "data_format": "channels_last", "kernel_initializer": {"class_name": "VarianceScaling", "config": {"scale": 1.0, "mode": "fan_avg", "distribution": "uniform", "seed": null}}, "filters": 192, "use_bias": false, "name": "conv2d_133", "activation": "linear", "kernel_constraint": null, "kernel_regularizer": null, "strides": [1, 1], "padding": "same", "dilation_rate": [1, 1], "bias_constraint": null, "trainable": false, "activity_regularizer": null}, "inbound_nodes": [[["activation_132", 0, 0, {}]]], "class_name": "Conv2D"}, {"name": "conv2d_134", "config": {"bias_initializer": {"class_name": "Zeros", "config": {}}, "kernel_size": [1, 1], "bias_regularizer": null, "data_format": "channels_last", "kernel_initializer": {"class_name": "VarianceScaling", "config": {"scale": 1.0, "mode": "fan_avg", "distribution": "uniform", "seed": null}}, "filters": 192, "use_bias": false, "name": "conv2d_134", "activation": "linear", "kernel_constraint": null, "kernel_regularizer": null, "strides": [1, 1], "padding": "same", "dilation_rate": [1, 1], "bias_constraint": null, "trainable": false, "activity_regularizer": null}, "inbound_nodes": [[["average_pooling2d_13", 0, 0, {}]]], "class_name": "Conv2D"}, {"name": "batch_normalization_125", "config": {"scale": false, "axis": 3, "gamma_regularizer": null, "moving_mean_initializer": {"class_name": "Zeros", "config": {}}, "beta_constraint": null, "gamma_constraint": null, "moving_variance_initializer": {"class_name": "Ones", "config": {}}, "name": "batch_normalization_125", "beta_initializer": {"class_name": "Zeros", "config": {}}, "momentum": 0.99, "gamma_initializer": {"class_name": "Ones", "config": {}}, "beta_regularizer": null, "trainable": false, "epsilon": 0.001, "center": true}, "inbound_nodes": [[["conv2d_125", 0, 0, {}]]], "class_name": "BatchNormalization"}, {"name": "batch_normalization_128", "config": {"scale": false, "axis": 3, "gamma_regularizer": null, "moving_mean_initializer": {"class_name": "Zeros", "config": {}}, "beta_constraint": null, "gamma_constraint": null, "moving_variance_initializer": {"class_name": "Ones", "config": {}}, "name": "batch_normalization_128", "beta_initializer": {"class_name": "Zeros", "config": {}}, "momentum": 0.99, "gamma_initializer": {"class_name": "Ones", "config": {}}, "beta_regularizer": null, "trainable": false, "epsilon": 0.001, "center": true}, "inbound_nodes": [[["conv2d_128", 0, 0, {}]]], "class_name": "BatchNormalization"}, {"name": "batch_normalization_133", "config": {"scale": false, "axis": 3, "gamma_regularizer": null, "moving_mean_initializer": {"class_name": "Zeros", "config": {}}, "beta_constraint": null, "gamma_constraint": null, "moving_variance_initializer": {"class_name": "Ones", "config": {}}, "name": "batch_normalization_133", "beta_initializer": {"class_name": "Zeros", "config": {}}, "momentum": 0.99, "gamma_initializer": {"class_name": "Ones", "config": {}}, "beta_regularizer": null, "trainable": false, "epsilon": 0.001, "center": true}, "inbound_nodes": [[["conv2d_133", 0, 0, {}]]], "class_name": "BatchNormalization"}, {"name": "batch_normalization_134", "config": {"scale": false, "axis": 3, "gamma_regularizer": null, "moving_mean_initializer": {"class_name": "Zeros", "config": {}}, "beta_constraint": null, "gamma_constraint": null, "moving_variance_initializer": {"class_name": "Ones", "config": {}}, "name": "batch_normalization_134", "beta_initializer": {"class_name": "Zeros", "config": {}}, "momentum": 0.99, "gamma_initializer": {"class_name": "Ones", "config": {}}, "beta_regularizer": null, "trainable": false, "epsilon": 0.001, "center": true}, "inbound_nodes": [[["conv2d_134", 0, 0, {}]]], "class_name": "BatchNormalization"}, {"name": "activation_125", "config": {"activation": "relu", "trainable": false, "name": "activation_125"}, "inbound_nodes": [[["batch_normalization_125", 0, 0, {}]]], "class_name": "Activation"}, {"name": "activation_128", "config": {"activation": "relu", "trainable": false, "name": "activation_128"}, "inbound_nodes": [[["batch_normalization_128", 0, 0, {}]]], "class_name": "Activation"}, {"name": "activation_133", "config": {"activation": "relu", "trainable": false, "name": "activation_133"}, "inbound_nodes": [[["batch_normalization_133", 0, 0, {}]]], "class_name": "Activation"}, {"name": "activation_134", "config": {"activation": "relu", "trainable": false, "name": "activation_134"}, "inbound_nodes": [[["batch_normalization_134", 0, 0, {}]]], "class_name": "Activation"}, {"name": "mixed4", "config": {"axis": 3, "trainable": false, "name": "mixed4"}, "inbound_nodes": [[["activation_125", 0, 0, {}], ["activation_128", 0, 0, {}], ["activation_133", 0, 0, {}], ["activation_134", 0, 0, {}]]], "class_name": "Concatenate"}, {"name": "conv2d_139", "config": {"bias_initializer": {"class_name": "Zeros", "config": {}}, "kernel_size": [1, 1], "bias_regularizer": null, "data_format": "channels_last", "kernel_initializer": {"class_name": "VarianceScaling", "config": {"scale": 1.0, "mode": "fan_avg", "distribution": "uniform", "seed": null}}, "filters": 160, "use_bias": false, "name": "conv2d_139", "activation": "linear", "kernel_constraint": null, "kernel_regularizer": null, "strides": [1, 1], "padding": "same", "dilation_rate": [1, 1], "bias_constraint": null, "trainable": false, "activity_regularizer": null}, "inbound_nodes": [[["mixed4", 0, 0, {}]]], "class_name": "Conv2D"}, {"name": "batch_normalization_139", "config": {"scale": false, "axis": 3, "gamma_regularizer": null, "moving_mean_initializer": {"class_name": "Zeros", "config": {}}, "beta_constraint": null, "gamma_constraint": null, "moving_variance_initializer": {"class_name": "Ones", "config": {}}, "name": "batch_normalization_139", "beta_initializer": {"class_name": "Zeros", "config": {}}, "momentum": 0.99, "gamma_initializer": {"class_name": "Ones", "config": {}}, "beta_regularizer": null, "trainable": false, "epsilon": 0.001, "center": true}, "inbound_nodes": [[["conv2d_139", 0, 0, {}]]], "class_name": "BatchNormalization"}, {"name": "activation_139", "config": {"activation": "relu", "trainable": false, "name": "activation_139"}, "inbound_nodes": [[["batch_normalization_139", 0, 0, {}]]], "class_name": "Activation"}, {"name": "conv2d_140", "config": {"bias_initializer": {"class_name": "Zeros", "config": {}}, "kernel_size": [7, 1], "bias_regularizer": null, "data_format": "channels_last", "kernel_initializer": {"class_name": "VarianceScaling", "config": {"scale": 1.0, "mode": "fan_avg", "distribution": "uniform", "seed": null}}, "filters": 160, "use_bias": false, "name": "conv2d_140", "activation": "linear", "kernel_constraint": null, "kernel_regularizer": null, "strides": [1, 1], "padding": "same", "dilation_rate": [1, 1], "bias_constraint": null, "trainable": false, "activity_regularizer": null}, "inbound_nodes": [[["activation_139", 0, 0, {}]]], "class_name": "Conv2D"}, {"name": "batch_normalization_140", "config": {"scale": false, "axis": 3, "gamma_regularizer": null, "moving_mean_initializer": {"class_name": "Zeros", "config": {}}, "beta_constraint": null, "gamma_constraint": null, "moving_variance_initializer": {"class_name": "Ones", "config": {}}, "name": "batch_normalization_140", "beta_initializer": {"class_name": "Zeros", "config": {}}, "momentum": 0.99, "gamma_initializer": {"class_name": "Ones", "config": {}}, "beta_regularizer": null, "trainable": false, "epsilon": 0.001, "center": true}, "inbound_nodes": [[["conv2d_140", 0, 0, {}]]], "class_name": "BatchNormalization"}, {"name": "activation_140", "config": {"activation": "relu", "trainable": false, "name": "activation_140"}, "inbound_nodes": [[["batch_normalization_140", 0, 0, {}]]], "class_name": "Activation"}, {"name": "conv2d_136", "config": {"bias_initializer": {"class_name": "Zeros", "config": {}}, "kernel_size": [1, 1], "bias_regularizer": null, "data_format": "channels_last", "kernel_initializer": {"class_name": "VarianceScaling", "config": {"scale": 1.0, "mode": "fan_avg", "distribution": "uniform", "seed": null}}, "filters": 160, "use_bias": false, "name": "conv2d_136", "activation": "linear", "kernel_constraint": null, "kernel_regularizer": null, "strides": [1, 1], "padding": "same", "dilation_rate": [1, 1], "bias_constraint": null, "trainable": false, "activity_regularizer": null}, "inbound_nodes": [[["mixed4", 0, 0, {}]]], "class_name": "Conv2D"}, {"name": "conv2d_141", "config": {"bias_initializer": {"class_name": "Zeros", "config": {}}, "kernel_size": [1, 7], "bias_regularizer": null, "data_format": "channels_last", "kernel_initializer": {"class_name": "VarianceScaling", "config": {"scale": 1.0, "mode": "fan_avg", "distribution": "uniform", "seed": null}}, "filters": 160, "use_bias": false, "name": "conv2d_141", "activation": "linear", "kernel_constraint": null, "kernel_regularizer": null, "strides": [1, 1], "padding": "same", "dilation_rate": [1, 1], "bias_constraint": null, "trainable": false, "activity_regularizer": null}, "inbound_nodes": [[["activation_140", 0, 0, {}]]], "class_name": "Conv2D"}, {"name": "batch_normalization_136", "config": {"scale": false, "axis": 3, "gamma_regularizer": null, "moving_mean_initializer": {"class_name": "Zeros", "config": {}}, "beta_constraint": null, "gamma_constraint": null, "moving_variance_initializer": {"class_name": "Ones", "config": {}}, "name": "batch_normalization_136", "beta_initializer": {"class_name": "Zeros", "config": {}}, "momentum": 0.99, "gamma_initializer": {"class_name": "Ones", "config": {}}, "beta_regularizer": null, "trainable": false, "epsilon": 0.001, "center": true}, "inbound_nodes": [[["conv2d_136", 0, 0, {}]]], "class_name": "BatchNormalization"}, {"name": "batch_normalization_141", "config": {"scale": false, "axis": 3, "gamma_regularizer": null, "moving_mean_initializer": {"class_name": "Zeros", "config": {}}, "beta_constraint": null, "gamma_constraint": null, "moving_variance_initializer": {"class_name": "Ones", "config": {}}, "name": "batch_normalization_141", "beta_initializer": {"class_name": "Zeros", "config": {}}, "momentum": 0.99, "gamma_initializer": {"class_name": "Ones", "config": {}}, "beta_regularizer": null, "trainable": false, "epsilon": 0.001, "center": true}, "inbound_nodes": [[["conv2d_141", 0, 0, {}]]], "class_name": "BatchNormalization"}, {"name": "activation_136", "config": {"activation": "relu", "trainable": false, "name": "activation_136"}, "inbound_nodes": [[["batch_normalization_136", 0, 0, {}]]], "class_name": "Activation"}, {"name": "activation_141", "config": {"activation": "relu", "trainable": false, "name": "activation_141"}, "inbound_nodes": [[["batch_normalization_141", 0, 0, {}]]], "class_name": "Activation"}, {"name": "conv2d_137", "config": {"bias_initializer": {"class_name": "Zeros", "config": {}}, "kernel_size": [1, 7], "bias_regularizer": null, "data_format": "channels_last", "kernel_initializer": {"class_name": "VarianceScaling", "config": {"scale": 1.0, "mode": "fan_avg", "distribution": "uniform", "seed": null}}, "filters": 160, "use_bias": false, "name": "conv2d_137", "activation": "linear", "kernel_constraint": null, "kernel_regularizer": null, "strides": [1, 1], "padding": "same", "dilation_rate": [1, 1], "bias_constraint": null, "trainable": false, "activity_regularizer": null}, "inbound_nodes": [[["activation_136", 0, 0, {}]]], "class_name": "Conv2D"}, {"name": "conv2d_142", "config": {"bias_initializer": {"class_name": "Zeros", "config": {}}, "kernel_size": [7, 1], "bias_regularizer": null, "data_format": "channels_last", "kernel_initializer": {"class_name": "VarianceScaling", "config": {"scale": 1.0, "mode": "fan_avg", "distribution": "uniform", "seed": null}}, "filters": 160, "use_bias": false, "name": "conv2d_142", "activation": "linear", "kernel_constraint": null, "kernel_regularizer": null, "strides": [1, 1], "padding": "same", "dilation_rate": [1, 1], "bias_constraint": null, "trainable": false, "activity_regularizer": null}, "inbound_nodes": [[["activation_141", 0, 0, {}]]], "class_name": "Conv2D"}, {"name": "batch_normalization_137", "config": {"scale": false, "axis": 3, "gamma_regularizer": null, "moving_mean_initializer": {"class_name": "Zeros", "config": {}}, "beta_constraint": null, "gamma_constraint": null, "moving_variance_initializer": {"class_name": "Ones", "config": {}}, "name": "batch_normalization_137", "beta_initializer": {"class_name": "Zeros", "config": {}}, "momentum": 0.99, "gamma_initializer": {"class_name": "Ones", "config": {}}, "beta_regularizer": null, "trainable": false, "epsilon": 0.001, "center": true}, "inbound_nodes": [[["conv2d_137", 0, 0, {}]]], "class_name": "BatchNormalization"}, {"name": "batch_normalization_142", "config": {"scale": false, "axis": 3, "gamma_regularizer": null, "moving_mean_initializer": {"class_name": "Zeros", "config": {}}, "beta_constraint": null, "gamma_constraint": null, "moving_variance_initializer": {"class_name": "Ones", "config": {}}, "name": "batch_normalization_142", "beta_initializer": {"class_name": "Zeros", "config": {}}, "momentum": 0.99, "gamma_initializer": {"class_name": "Ones", "config": {}}, "beta_regularizer": null, "trainable": false, "epsilon": 0.001, "center": true}, "inbound_nodes": [[["conv2d_142", 0, 0, {}]]], "class_name": "BatchNormalization"}, {"name": "activation_137", "config": {"activation": "relu", "trainable": false, "name": "activation_137"}, "inbound_nodes": [[["batch_normalization_137", 0, 0, {}]]], "class_name": "Activation"}, {"name": "activation_142", "config": {"activation": "relu", "trainable": false, "name": "activation_142"}, "inbound_nodes": [[["batch_normalization_142", 0, 0, {}]]], "class_name": "Activation"}, {"name": "average_pooling2d_14", "config": {"strides": [1, 1], "padding": "same", "data_format": "channels_last", "trainable": false, "pool_size": [3, 3], "name": "average_pooling2d_14"}, "inbound_nodes": [[["mixed4", 0, 0, {}]]], "class_name": "AveragePooling2D"}, {"name": "conv2d_135", "config": {"bias_initializer": {"class_name": "Zeros", "config": {}}, "kernel_size": [1, 1], "bias_regularizer": null, "data_format": "channels_last", "kernel_initializer": {"class_name": "VarianceScaling", "config": {"scale": 1.0, "mode": "fan_avg", "distribution": "uniform", "seed": null}}, "filters": 192, "use_bias": false, "name": "conv2d_135", "activation": "linear", "kernel_constraint": null, "kernel_regularizer": null, "strides": [1, 1], "padding": "same", "dilation_rate": [1, 1], "bias_constraint": null, "trainable": false, "activity_regularizer": null}, "inbound_nodes": [[["mixed4", 0, 0, {}]]], "class_name": "Conv2D"}, {"name": "conv2d_138", "config": {"bias_initializer": {"class_name": "Zeros", "config": {}}, "kernel_size": [7, 1], "bias_regularizer": null, "data_format": "channels_last", "kernel_initializer": {"class_name": "VarianceScaling", "config": {"scale": 1.0, "mode": "fan_avg", "distribution": "uniform", "seed": null}}, "filters": 192, "use_bias": false, "name": "conv2d_138", "activation": "linear", "kernel_constraint": null, "kernel_regularizer": null, "strides": [1, 1], "padding": "same", "dilation_rate": [1, 1], "bias_constraint": null, "trainable": false, "activity_regularizer": null}, "inbound_nodes": [[["activation_137", 0, 0, {}]]], "class_name": "Conv2D"}, {"name": "conv2d_143", "config": {"bias_initializer": {"class_name": "Zeros", "config": {}}, "kernel_size": [1, 7], "bias_regularizer": null, "data_format": "channels_last", "kernel_initializer": {"class_name": "VarianceScaling", "config": {"scale": 1.0, "mode": "fan_avg", "distribution": "uniform", "seed": null}}, "filters": 192, "use_bias": false, "name": "conv2d_143", "activation": "linear", "kernel_constraint": null, "kernel_regularizer": null, "strides": [1, 1], "padding": "same", "dilation_rate": [1, 1], "bias_constraint": null, "trainable": false, "activity_regularizer": null}, "inbound_nodes": [[["activation_142", 0, 0, {}]]], "class_name": "Conv2D"}, {"name": "conv2d_144", "config": {"bias_initializer": {"class_name": "Zeros", "config": {}}, "kernel_size": [1, 1], "bias_regularizer": null, "data_format": "channels_last", "kernel_initializer": {"class_name": "VarianceScaling", "config": {"scale": 1.0, "mode": "fan_avg", "distribution": "uniform", "seed": null}}, "filters": 192, "use_bias": false, "name": "conv2d_144", "activation": "linear", "kernel_constraint": null, "kernel_regularizer": null, "strides": [1, 1], "padding": "same", "dilation_rate": [1, 1], "bias_constraint": null, "trainable": false, "activity_regularizer": null}, "inbound_nodes": [[["average_pooling2d_14", 0, 0, {}]]], "class_name": "Conv2D"}, {"name": "batch_normalization_135", "config": {"scale": false, "axis": 3, "gamma_regularizer": null, "moving_mean_initializer": {"class_name": "Zeros", "config": {}}, "beta_constraint": null, "gamma_constraint": null, "moving_variance_initializer": {"class_name": "Ones", "config": {}}, "name": "batch_normalization_135", "beta_initializer": {"class_name": "Zeros", "config": {}}, "momentum": 0.99, "gamma_initializer": {"class_name": "Ones", "config": {}}, "beta_regularizer": null, "trainable": false, "epsilon": 0.001, "center": true}, "inbound_nodes": [[["conv2d_135", 0, 0, {}]]], "class_name": "BatchNormalization"}, {"name": "batch_normalization_138", "config": {"scale": false, "axis": 3, "gamma_regularizer": null, "moving_mean_initializer": {"class_name": "Zeros", "config": {}}, "beta_constraint": null, "gamma_constraint": null, "moving_variance_initializer": {"class_name": "Ones", "config": {}}, "name": "batch_normalization_138", "beta_initializer": {"class_name": "Zeros", "config": {}}, "momentum": 0.99, "gamma_initializer": {"class_name": "Ones", "config": {}}, "beta_regularizer": null, "trainable": false, "epsilon": 0.001, "center": true}, "inbound_nodes": [[["conv2d_138", 0, 0, {}]]], "class_name": "BatchNormalization"}, {"name": "batch_normalization_143", "config": {"scale": false, "axis": 3, "gamma_regularizer": null, "moving_mean_initializer": {"class_name": "Zeros", "config": {}}, "beta_constraint": null, "gamma_constraint": null, "moving_variance_initializer": {"class_name": "Ones", "config": {}}, "name": "batch_normalization_143", "beta_initializer": {"class_name": "Zeros", "config": {}}, "momentum": 0.99, "gamma_initializer": {"class_name": "Ones", "config": {}}, "beta_regularizer": null, "trainable": false, "epsilon": 0.001, "center": true}, "inbound_nodes": [[["conv2d_143", 0, 0, {}]]], "class_name": "BatchNormalization"}, {"name": "batch_normalization_144", "config": {"scale": false, "axis": 3, "gamma_regularizer": null, "moving_mean_initializer": {"class_name": "Zeros", "config": {}}, "beta_constraint": null, "gamma_constraint": null, "moving_variance_initializer": {"class_name": "Ones", "config": {}}, "name": "batch_normalization_144", "beta_initializer": {"class_name": "Zeros", "config": {}}, "momentum": 0.99, "gamma_initializer": {"class_name": "Ones", "config": {}}, "beta_regularizer": null, "trainable": false, "epsilon": 0.001, "center": true}, "inbound_nodes": [[["conv2d_144", 0, 0, {}]]], "class_name": "BatchNormalization"}, {"name": "activation_135", "config": {"activation": "relu", "trainable": false, "name": "activation_135"}, "inbound_nodes": [[["batch_normalization_135", 0, 0, {}]]], "class_name": "Activation"}, {"name": "activation_138", "config": {"activation": "relu", "trainable": false, "name": "activation_138"}, "inbound_nodes": [[["batch_normalization_138", 0, 0, {}]]], "class_name": "Activation"}, {"name": "activation_143", "config": {"activation": "relu", "trainable": false, "name": "activation_143"}, "inbound_nodes": [[["batch_normalization_143", 0, 0, {}]]], "class_name": "Activation"}, {"name": "activation_144", "config": {"activation": "relu", "trainable": false, "name": "activation_144"}, "inbound_nodes": [[["batch_normalization_144", 0, 0, {}]]], "class_name": "Activation"}, {"name": "mixed5", "config": {"axis": 3, "trainable": false, "name": "mixed5"}, "inbound_nodes": [[["activation_135", 0, 0, {}], ["activation_138", 0, 0, {}], ["activation_143", 0, 0, {}], ["activation_144", 0, 0, {}]]], "class_name": "Concatenate"}, {"name": "conv2d_149", "config": {"bias_initializer": {"class_name": "Zeros", "config": {}}, "kernel_size": [1, 1], "bias_regularizer": null, "data_format": "channels_last", "kernel_initializer": {"class_name": "VarianceScaling", "config": {"scale": 1.0, "mode": "fan_avg", "distribution": "uniform", "seed": null}}, "filters": 160, "use_bias": false, "name": "conv2d_149", "activation": "linear", "kernel_constraint": null, "kernel_regularizer": null, "strides": [1, 1], "padding": "same", "dilation_rate": [1, 1], "bias_constraint": null, "trainable": false, "activity_regularizer": null}, "inbound_nodes": [[["mixed5", 0, 0, {}]]], "class_name": "Conv2D"}, {"name": "batch_normalization_149", "config": {"scale": false, "axis": 3, "gamma_regularizer": null, "moving_mean_initializer": {"class_name": "Zeros", "config": {}}, "beta_constraint": null, "gamma_constraint": null, "moving_variance_initializer": {"class_name": "Ones", "config": {}}, "name": "batch_normalization_149", "beta_initializer": {"class_name": "Zeros", "config": {}}, "momentum": 0.99, "gamma_initializer": {"class_name": "Ones", "config": {}}, "beta_regularizer": null, "trainable": false, "epsilon": 0.001, "center": true}, "inbound_nodes": [[["conv2d_149", 0, 0, {}]]], "class_name": "BatchNormalization"}, {"name": "activation_149", "config": {"activation": "relu", "trainable": false, "name": "activation_149"}, "inbound_nodes": [[["batch_normalization_149", 0, 0, {}]]], "class_name": "Activation"}, {"name": "conv2d_150", "config": {"bias_initializer": {"class_name": "Zeros", "config": {}}, "kernel_size": [7, 1], "bias_regularizer": null, "data_format": "channels_last", "kernel_initializer": {"class_name": "VarianceScaling", "config": {"scale": 1.0, "mode": "fan_avg", "distribution": "uniform", "seed": null}}, "filters": 160, "use_bias": false, "name": "conv2d_150", "activation": "linear", "kernel_constraint": null, "kernel_regularizer": null, "strides": [1, 1], "padding": "same", "dilation_rate": [1, 1], "bias_constraint": null, "trainable": false, "activity_regularizer": null}, "inbound_nodes": [[["activation_149", 0, 0, {}]]], "class_name": "Conv2D"}, {"name": "batch_normalization_150", "config": {"scale": false, "axis": 3, "gamma_regularizer": null, "moving_mean_initializer": {"class_name": "Zeros", "config": {}}, "beta_constraint": null, "gamma_constraint": null, "moving_variance_initializer": {"class_name": "Ones", "config": {}}, "name": "batch_normalization_150", "beta_initializer": {"class_name": "Zeros", "config": {}}, "momentum": 0.99, "gamma_initializer": {"class_name": "Ones", "config": {}}, "beta_regularizer": null, "trainable": false, "epsilon": 0.001, "center": true}, "inbound_nodes": [[["conv2d_150", 0, 0, {}]]], "class_name": "BatchNormalization"}, {"name": "activation_150", "config": {"activation": "relu", "trainable": false, "name": "activation_150"}, "inbound_nodes": [[["batch_normalization_150", 0, 0, {}]]], "class_name": "Activation"}, {"name": "conv2d_146", "config": {"bias_initializer": {"class_name": "Zeros", "config": {}}, "kernel_size": [1, 1], "bias_regularizer": null, "data_format": "channels_last", "kernel_initializer": {"class_name": "VarianceScaling", "config": {"scale": 1.0, "mode": "fan_avg", "distribution": "uniform", "seed": null}}, "filters": 160, "use_bias": false, "name": "conv2d_146", "activation": "linear", "kernel_constraint": null, "kernel_regularizer": null, "strides": [1, 1], "padding": "same", "dilation_rate": [1, 1], "bias_constraint": null, "trainable": false, "activity_regularizer": null}, "inbound_nodes": [[["mixed5", 0, 0, {}]]], "class_name": "Conv2D"}, {"name": "conv2d_151", "config": {"bias_initializer": {"class_name": "Zeros", "config": {}}, "kernel_size": [1, 7], "bias_regularizer": null, "data_format": "channels_last", "kernel_initializer": {"class_name": "VarianceScaling", "config": {"scale": 1.0, "mode": "fan_avg", "distribution": "uniform", "seed": null}}, "filters": 160, "use_bias": false, "name": "conv2d_151", "activation": "linear", "kernel_constraint": null, "kernel_regularizer": null, "strides": [1, 1], "padding": "same", "dilation_rate": [1, 1], "bias_constraint": null, "trainable": false, "activity_regularizer": null}, "inbound_nodes": [[["activation_150", 0, 0, {}]]], "class_name": "Conv2D"}, {"name": "batch_normalization_146", "config": {"scale": false, "axis": 3, "gamma_regularizer": null, "moving_mean_initializer": {"class_name": "Zeros", "config": {}}, "beta_constraint": null, "gamma_constraint": null, "moving_variance_initializer": {"class_name": "Ones", "config": {}}, "name": "batch_normalization_146", "beta_initializer": {"class_name": "Zeros", "config": {}}, "momentum": 0.99, "gamma_initializer": {"class_name": "Ones", "config": {}}, "beta_regularizer": null, "trainable": false, "epsilon": 0.001, "center": true}, "inbound_nodes": [[["conv2d_146", 0, 0, {}]]], "class_name": "BatchNormalization"}, {"name": "batch_normalization_151", "config": {"scale": false, "axis": 3, "gamma_regularizer": null, "moving_mean_initializer": {"class_name": "Zeros", "config": {}}, "beta_constraint": null, "gamma_constraint": null, "moving_variance_initializer": {"class_name": "Ones", "config": {}}, "name": "batch_normalization_151", "beta_initializer": {"class_name": "Zeros", "config": {}}, "momentum": 0.99, "gamma_initializer": {"class_name": "Ones", "config": {}}, "beta_regularizer": null, "trainable": false, "epsilon": 0.001, "center": true}, "inbound_nodes": [[["conv2d_151", 0, 0, {}]]], "class_name": "BatchNormalization"}, {"name": "activation_146", "config": {"activation": "relu", "trainable": false, "name": "activation_146"}, "inbound_nodes": [[["batch_normalization_146", 0, 0, {}]]], "class_name": "Activation"}, {"name": "activation_151", "config": {"activation": "relu", "trainable": false, "name": "activation_151"}, "inbound_nodes": [[["batch_normalization_151", 0, 0, {}]]], "class_name": "Activation"}, {"name": "conv2d_147", "config": {"bias_initializer": {"class_name": "Zeros", "config": {}}, "kernel_size": [1, 7], "bias_regularizer": null, "data_format": "channels_last", "kernel_initializer": {"class_name": "VarianceScaling", "config": {"scale": 1.0, "mode": "fan_avg", "distribution": "uniform", "seed": null}}, "filters": 160, "use_bias": false, "name": "conv2d_147", "activation": "linear", "kernel_constraint": null, "kernel_regularizer": null, "strides": [1, 1], "padding": "same", "dilation_rate": [1, 1], "bias_constraint": null, "trainable": false, "activity_regularizer": null}, "inbound_nodes": [[["activation_146", 0, 0, {}]]], "class_name": "Conv2D"}, {"name": "conv2d_152", "config": {"bias_initializer": {"class_name": "Zeros", "config": {}}, "kernel_size": [7, 1], "bias_regularizer": null, "data_format": "channels_last", "kernel_initializer": {"class_name": "VarianceScaling", "config": {"scale": 1.0, "mode": "fan_avg", "distribution": "uniform", "seed": null}}, "filters": 160, "use_bias": false, "name": "conv2d_152", "activation": "linear", "kernel_constraint": null, "kernel_regularizer": null, "strides": [1, 1], "padding": "same", "dilation_rate": [1, 1], "bias_constraint": null, "trainable": false, "activity_regularizer": null}, "inbound_nodes": [[["activation_151", 0, 0, {}]]], "class_name": "Conv2D"}, {"name": "batch_normalization_147", "config": {"scale": false, "axis": 3, "gamma_regularizer": null, "moving_mean_initializer": {"class_name": "Zeros", "config": {}}, "beta_constraint": null, "gamma_constraint": null, "moving_variance_initializer": {"class_name": "Ones", "config": {}}, "name": "batch_normalization_147", "beta_initializer": {"class_name": "Zeros", "config": {}}, "momentum": 0.99, "gamma_initializer": {"class_name": "Ones", "config": {}}, "beta_regularizer": null, "trainable": false, "epsilon": 0.001, "center": true}, "inbound_nodes": [[["conv2d_147", 0, 0, {}]]], "class_name": "BatchNormalization"}, {"name": "batch_normalization_152", "config": {"scale": false, "axis": 3, "gamma_regularizer": null, "moving_mean_initializer": {"class_name": "Zeros", "config": {}}, "beta_constraint": null, "gamma_constraint": null, "moving_variance_initializer": {"class_name": "Ones", "config": {}}, "name": "batch_normalization_152", "beta_initializer": {"class_name": "Zeros", "config": {}}, "momentum": 0.99, "gamma_initializer": {"class_name": "Ones", "config": {}}, "beta_regularizer": null, "trainable": false, "epsilon": 0.001, "center": true}, "inbound_nodes": [[["conv2d_152", 0, 0, {}]]], "class_name": "BatchNormalization"}, {"name": "activation_147", "config": {"activation": "relu", "trainable": false, "name": "activation_147"}, "inbound_nodes": [[["batch_normalization_147", 0, 0, {}]]], "class_name": "Activation"}, {"name": "activation_152", "config": {"activation": "relu", "trainable": false, "name": "activation_152"}, "inbound_nodes": [[["batch_normalization_152", 0, 0, {}]]], "class_name": "Activation"}, {"name": "average_pooling2d_15", "config": {"strides": [1, 1], "padding": "same", "data_format": "channels_last", "trainable": false, "pool_size": [3, 3], "name": "average_pooling2d_15"}, "inbound_nodes": [[["mixed5", 0, 0, {}]]], "class_name": "AveragePooling2D"}, {"name": "conv2d_145", "config": {"bias_initializer": {"class_name": "Zeros", "config": {}}, "kernel_size": [1, 1], "bias_regularizer": null, "data_format": "channels_last", "kernel_initializer": {"class_name": "VarianceScaling", "config": {"scale": 1.0, "mode": "fan_avg", "distribution": "uniform", "seed": null}}, "filters": 192, "use_bias": false, "name": "conv2d_145", "activation": "linear", "kernel_constraint": null, "kernel_regularizer": null, "strides": [1, 1], "padding": "same", "dilation_rate": [1, 1], "bias_constraint": null, "trainable": false, "activity_regularizer": null}, "inbound_nodes": [[["mixed5", 0, 0, {}]]], "class_name": "Conv2D"}, {"name": "conv2d_148", "config": {"bias_initializer": {"class_name": "Zeros", "config": {}}, "kernel_size": [7, 1], "bias_regularizer": null, "data_format": "channels_last", "kernel_initializer": {"class_name": "VarianceScaling", "config": {"scale": 1.0, "mode": "fan_avg", "distribution": "uniform", "seed": null}}, "filters": 192, "use_bias": false, "name": "conv2d_148", "activation": "linear", "kernel_constraint": null, "kernel_regularizer": null, "strides": [1, 1], "padding": "same", "dilation_rate": [1, 1], "bias_constraint": null, "trainable": false, "activity_regularizer": null}, "inbound_nodes": [[["activation_147", 0, 0, {}]]], "class_name": "Conv2D"}, {"name": "conv2d_153", "config": {"bias_initializer": {"class_name": "Zeros", "config": {}}, "kernel_size": [1, 7], "bias_regularizer": null, "data_format": "channels_last", "kernel_initializer": {"class_name": "VarianceScaling", "config": {"scale": 1.0, "mode": "fan_avg", "distribution": "uniform", "seed": null}}, "filters": 192, "use_bias": false, "name": "conv2d_153", "activation": "linear", "kernel_constraint": null, "kernel_regularizer": null, "strides": [1, 1], "padding": "same", "dilation_rate": [1, 1], "bias_constraint": null, "trainable": false, "activity_regularizer": null}, "inbound_nodes": [[["activation_152", 0, 0, {}]]], "class_name": "Conv2D"}, {"name": "conv2d_154", "config": {"bias_initializer": {"class_name": "Zeros", "config": {}}, "kernel_size": [1, 1], "bias_regularizer": null, "data_format": "channels_last", "kernel_initializer": {"class_name": "VarianceScaling", "config": {"scale": 1.0, "mode": "fan_avg", "distribution": "uniform", "seed": null}}, "filters": 192, "use_bias": false, "name": "conv2d_154", "activation": "linear", "kernel_constraint": null, "kernel_regularizer": null, "strides": [1, 1], "padding": "same", "dilation_rate": [1, 1], "bias_constraint": null, "trainable": false, "activity_regularizer": null}, "inbound_nodes": [[["average_pooling2d_15", 0, 0, {}]]], "class_name": "Conv2D"}, {"name": "batch_normalization_145", "config": {"scale": false, "axis": 3, "gamma_regularizer": null, "moving_mean_initializer": {"class_name": "Zeros", "config": {}}, "beta_constraint": null, "gamma_constraint": null, "moving_variance_initializer": {"class_name": "Ones", "config": {}}, "name": "batch_normalization_145", "beta_initializer": {"class_name": "Zeros", "config": {}}, "momentum": 0.99, "gamma_initializer": {"class_name": "Ones", "config": {}}, "beta_regularizer": null, "trainable": false, "epsilon": 0.001, "center": true}, "inbound_nodes": [[["conv2d_145", 0, 0, {}]]], "class_name": "BatchNormalization"}, {"name": "batch_normalization_148", "config": {"scale": false, "axis": 3, "gamma_regularizer": null, "moving_mean_initializer": {"class_name": "Zeros", "config": {}}, "beta_constraint": null, "gamma_constraint": null, "moving_variance_initializer": {"class_name": "Ones", "config": {}}, "name": "batch_normalization_148", "beta_initializer": {"class_name": "Zeros", "config": {}}, "momentum": 0.99, "gamma_initializer": {"class_name": "Ones", "config": {}}, "beta_regularizer": null, "trainable": false, "epsilon": 0.001, "center": true}, "inbound_nodes": [[["conv2d_148", 0, 0, {}]]], "class_name": "BatchNormalization"}, {"name": "batch_normalization_153", "config": {"scale": false, "axis": 3, "gamma_regularizer": null, "moving_mean_initializer": {"class_name": "Zeros", "config": {}}, "beta_constraint": null, "gamma_constraint": null, "moving_variance_initializer": {"class_name": "Ones", "config": {}}, "name": "batch_normalization_153", "beta_initializer": {"class_name": "Zeros", "config": {}}, "momentum": 0.99, "gamma_initializer": {"class_name": "Ones", "config": {}}, "beta_regularizer": null, "trainable": false, "epsilon": 0.001, "center": true}, "inbound_nodes": [[["conv2d_153", 0, 0, {}]]], "class_name": "BatchNormalization"}, {"name": "batch_normalization_154", "config": {"scale": false, "axis": 3, "gamma_regularizer": null, "moving_mean_initializer": {"class_name": "Zeros", "config": {}}, "beta_constraint": null, "gamma_constraint": null, "moving_variance_initializer": {"class_name": "Ones", "config": {}}, "name": "batch_normalization_154", "beta_initializer": {"class_name": "Zeros", "config": {}}, "momentum": 0.99, "gamma_initializer": {"class_name": "Ones", "config": {}}, "beta_regularizer": null, "trainable": false, "epsilon": 0.001, "center": true}, "inbound_nodes": [[["conv2d_154", 0, 0, {}]]], "class_name": "BatchNormalization"}, {"name": "activation_145", "config": {"activation": "relu", "trainable": false, "name": "activation_145"}, "inbound_nodes": [[["batch_normalization_145", 0, 0, {}]]], "class_name": "Activation"}, {"name": "activation_148", "config": {"activation": "relu", "trainable": false, "name": "activation_148"}, "inbound_nodes": [[["batch_normalization_148", 0, 0, {}]]], "class_name": "Activation"}, {"name": "activation_153", "config": {"activation": "relu", "trainable": false, "name": "activation_153"}, "inbound_nodes": [[["batch_normalization_153", 0, 0, {}]]], "class_name": "Activation"}, {"name": "activation_154", "config": {"activation": "relu", "trainable": false, "name": "activation_154"}, "inbound_nodes": [[["batch_normalization_154", 0, 0, {}]]], "class_name": "Activation"}, {"name": "mixed6", "config": {"axis": 3, "trainable": false, "name": "mixed6"}, "inbound_nodes": [[["activation_145", 0, 0, {}], ["activation_148", 0, 0, {}], ["activation_153", 0, 0, {}], ["activation_154", 0, 0, {}]]], "class_name": "Concatenate"}, {"name": "conv2d_159", "config": {"bias_initializer": {"class_name": "Zeros", "config": {}}, "kernel_size": [1, 1], "bias_regularizer": null, "data_format": "channels_last", "kernel_initializer": {"class_name": "VarianceScaling", "config": {"scale": 1.0, "mode": "fan_avg", "distribution": "uniform", "seed": null}}, "filters": 192, "use_bias": false, "name": "conv2d_159", "activation": "linear", "kernel_constraint": null, "kernel_regularizer": null, "strides": [1, 1], "padding": "same", "dilation_rate": [1, 1], "bias_constraint": null, "trainable": true, "activity_regularizer": null}, "inbound_nodes": [[["mixed6", 0, 0, {}]]], "class_name": "Conv2D"}, {"name": "batch_normalization_159", "config": {"scale": false, "axis": 3, "gamma_regularizer": null, "moving_mean_initializer": {"class_name": "Zeros", "config": {}}, "beta_constraint": null, "gamma_constraint": null, "moving_variance_initializer": {"class_name": "Ones", "config": {}}, "name": "batch_normalization_159", "beta_initializer": {"class_name": "Zeros", "config": {}}, "momentum": 0.99, "gamma_initializer": {"class_name": "Ones", "config": {}}, "beta_regularizer": null, "trainable": true, "epsilon": 0.001, "center": true}, "inbound_nodes": [[["conv2d_159", 0, 0, {}]]], "class_name": "BatchNormalization"}, {"name": "activation_159", "config": {"activation": "relu", "trainable": true, "name": "activation_159"}, "inbound_nodes": [[["batch_normalization_159", 0, 0, {}]]], "class_name": "Activation"}, {"name": "conv2d_160", "config": {"bias_initializer": {"class_name": "Zeros", "config": {}}, "kernel_size": [7, 1], "bias_regularizer": null, "data_format": "channels_last", "kernel_initializer": {"class_name": "VarianceScaling", "config": {"scale": 1.0, "mode": "fan_avg", "distribution": "uniform", "seed": null}}, "filters": 192, "use_bias": false, "name": "conv2d_160", "activation": "linear", "kernel_constraint": null, "kernel_regularizer": null, "strides": [1, 1], "padding": "same", "dilation_rate": [1, 1], "bias_constraint": null, "trainable": true, "activity_regularizer": null}, "inbound_nodes": [[["activation_159", 0, 0, {}]]], "class_name": "Conv2D"}, {"name": "batch_normalization_160", "config": {"scale": false, "axis": 3, "gamma_regularizer": null, "moving_mean_initializer": {"class_name": "Zeros", "config": {}}, "beta_constraint": null, "gamma_constraint": null, "moving_variance_initializer": {"class_name": "Ones", "config": {}}, "name": "batch_normalization_160", "beta_initializer": {"class_name": "Zeros", "config": {}}, "momentum": 0.99, "gamma_initializer": {"class_name": "Ones", "config": {}}, "beta_regularizer": null, "trainable": true, "epsilon": 0.001, "center": true}, "inbound_nodes": [[["conv2d_160", 0, 0, {}]]], "class_name": "BatchNormalization"}, {"name": "activation_160", "config": {"activation": "relu", "trainable": true, "name": "activation_160"}, "inbound_nodes": [[["batch_normalization_160", 0, 0, {}]]], "class_name": "Activation"}, {"name": "conv2d_156", "config": {"bias_initializer": {"class_name": "Zeros", "config": {}}, "kernel_size": [1, 1], "bias_regularizer": null, "data_format": "channels_last", "kernel_initializer": {"class_name": "VarianceScaling", "config": {"scale": 1.0, "mode": "fan_avg", "distribution": "uniform", "seed": null}}, "filters": 192, "use_bias": false, "name": "conv2d_156", "activation": "linear", "kernel_constraint": null, "kernel_regularizer": null, "strides": [1, 1], "padding": "same", "dilation_rate": [1, 1], "bias_constraint": null, "trainable": true, "activity_regularizer": null}, "inbound_nodes": [[["mixed6", 0, 0, {}]]], "class_name": "Conv2D"}, {"name": "conv2d_161", "config": {"bias_initializer": {"class_name": "Zeros", "config": {}}, "kernel_size": [1, 7], "bias_regularizer": null, "data_format": "channels_last", "kernel_initializer": {"class_name": "VarianceScaling", "config": {"scale": 1.0, "mode": "fan_avg", "distribution": "uniform", "seed": null}}, "filters": 192, "use_bias": false, "name": "conv2d_161", "activation": "linear", "kernel_constraint": null, "kernel_regularizer": null, "strides": [1, 1], "padding": "same", "dilation_rate": [1, 1], "bias_constraint": null, "trainable": true, "activity_regularizer": null}, "inbound_nodes": [[["activation_160", 0, 0, {}]]], "class_name": "Conv2D"}, {"name": "batch_normalization_156", "config": {"scale": false, "axis": 3, "gamma_regularizer": null, "moving_mean_initializer": {"class_name": "Zeros", "config": {}}, "beta_constraint": null, "gamma_constraint": null, "moving_variance_initializer": {"class_name": "Ones", "config": {}}, "name": "batch_normalization_156", "beta_initializer": {"class_name": "Zeros", "config": {}}, "momentum": 0.99, "gamma_initializer": {"class_name": "Ones", "config": {}}, "beta_regularizer": null, "trainable": true, "epsilon": 0.001, "center": true}, "inbound_nodes": [[["conv2d_156", 0, 0, {}]]], "class_name": "BatchNormalization"}, {"name": "batch_normalization_161", "config": {"scale": false, "axis": 3, "gamma_regularizer": null, "moving_mean_initializer": {"class_name": "Zeros", "config": {}}, "beta_constraint": null, "gamma_constraint": null, "moving_variance_initializer": {"class_name": "Ones", "config": {}}, "name": "batch_normalization_161", "beta_initializer": {"class_name": "Zeros", "config": {}}, "momentum": 0.99, "gamma_initializer": {"class_name": "Ones", "config": {}}, "beta_regularizer": null, "trainable": true, "epsilon": 0.001, "center": true}, "inbound_nodes": [[["conv2d_161", 0, 0, {}]]], "class_name": "BatchNormalization"}, {"name": "activation_156", "config": {"activation": "relu", "trainable": true, "name": "activation_156"}, "inbound_nodes": [[["batch_normalization_156", 0, 0, {}]]], "class_name": "Activation"}, {"name": "activation_161", "config": {"activation": "relu", "trainable": true, "name": "activation_161"}, "inbound_nodes": [[["batch_normalization_161", 0, 0, {}]]], "class_name": "Activation"}, {"name": "conv2d_157", "config": {"bias_initializer": {"class_name": "Zeros", "config": {}}, "kernel_size": [1, 7], "bias_regularizer": null, "data_format": "channels_last", "kernel_initializer": {"class_name": "VarianceScaling", "config": {"scale": 1.0, "mode": "fan_avg", "distribution": "uniform", "seed": null}}, "filters": 192, "use_bias": false, "name": "conv2d_157", "activation": "linear", "kernel_constraint": null, "kernel_regularizer": null, "strides": [1, 1], "padding": "same", "dilation_rate": [1, 1], "bias_constraint": null, "trainable": true, "activity_regularizer": null}, "inbound_nodes": [[["activation_156", 0, 0, {}]]], "class_name": "Conv2D"}, {"name": "conv2d_162", "config": {"bias_initializer": {"class_name": "Zeros", "config": {}}, "kernel_size": [7, 1], "bias_regularizer": null, "data_format": "channels_last", "kernel_initializer": {"class_name": "VarianceScaling", "config": {"scale": 1.0, "mode": "fan_avg", "distribution": "uniform", "seed": null}}, "filters": 192, "use_bias": false, "name": "conv2d_162", "activation": "linear", "kernel_constraint": null, "kernel_regularizer": null, "strides": [1, 1], "padding": "same", "dilation_rate": [1, 1], "bias_constraint": null, "trainable": true, "activity_regularizer": null}, "inbound_nodes": [[["activation_161", 0, 0, {}]]], "class_name": "Conv2D"}, {"name": "batch_normalization_157", "config": {"scale": false, "axis": 3, "gamma_regularizer": null, "moving_mean_initializer": {"class_name": "Zeros", "config": {}}, "beta_constraint": null, "gamma_constraint": null, "moving_variance_initializer": {"class_name": "Ones", "config": {}}, "name": "batch_normalization_157", "beta_initializer": {"class_name": "Zeros", "config": {}}, "momentum": 0.99, "gamma_initializer": {"class_name": "Ones", "config": {}}, "beta_regularizer": null, "trainable": true, "epsilon": 0.001, "center": true}, "inbound_nodes": [[["conv2d_157", 0, 0, {}]]], "class_name": "BatchNormalization"}, {"name": "batch_normalization_162", "config": {"scale": false, "axis": 3, "gamma_regularizer": null, "moving_mean_initializer": {"class_name": "Zeros", "config": {}}, "beta_constraint": null, "gamma_constraint": null, "moving_variance_initializer": {"class_name": "Ones", "config": {}}, "name": "batch_normalization_162", "beta_initializer": {"class_name": "Zeros", "config": {}}, "momentum": 0.99, "gamma_initializer": {"class_name": "Ones", "config": {}}, "beta_regularizer": null, "trainable": true, "epsilon": 0.001, "center": true}, "inbound_nodes": [[["conv2d_162", 0, 0, {}]]], "class_name": "BatchNormalization"}, {"name": "activation_157", "config": {"activation": "relu", "trainable": true, "name": "activation_157"}, "inbound_nodes": [[["batch_normalization_157", 0, 0, {}]]], "class_name": "Activation"}, {"name": "activation_162", "config": {"activation": "relu", "trainable": true, "name": "activation_162"}, "inbound_nodes": [[["batch_normalization_162", 0, 0, {}]]], "class_name": "Activation"}, {"name": "average_pooling2d_16", "config": {"strides": [1, 1], "padding": "same", "data_format": "channels_last", "trainable": true, "pool_size": [3, 3], "name": "average_pooling2d_16"}, "inbound_nodes": [[["mixed6", 0, 0, {}]]], "class_name": "AveragePooling2D"}, {"name": "conv2d_155", "config": {"bias_initializer": {"class_name": "Zeros", "config": {}}, "kernel_size": [1, 1], "bias_regularizer": null, "data_format": "channels_last", "kernel_initializer": {"class_name": "VarianceScaling", "config": {"scale": 1.0, "mode": "fan_avg", "distribution": "uniform", "seed": null}}, "filters": 192, "use_bias": false, "name": "conv2d_155", "activation": "linear", "kernel_constraint": null, "kernel_regularizer": null, "strides": [1, 1], "padding": "same", "dilation_rate": [1, 1], "bias_constraint": null, "trainable": true, "activity_regularizer": null}, "inbound_nodes": [[["mixed6", 0, 0, {}]]], "class_name": "Conv2D"}, {"name": "conv2d_158", "config": {"bias_initializer": {"class_name": "Zeros", "config": {}}, "kernel_size": [7, 1], "bias_regularizer": null, "data_format": "channels_last", "kernel_initializer": {"class_name": "VarianceScaling", "config": {"scale": 1.0, "mode": "fan_avg", "distribution": "uniform", "seed": null}}, "filters": 192, "use_bias": false, "name": "conv2d_158", "activation": "linear", "kernel_constraint": null, "kernel_regularizer": null, "strides": [1, 1], "padding": "same", "dilation_rate": [1, 1], "bias_constraint": null, "trainable": true, "activity_regularizer": null}, "inbound_nodes": [[["activation_157", 0, 0, {}]]], "class_name": "Conv2D"}, {"name": "conv2d_163", "config": {"bias_initializer": {"class_name": "Zeros", "config": {}}, "kernel_size": [1, 7], "bias_regularizer": null, "data_format": "channels_last", "kernel_initializer": {"class_name": "VarianceScaling", "config": {"scale": 1.0, "mode": "fan_avg", "distribution": "uniform", "seed": null}}, "filters": 192, "use_bias": false, "name": "conv2d_163", "activation": "linear", "kernel_constraint": null, "kernel_regularizer": null, "strides": [1, 1], "padding": "same", "dilation_rate": [1, 1], "bias_constraint": null, "trainable": true, "activity_regularizer": null}, "inbound_nodes": [[["activation_162", 0, 0, {}]]], "class_name": "Conv2D"}, {"name": "conv2d_164", "config": {"bias_initializer": {"class_name": "Zeros", "config": {}}, "kernel_size": [1, 1], "bias_regularizer": null, "data_format": "channels_last", "kernel_initializer": {"class_name": "VarianceScaling", "config": {"scale": 1.0, "mode": "fan_avg", "distribution": "uniform", "seed": null}}, "filters": 192, "use_bias": false, "name": "conv2d_164", "activation": "linear", "kernel_constraint": null, "kernel_regularizer": null, "strides": [1, 1], "padding": "same", "dilation_rate": [1, 1], "bias_constraint": null, "trainable": true, "activity_regularizer": null}, "inbound_nodes": [[["average_pooling2d_16", 0, 0, {}]]], "class_name": "Conv2D"}, {"name": "batch_normalization_155", "config": {"scale": false, "axis": 3, "gamma_regularizer": null, "moving_mean_initializer": {"class_name": "Zeros", "config": {}}, "beta_constraint": null, "gamma_constraint": null, "moving_variance_initializer": {"class_name": "Ones", "config": {}}, "name": "batch_normalization_155", "beta_initializer": {"class_name": "Zeros", "config": {}}, "momentum": 0.99, "gamma_initializer": {"class_name": "Ones", "config": {}}, "beta_regularizer": null, "trainable": true, "epsilon": 0.001, "center": true}, "inbound_nodes": [[["conv2d_155", 0, 0, {}]]], "class_name": "BatchNormalization"}, {"name": "batch_normalization_158", "config": {"scale": false, "axis": 3, "gamma_regularizer": null, "moving_mean_initializer": {"class_name": "Zeros", "config": {}}, "beta_constraint": null, "gamma_constraint": null, "moving_variance_initializer": {"class_name": "Ones", "config": {}}, "name": "batch_normalization_158", "beta_initializer": {"class_name": "Zeros", "config": {}}, "momentum": 0.99, "gamma_initializer": {"class_name": "Ones", "config": {}}, "beta_regularizer": null, "trainable": true, "epsilon": 0.001, "center": true}, "inbound_nodes": [[["conv2d_158", 0, 0, {}]]], "class_name": "BatchNormalization"}, {"name": "batch_normalization_163", "config": {"scale": false, "axis": 3, "gamma_regularizer": null, "moving_mean_initializer": {"class_name": "Zeros", "config": {}}, "beta_constraint": null, "gamma_constraint": null, "moving_variance_initializer": {"class_name": "Ones", "config": {}}, "name": "batch_normalization_163", "beta_initializer": {"class_name": "Zeros", "config": {}}, "momentum": 0.99, "gamma_initializer": {"class_name": "Ones", "config": {}}, "beta_regularizer": null, "trainable": true, "epsilon": 0.001, "center": true}, "inbound_nodes": [[["conv2d_163", 0, 0, {}]]], "class_name": "BatchNormalization"}, {"name": "batch_normalization_164", "config": {"scale": false, "axis": 3, "gamma_regularizer": null, "moving_mean_initializer": {"class_name": "Zeros", "config": {}}, "beta_constraint": null, "gamma_constraint": null, "moving_variance_initializer": {"class_name": "Ones", "config": {}}, "name": "batch_normalization_164", "beta_initializer": {"class_name": "Zeros", "config": {}}, "momentum": 0.99, "gamma_initializer": {"class_name": "Ones", "config": {}}, "beta_regularizer": null, "trainable": true, "epsilon": 0.001, "center": true}, "inbound_nodes": [[["conv2d_164", 0, 0, {}]]], "class_name": "BatchNormalization"}, {"name": "activation_155", "config": {"activation": "relu", "trainable": true, "name": "activation_155"}, "inbound_nodes": [[["batch_normalization_155", 0, 0, {}]]], "class_name": "Activation"}, {"name": "activation_158", "config": {"activation": "relu", "trainable": true, "name": "activation_158"}, "inbound_nodes": [[["batch_normalization_158", 0, 0, {}]]], "class_name": "Activation"}, {"name": "activation_163", "config": {"activation": "relu", "trainable": true, "name": "activation_163"}, "inbound_nodes": [[["batch_normalization_163", 0, 0, {}]]], "class_name": "Activation"}, {"name": "activation_164", "config": {"activation": "relu", "trainable": true, "name": "activation_164"}, "inbound_nodes": [[["batch_normalization_164", 0, 0, {}]]], "class_name": "Activation"}, {"name": "mixed7", "config": {"axis": 3, "trainable": true, "name": "mixed7"}, "inbound_nodes": [[["activation_155", 0, 0, {}], ["activation_158", 0, 0, {}], ["activation_163", 0, 0, {}], ["activation_164", 0, 0, {}]]], "class_name": "Concatenate"}, {"name": "conv2d_167", "config": {"bias_initializer": {"class_name": "Zeros", "config": {}}, "kernel_size": [1, 1], "bias_regularizer": null, "data_format": "channels_last", "kernel_initializer": {"class_name": "VarianceScaling", "config": {"scale": 1.0, "mode": "fan_avg", "distribution": "uniform", "seed": null}}, "filters": 192, "use_bias": false, "name": "conv2d_167", "activation": "linear", "kernel_constraint": null, "kernel_regularizer": null, "strides": [1, 1], "padding": "same", "dilation_rate": [1, 1], "bias_constraint": null, "trainable": true, "activity_regularizer": null}, "inbound_nodes": [[["mixed7", 0, 0, {}]]], "class_name": "Conv2D"}, {"name": "batch_normalization_167", "config": {"scale": false, "axis": 3, "gamma_regularizer": null, "moving_mean_initializer": {"class_name": "Zeros", "config": {}}, "beta_constraint": null, "gamma_constraint": null, "moving_variance_initializer": {"class_name": "Ones", "config": {}}, "name": "batch_normalization_167", "beta_initializer": {"class_name": "Zeros", "config": {}}, "momentum": 0.99, "gamma_initializer": {"class_name": "Ones", "config": {}}, "beta_regularizer": null, "trainable": true, "epsilon": 0.001, "center": true}, "inbound_nodes": [[["conv2d_167", 0, 0, {}]]], "class_name": "BatchNormalization"}, {"name": "activation_167", "config": {"activation": "relu", "trainable": true, "name": "activation_167"}, "inbound_nodes": [[["batch_normalization_167", 0, 0, {}]]], "class_name": "Activation"}, {"name": "conv2d_168", "config": {"bias_initializer": {"class_name": "Zeros", "config": {}}, "kernel_size": [1, 7], "bias_regularizer": null, "data_format": "channels_last", "kernel_initializer": {"class_name": "VarianceScaling", "config": {"scale": 1.0, "mode": "fan_avg", "distribution": "uniform", "seed": null}}, "filters": 192, "use_bias": false, "name": "conv2d_168", "activation": "linear", "kernel_constraint": null, "kernel_regularizer": null, "strides": [1, 1], "padding": "same", "dilation_rate": [1, 1], "bias_constraint": null, "trainable": true, "activity_regularizer": null}, "inbound_nodes": [[["activation_167", 0, 0, {}]]], "class_name": "Conv2D"}, {"name": "batch_normalization_168", "config": {"scale": false, "axis": 3, "gamma_regularizer": null, "moving_mean_initializer": {"class_name": "Zeros", "config": {}}, "beta_constraint": null, "gamma_constraint": null, "moving_variance_initializer": {"class_name": "Ones", "config": {}}, "name": "batch_normalization_168", "beta_initializer": {"class_name": "Zeros", "config": {}}, "momentum": 0.99, "gamma_initializer": {"class_name": "Ones", "config": {}}, "beta_regularizer": null, "trainable": true, "epsilon": 0.001, "center": true}, "inbound_nodes": [[["conv2d_168", 0, 0, {}]]], "class_name": "BatchNormalization"}, {"name": "activation_168", "config": {"activation": "relu", "trainable": true, "name": "activation_168"}, "inbound_nodes": [[["batch_normalization_168", 0, 0, {}]]], "class_name": "Activation"}, {"name": "conv2d_165", "config": {"bias_initializer": {"class_name": "Zeros", "config": {}}, "kernel_size": [1, 1], "bias_regularizer": null, "data_format": "channels_last", "kernel_initializer": {"class_name": "VarianceScaling", "config": {"scale": 1.0, "mode": "fan_avg", "distribution": "uniform", "seed": null}}, "filters": 192, "use_bias": false, "name": "conv2d_165", "activation": "linear", "kernel_constraint": null, "kernel_regularizer": null, "strides": [1, 1], "padding": "same", "dilation_rate": [1, 1], "bias_constraint": null, "trainable": true, "activity_regularizer": null}, "inbound_nodes": [[["mixed7", 0, 0, {}]]], "class_name": "Conv2D"}, {"name": "conv2d_169", "config": {"bias_initializer": {"class_name": "Zeros", "config": {}}, "kernel_size": [7, 1], "bias_regularizer": null, "data_format": "channels_last", "kernel_initializer": {"class_name": "VarianceScaling", "config": {"scale": 1.0, "mode": "fan_avg", "distribution": "uniform", "seed": null}}, "filters": 192, "use_bias": false, "name": "conv2d_169", "activation": "linear", "kernel_constraint": null, "kernel_regularizer": null, "strides": [1, 1], "padding": "same", "dilation_rate": [1, 1], "bias_constraint": null, "trainable": true, "activity_regularizer": null}, "inbound_nodes": [[["activation_168", 0, 0, {}]]], "class_name": "Conv2D"}, {"name": "batch_normalization_165", "config": {"scale": false, "axis": 3, "gamma_regularizer": null, "moving_mean_initializer": {"class_name": "Zeros", "config": {}}, "beta_constraint": null, "gamma_constraint": null, "moving_variance_initializer": {"class_name": "Ones", "config": {}}, "name": "batch_normalization_165", "beta_initializer": {"class_name": "Zeros", "config": {}}, "momentum": 0.99, "gamma_initializer": {"class_name": "Ones", "config": {}}, "beta_regularizer": null, "trainable": true, "epsilon": 0.001, "center": true}, "inbound_nodes": [[["conv2d_165", 0, 0, {}]]], "class_name": "BatchNormalization"}, {"name": "batch_normalization_169", "config": {"scale": false, "axis": 3, "gamma_regularizer": null, "moving_mean_initializer": {"class_name": "Zeros", "config": {}}, "beta_constraint": null, "gamma_constraint": null, "moving_variance_initializer": {"class_name": "Ones", "config": {}}, "name": "batch_normalization_169", "beta_initializer": {"class_name": "Zeros", "config": {}}, "momentum": 0.99, "gamma_initializer": {"class_name": "Ones", "config": {}}, "beta_regularizer": null, "trainable": true, "epsilon": 0.001, "center": true}, "inbound_nodes": [[["conv2d_169", 0, 0, {}]]], "class_name": "BatchNormalization"}, {"name": "activation_165", "config": {"activation": "relu", "trainable": true, "name": "activation_165"}, "inbound_nodes": [[["batch_normalization_165", 0, 0, {}]]], "class_name": "Activation"}, {"name": "activation_169", "config": {"activation": "relu", "trainable": true, "name": "activation_169"}, "inbound_nodes": [[["batch_normalization_169", 0, 0, {}]]], "class_name": "Activation"}, {"name": "conv2d_166", "config": {"bias_initializer": {"class_name": "Zeros", "config": {}}, "kernel_size": [3, 3], "bias_regularizer": null, "data_format": "channels_last", "kernel_initializer": {"class_name": "VarianceScaling", "config": {"scale": 1.0, "mode": "fan_avg", "distribution": "uniform", "seed": null}}, "filters": 320, "use_bias": false, "name": "conv2d_166", "activation": "linear", "kernel_constraint": null, "kernel_regularizer": null, "strides": [2, 2], "padding": "valid", "dilation_rate": [1, 1], "bias_constraint": null, "trainable": true, "activity_regularizer": null}, "inbound_nodes": [[["activation_165", 0, 0, {}]]], "class_name": "Conv2D"}, {"name": "conv2d_170", "config": {"bias_initializer": {"class_name": "Zeros", "config": {}}, "kernel_size": [3, 3], "bias_regularizer": null, "data_format": "channels_last", "kernel_initializer": {"class_name": "VarianceScaling", "config": {"scale": 1.0, "mode": "fan_avg", "distribution": "uniform", "seed": null}}, "filters": 192, "use_bias": false, "name": "conv2d_170", "activation": "linear", "kernel_constraint": null, "kernel_regularizer": null, "strides": [2, 2], "padding": "valid", "dilation_rate": [1, 1], "bias_constraint": null, "trainable": true, "activity_regularizer": null}, "inbound_nodes": [[["activation_169", 0, 0, {}]]], "class_name": "Conv2D"}, {"name": "batch_normalization_166", "config": {"scale": false, "axis": 3, "gamma_regularizer": null, "moving_mean_initializer": {"class_name": "Zeros", "config": {}}, "beta_constraint": null, "gamma_constraint": null, "moving_variance_initializer": {"class_name": "Ones", "config": {}}, "name": "batch_normalization_166", "beta_initializer": {"class_name": "Zeros", "config": {}}, "momentum": 0.99, "gamma_initializer": {"class_name": "Ones", "config": {}}, "beta_regularizer": null, "trainable": true, "epsilon": 0.001, "center": true}, "inbound_nodes": [[["conv2d_166", 0, 0, {}]]], "class_name": "BatchNormalization"}, {"name": "batch_normalization_170", "config": {"scale": false, "axis": 3, "gamma_regularizer": null, "moving_mean_initializer": {"class_name": "Zeros", "config": {}}, "beta_constraint": null, "gamma_constraint": null, "moving_variance_initializer": {"class_name": "Ones", "config": {}}, "name": "batch_normalization_170", "beta_initializer": {"class_name": "Zeros", "config": {}}, "momentum": 0.99, "gamma_initializer": {"class_name": "Ones", "config": {}}, "beta_regularizer": null, "trainable": true, "epsilon": 0.001, "center": true}, "inbound_nodes": [[["conv2d_170", 0, 0, {}]]], "class_name": "BatchNormalization"}, {"name": "activation_166", "config": {"activation": "relu", "trainable": true, "name": "activation_166"}, "inbound_nodes": [[["batch_normalization_166", 0, 0, {}]]], "class_name": "Activation"}, {"name": "activation_170", "config": {"activation": "relu", "trainable": true, "name": "activation_170"}, "inbound_nodes": [[["batch_normalization_170", 0, 0, {}]]], "class_name": "Activation"}, {"name": "max_pooling2d_8", "config": {"strides": [2, 2], "padding": "valid", "data_format": "channels_last", "trainable": true, "pool_size": [3, 3], "name": "max_pooling2d_8"}, "inbound_nodes": [[["mixed7", 0, 0, {}]]], "class_name": "MaxPooling2D"}, {"name": "mixed8", "config": {"axis": 3, "trainable": true, "name": "mixed8"}, "inbound_nodes": [[["activation_166", 0, 0, {}], ["activation_170", 0, 0, {}], ["max_pooling2d_8", 0, 0, {}]]], "class_name": "Concatenate"}, {"name": "conv2d_175", "config": {"bias_initializer": {"class_name": "Zeros", "config": {}}, "kernel_size": [1, 1], "bias_regularizer": null, "data_format": "channels_last", "kernel_initializer": {"class_name": "VarianceScaling", "config": {"scale": 1.0, "mode": "fan_avg", "distribution": "uniform", "seed": null}}, "filters": 448, "use_bias": false, "name": "conv2d_175", "activation": "linear", "kernel_constraint": null, "kernel_regularizer": null, "strides": [1, 1], "padding": "same", "dilation_rate": [1, 1], "bias_constraint": null, "trainable": true, "activity_regularizer": null}, "inbound_nodes": [[["mixed8", 0, 0, {}]]], "class_name": "Conv2D"}, {"name": "batch_normalization_175", "config": {"scale": false, "axis": 3, "gamma_regularizer": null, "moving_mean_initializer": {"class_name": "Zeros", "config": {}}, "beta_constraint": null, "gamma_constraint": null, "moving_variance_initializer": {"class_name": "Ones", "config": {}}, "name": "batch_normalization_175", "beta_initializer": {"class_name": "Zeros", "config": {}}, "momentum": 0.99, "gamma_initializer": {"class_name": "Ones", "config": {}}, "beta_regularizer": null, "trainable": true, "epsilon": 0.001, "center": true}, "inbound_nodes": [[["conv2d_175", 0, 0, {}]]], "class_name": "BatchNormalization"}, {"name": "activation_175", "config": {"activation": "relu", "trainable": true, "name": "activation_175"}, "inbound_nodes": [[["batch_normalization_175", 0, 0, {}]]], "class_name": "Activation"}, {"name": "conv2d_172", "config": {"bias_initializer": {"class_name": "Zeros", "config": {}}, "kernel_size": [1, 1], "bias_regularizer": null, "data_format": "channels_last", "kernel_initializer": {"class_name": "VarianceScaling", "config": {"scale": 1.0, "mode": "fan_avg", "distribution": "uniform", "seed": null}}, "filters": 384, "use_bias": false, "name": "conv2d_172", "activation": "linear", "kernel_constraint": null, "kernel_regularizer": null, "strides": [1, 1], "padding": "same", "dilation_rate": [1, 1], "bias_constraint": null, "trainable": true, "activity_regularizer": null}, "inbound_nodes": [[["mixed8", 0, 0, {}]]], "class_name": "Conv2D"}, {"name": "conv2d_176", "config": {"bias_initializer": {"class_name": "Zeros", "config": {}}, "kernel_size": [3, 3], "bias_regularizer": null, "data_format": "channels_last", "kernel_initializer": {"class_name": "VarianceScaling", "config": {"scale": 1.0, "mode": "fan_avg", "distribution": "uniform", "seed": null}}, "filters": 384, "use_bias": false, "name": "conv2d_176", "activation": "linear", "kernel_constraint": null, "kernel_regularizer": null, "strides": [1, 1], "padding": "same", "dilation_rate": [1, 1], "bias_constraint": null, "trainable": true, "activity_regularizer": null}, "inbound_nodes": [[["activation_175", 0, 0, {}]]], "class_name": "Conv2D"}, {"name": "batch_normalization_172", "config": {"scale": false, "axis": 3, "gamma_regularizer": null, "moving_mean_initializer": {"class_name": "Zeros", "config": {}}, "beta_constraint": null, "gamma_constraint": null, "moving_variance_initializer": {"class_name": "Ones", "config": {}}, "name": "batch_normalization_172", "beta_initializer": {"class_name": "Zeros", "config": {}}, "momentum": 0.99, "gamma_initializer": {"class_name": "Ones", "config": {}}, "beta_regularizer": null, "trainable": true, "epsilon": 0.001, "center": true}, "inbound_nodes": [[["conv2d_172", 0, 0, {}]]], "class_name": "BatchNormalization"}, {"name": "batch_normalization_176", "config": {"scale": false, "axis": 3, "gamma_regularizer": null, "moving_mean_initializer": {"class_name": "Zeros", "config": {}}, "beta_constraint": null, "gamma_constraint": null, "moving_variance_initializer": {"class_name": "Ones", "config": {}}, "name": "batch_normalization_176", "beta_initializer": {"class_name": "Zeros", "config": {}}, "momentum": 0.99, "gamma_initializer": {"class_name": "Ones", "config": {}}, "beta_regularizer": null, "trainable": true, "epsilon": 0.001, "center": true}, "inbound_nodes": [[["conv2d_176", 0, 0, {}]]], "class_name": "BatchNormalization"}, {"name": "activation_172", "config": {"activation": "relu", "trainable": true, "name": "activation_172"}, "inbound_nodes": [[["batch_normalization_172", 0, 0, {}]]], "class_name": "Activation"}, {"name": "activation_176", "config": {"activation": "relu", "trainable": true, "name": "activation_176"}, "inbound_nodes": [[["batch_normalization_176", 0, 0, {}]]], "class_name": "Activation"}, {"name": "conv2d_173", "config": {"bias_initializer": {"class_name": "Zeros", "config": {}}, "kernel_size": [1, 3], "bias_regularizer": null, "data_format": "channels_last", "kernel_initializer": {"class_name": "VarianceScaling", "config": {"scale": 1.0, "mode": "fan_avg", "distribution": "uniform", "seed": null}}, "filters": 384, "use_bias": false, "name": "conv2d_173", "activation": "linear", "kernel_constraint": null, "kernel_regularizer": null, "strides": [1, 1], "padding": "same", "dilation_rate": [1, 1], "bias_constraint": null, "trainable": true, "activity_regularizer": null}, "inbound_nodes": [[["activation_172", 0, 0, {}]]], "class_name": "Conv2D"}, {"name": "conv2d_174", "config": {"bias_initializer": {"class_name": "Zeros", "config": {}}, "kernel_size": [3, 1], "bias_regularizer": null, "data_format": "channels_last", "kernel_initializer": {"class_name": "VarianceScaling", "config": {"scale": 1.0, "mode": "fan_avg", "distribution": "uniform", "seed": null}}, "filters": 384, "use_bias": false, "name": "conv2d_174", "activation": "linear", "kernel_constraint": null, "kernel_regularizer": null, "strides": [1, 1], "padding": "same", "dilation_rate": [1, 1], "bias_constraint": null, "trainable": true, "activity_regularizer": null}, "inbound_nodes": [[["activation_172", 0, 0, {}]]], "class_name": "Conv2D"}, {"name": "conv2d_177", "config": {"bias_initializer": {"class_name": "Zeros", "config": {}}, "kernel_size": [1, 3], "bias_regularizer": null, "data_format": "channels_last", "kernel_initializer": {"class_name": "VarianceScaling", "config": {"scale": 1.0, "mode": "fan_avg", "distribution": "uniform", "seed": null}}, "filters": 384, "use_bias": false, "name": "conv2d_177", "activation": "linear", "kernel_constraint": null, "kernel_regularizer": null, "strides": [1, 1], "padding": "same", "dilation_rate": [1, 1], "bias_constraint": null, "trainable": true, "activity_regularizer": null}, "inbound_nodes": [[["activation_176", 0, 0, {}]]], "class_name": "Conv2D"}, {"name": "conv2d_178", "config": {"bias_initializer": {"class_name": "Zeros", "config": {}}, "kernel_size": [3, 1], "bias_regularizer": null, "data_format": "channels_last", "kernel_initializer": {"class_name": "VarianceScaling", "config": {"scale": 1.0, "mode": "fan_avg", "distribution": "uniform", "seed": null}}, "filters": 384, "use_bias": false, "name": "conv2d_178", "activation": "linear", "kernel_constraint": null, "kernel_regularizer": null, "strides": [1, 1], "padding": "same", "dilation_rate": [1, 1], "bias_constraint": null, "trainable": true, "activity_regularizer": null}, "inbound_nodes": [[["activation_176", 0, 0, {}]]], "class_name": "Conv2D"}, {"name": "average_pooling2d_17", "config": {"strides": [1, 1], "padding": "same", "data_format": "channels_last", "trainable": true, "pool_size": [3, 3], "name": "average_pooling2d_17"}, "inbound_nodes": [[["mixed8", 0, 0, {}]]], "class_name": "AveragePooling2D"}, {"name": "conv2d_171", "config": {"bias_initializer": {"class_name": "Zeros", "config": {}}, "kernel_size": [1, 1], "bias_regularizer": null, "data_format": "channels_last", "kernel_initializer": {"class_name": "VarianceScaling", "config": {"scale": 1.0, "mode": "fan_avg", "distribution": "uniform", "seed": null}}, "filters": 320, "use_bias": false, "name": "conv2d_171", "activation": "linear", "kernel_constraint": null, "kernel_regularizer": null, "strides": [1, 1], "padding": "same", "dilation_rate": [1, 1], "bias_constraint": null, "trainable": true, "activity_regularizer": null}, "inbound_nodes": [[["mixed8", 0, 0, {}]]], "class_name": "Conv2D"}, {"name": "batch_normalization_173", "config": {"scale": false, "axis": 3, "gamma_regularizer": null, "moving_mean_initializer": {"class_name": "Zeros", "config": {}}, "beta_constraint": null, "gamma_constraint": null, "moving_variance_initializer": {"class_name": "Ones", "config": {}}, "name": "batch_normalization_173", "beta_initializer": {"class_name": "Zeros", "config": {}}, "momentum": 0.99, "gamma_initializer": {"class_name": "Ones", "config": {}}, "beta_regularizer": null, "trainable": true, "epsilon": 0.001, "center": true}, "inbound_nodes": [[["conv2d_173", 0, 0, {}]]], "class_name": "BatchNormalization"}, {"name": "batch_normalization_174", "config": {"scale": false, "axis": 3, "gamma_regularizer": null, "moving_mean_initializer": {"class_name": "Zeros", "config": {}}, "beta_constraint": null, "gamma_constraint": null, "moving_variance_initializer": {"class_name": "Ones", "config": {}}, "name": "batch_normalization_174", "beta_initializer": {"class_name": "Zeros", "config": {}}, "momentum": 0.99, "gamma_initializer": {"class_name": "Ones", "config": {}}, "beta_regularizer": null, "trainable": true, "epsilon": 0.001, "center": true}, "inbound_nodes": [[["conv2d_174", 0, 0, {}]]], "class_name": "BatchNormalization"}, {"name": "batch_normalization_177", "config": {"scale": false, "axis": 3, "gamma_regularizer": null, "moving_mean_initializer": {"class_name": "Zeros", "config": {}}, "beta_constraint": null, "gamma_constraint": null, "moving_variance_initializer": {"class_name": "Ones", "config": {}}, "name": "batch_normalization_177", "beta_initializer": {"class_name": "Zeros", "config": {}}, "momentum": 0.99, "gamma_initializer": {"class_name": "Ones", "config": {}}, "beta_regularizer": null, "trainable": true, "epsilon": 0.001, "center": true}, "inbound_nodes": [[["conv2d_177", 0, 0, {}]]], "class_name": "BatchNormalization"}, {"name": "batch_normalization_178", "config": {"scale": false, "axis": 3, "gamma_regularizer": null, "moving_mean_initializer": {"class_name": "Zeros", "config": {}}, "beta_constraint": null, "gamma_constraint": null, "moving_variance_initializer": {"class_name": "Ones", "config": {}}, "name": "batch_normalization_178", "beta_initializer": {"class_name": "Zeros", "config": {}}, "momentum": 0.99, "gamma_initializer": {"class_name": "Ones", "config": {}}, "beta_regularizer": null, "trainable": true, "epsilon": 0.001, "center": true}, "inbound_nodes": [[["conv2d_178", 0, 0, {}]]], "class_name": "BatchNormalization"}, {"name": "conv2d_179", "config": {"bias_initializer": {"class_name": "Zeros", "config": {}}, "kernel_size": [1, 1], "bias_regularizer": null, "data_format": "channels_last", "kernel_initializer": {"class_name": "VarianceScaling", "config": {"scale": 1.0, "mode": "fan_avg", "distribution": "uniform", "seed": null}}, "filters": 192, "use_bias": false, "name": "conv2d_179", "activation": "linear", "kernel_constraint": null, "kernel_regularizer": null, "strides": [1, 1], "padding": "same", "dilation_rate": [1, 1], "bias_constraint": null, "trainable": true, "activity_regularizer": null}, "inbound_nodes": [[["average_pooling2d_17", 0, 0, {}]]], "class_name": "Conv2D"}, {"name": "batch_normalization_171", "config": {"scale": false, "axis": 3, "gamma_regularizer": null, "moving_mean_initializer": {"class_name": "Zeros", "config": {}}, "beta_constraint": null, "gamma_constraint": null, "moving_variance_initializer": {"class_name": "Ones", "config": {}}, "name": "batch_normalization_171", "beta_initializer": {"class_name": "Zeros", "config": {}}, "momentum": 0.99, "gamma_initializer": {"class_name": "Ones", "config": {}}, "beta_regularizer": null, "trainable": true, "epsilon": 0.001, "center": true}, "inbound_nodes": [[["conv2d_171", 0, 0, {}]]], "class_name": "BatchNormalization"}, {"name": "activation_173", "config": {"activation": "relu", "trainable": true, "name": "activation_173"}, "inbound_nodes": [[["batch_normalization_173", 0, 0, {}]]], "class_name": "Activation"}, {"name": "activation_174", "config": {"activation": "relu", "trainable": true, "name": "activation_174"}, "inbound_nodes": [[["batch_normalization_174", 0, 0, {}]]], "class_name": "Activation"}, {"name": "activation_177", "config": {"activation": "relu", "trainable": true, "name": "activation_177"}, "inbound_nodes": [[["batch_normalization_177", 0, 0, {}]]], "class_name": "Activation"}, {"name": "activation_178", "config": {"activation": "relu", "trainable": true, "name": "activation_178"}, "inbound_nodes": [[["batch_normalization_178", 0, 0, {}]]], "class_name": "Activation"}, {"name": "batch_normalization_179", "config": {"scale": false, "axis": 3, "gamma_regularizer": null, "moving_mean_initializer": {"class_name": "Zeros", "config": {}}, "beta_constraint": null, "gamma_constraint": null, "moving_variance_initializer": {"class_name": "Ones", "config": {}}, "name": "batch_normalization_179", "beta_initializer": {"class_name": "Zeros", "config": {}}, "momentum": 0.99, "gamma_initializer": {"class_name": "Ones", "config": {}}, "beta_regularizer": null, "trainable": true, "epsilon": 0.001, "center": true}, "inbound_nodes": [[["conv2d_179", 0, 0, {}]]], "class_name": "BatchNormalization"}, {"name": "activation_171", "config": {"activation": "relu", "trainable": true, "name": "activation_171"}, "inbound_nodes": [[["batch_normalization_171", 0, 0, {}]]], "class_name": "Activation"}, {"name": "mixed9_0", "config": {"axis": 3, "trainable": true, "name": "mixed9_0"}, "inbound_nodes": [[["activation_173", 0, 0, {}], ["activation_174", 0, 0, {}]]], "class_name": "Concatenate"}, {"name": "concatenate_3", "config": {"axis": 3, "trainable": true, "name": "concatenate_3"}, "inbound_nodes": [[["activation_177", 0, 0, {}], ["activation_178", 0, 0, {}]]], "class_name": "Concatenate"}, {"name": "activation_179", "config": {"activation": "relu", "trainable": true, "name": "activation_179"}, "inbound_nodes": [[["batch_normalization_179", 0, 0, {}]]], "class_name": "Activation"}, {"name": "mixed9", "config": {"axis": 3, "trainable": true, "name": "mixed9"}, "inbound_nodes": [[["activation_171", 0, 0, {}], ["mixed9_0", 0, 0, {}], ["concatenate_3", 0, 0, {}], ["activation_179", 0, 0, {}]]], "class_name": "Concatenate"}, {"name": "conv2d_184", "config": {"bias_initializer": {"class_name": "Zeros", "config": {}}, "kernel_size": [1, 1], "bias_regularizer": null, "data_format": "channels_last", "kernel_initializer": {"class_name": "VarianceScaling", "config": {"scale": 1.0, "mode": "fan_avg", "distribution": "uniform", "seed": null}}, "filters": 448, "use_bias": false, "name": "conv2d_184", "activation": "linear", "kernel_constraint": null, "kernel_regularizer": null, "strides": [1, 1], "padding": "same", "dilation_rate": [1, 1], "bias_constraint": null, "trainable": true, "activity_regularizer": null}, "inbound_nodes": [[["mixed9", 0, 0, {}]]], "class_name": "Conv2D"}, {"name": "batch_normalization_184", "config": {"scale": false, "axis": 3, "gamma_regularizer": null, "moving_mean_initializer": {"class_name": "Zeros", "config": {}}, "beta_constraint": null, "gamma_constraint": null, "moving_variance_initializer": {"class_name": "Ones", "config": {}}, "name": "batch_normalization_184", "beta_initializer": {"class_name": "Zeros", "config": {}}, "momentum": 0.99, "gamma_initializer": {"class_name": "Ones", "config": {}}, "beta_regularizer": null, "trainable": true, "epsilon": 0.001, "center": true}, "inbound_nodes": [[["conv2d_184", 0, 0, {}]]], "class_name": "BatchNormalization"}, {"name": "activation_184", "config": {"activation": "relu", "trainable": true, "name": "activation_184"}, "inbound_nodes": [[["batch_normalization_184", 0, 0, {}]]], "class_name": "Activation"}, {"name": "conv2d_181", "config": {"bias_initializer": {"class_name": "Zeros", "config": {}}, "kernel_size": [1, 1], "bias_regularizer": null, "data_format": "channels_last", "kernel_initializer": {"class_name": "VarianceScaling", "config": {"scale": 1.0, "mode": "fan_avg", "distribution": "uniform", "seed": null}}, "filters": 384, "use_bias": false, "name": "conv2d_181", "activation": "linear", "kernel_constraint": null, "kernel_regularizer": null, "strides": [1, 1], "padding": "same", "dilation_rate": [1, 1], "bias_constraint": null, "trainable": true, "activity_regularizer": null}, "inbound_nodes": [[["mixed9", 0, 0, {}]]], "class_name": "Conv2D"}, {"name": "conv2d_185", "config": {"bias_initializer": {"class_name": "Zeros", "config": {}}, "kernel_size": [3, 3], "bias_regularizer": null, "data_format": "channels_last", "kernel_initializer": {"class_name": "VarianceScaling", "config": {"scale": 1.0, "mode": "fan_avg", "distribution": "uniform", "seed": null}}, "filters": 384, "use_bias": false, "name": "conv2d_185", "activation": "linear", "kernel_constraint": null, "kernel_regularizer": null, "strides": [1, 1], "padding": "same", "dilation_rate": [1, 1], "bias_constraint": null, "trainable": true, "activity_regularizer": null}, "inbound_nodes": [[["activation_184", 0, 0, {}]]], "class_name": "Conv2D"}, {"name": "batch_normalization_181", "config": {"scale": false, "axis": 3, "gamma_regularizer": null, "moving_mean_initializer": {"class_name": "Zeros", "config": {}}, "beta_constraint": null, "gamma_constraint": null, "moving_variance_initializer": {"class_name": "Ones", "config": {}}, "name": "batch_normalization_181", "beta_initializer": {"class_name": "Zeros", "config": {}}, "momentum": 0.99, "gamma_initializer": {"class_name": "Ones", "config": {}}, "beta_regularizer": null, "trainable": true, "epsilon": 0.001, "center": true}, "inbound_nodes": [[["conv2d_181", 0, 0, {}]]], "class_name": "BatchNormalization"}, {"name": "batch_normalization_185", "config": {"scale": false, "axis": 3, "gamma_regularizer": null, "moving_mean_initializer": {"class_name": "Zeros", "config": {}}, "beta_constraint": null, "gamma_constraint": null, "moving_variance_initializer": {"class_name": "Ones", "config": {}}, "name": "batch_normalization_185", "beta_initializer": {"class_name": "Zeros", "config": {}}, "momentum": 0.99, "gamma_initializer": {"class_name": "Ones", "config": {}}, "beta_regularizer": null, "trainable": true, "epsilon": 0.001, "center": true}, "inbound_nodes": [[["conv2d_185", 0, 0, {}]]], "class_name": "BatchNormalization"}, {"name": "activation_181", "config": {"activation": "relu", "trainable": true, "name": "activation_181"}, "inbound_nodes": [[["batch_normalization_181", 0, 0, {}]]], "class_name": "Activation"}, {"name": "activation_185", "config": {"activation": "relu", "trainable": true, "name": "activation_185"}, "inbound_nodes": [[["batch_normalization_185", 0, 0, {}]]], "class_name": "Activation"}, {"name": "conv2d_182", "config": {"bias_initializer": {"class_name": "Zeros", "config": {}}, "kernel_size": [1, 3], "bias_regularizer": null, "data_format": "channels_last", "kernel_initializer": {"class_name": "VarianceScaling", "config": {"scale": 1.0, "mode": "fan_avg", "distribution": "uniform", "seed": null}}, "filters": 384, "use_bias": false, "name": "conv2d_182", "activation": "linear", "kernel_constraint": null, "kernel_regularizer": null, "strides": [1, 1], "padding": "same", "dilation_rate": [1, 1], "bias_constraint": null, "trainable": true, "activity_regularizer": null}, "inbound_nodes": [[["activation_181", 0, 0, {}]]], "class_name": "Conv2D"}, {"name": "conv2d_183", "config": {"bias_initializer": {"class_name": "Zeros", "config": {}}, "kernel_size": [3, 1], "bias_regularizer": null, "data_format": "channels_last", "kernel_initializer": {"class_name": "VarianceScaling", "config": {"scale": 1.0, "mode": "fan_avg", "distribution": "uniform", "seed": null}}, "filters": 384, "use_bias": false, "name": "conv2d_183", "activation": "linear", "kernel_constraint": null, "kernel_regularizer": null, "strides": [1, 1], "padding": "same", "dilation_rate": [1, 1], "bias_constraint": null, "trainable": true, "activity_regularizer": null}, "inbound_nodes": [[["activation_181", 0, 0, {}]]], "class_name": "Conv2D"}, {"name": "conv2d_186", "config": {"bias_initializer": {"class_name": "Zeros", "config": {}}, "kernel_size": [1, 3], "bias_regularizer": null, "data_format": "channels_last", "kernel_initializer": {"class_name": "VarianceScaling", "config": {"scale": 1.0, "mode": "fan_avg", "distribution": "uniform", "seed": null}}, "filters": 384, "use_bias": false, "name": "conv2d_186", "activation": "linear", "kernel_constraint": null, "kernel_regularizer": null, "strides": [1, 1], "padding": "same", "dilation_rate": [1, 1], "bias_constraint": null, "trainable": true, "activity_regularizer": null}, "inbound_nodes": [[["activation_185", 0, 0, {}]]], "class_name": "Conv2D"}, {"name": "conv2d_187", "config": {"bias_initializer": {"class_name": "Zeros", "config": {}}, "kernel_size": [3, 1], "bias_regularizer": null, "data_format": "channels_last", "kernel_initializer": {"class_name": "VarianceScaling", "config": {"scale": 1.0, "mode": "fan_avg", "distribution": "uniform", "seed": null}}, "filters": 384, "use_bias": false, "name": "conv2d_187", "activation": "linear", "kernel_constraint": null, "kernel_regularizer": null, "strides": [1, 1], "padding": "same", "dilation_rate": [1, 1], "bias_constraint": null, "trainable": true, "activity_regularizer": null}, "inbound_nodes": [[["activation_185", 0, 0, {}]]], "class_name": "Conv2D"}, {"name": "average_pooling2d_18", "config": {"strides": [1, 1], "padding": "same", "data_format": "channels_last", "trainable": true, "pool_size": [3, 3], "name": "average_pooling2d_18"}, "inbound_nodes": [[["mixed9", 0, 0, {}]]], "class_name": "AveragePooling2D"}, {"name": "conv2d_180", "config": {"bias_initializer": {"class_name": "Zeros", "config": {}}, "kernel_size": [1, 1], "bias_regularizer": null, "data_format": "channels_last", "kernel_initializer": {"class_name": "VarianceScaling", "config": {"scale": 1.0, "mode": "fan_avg", "distribution": "uniform", "seed": null}}, "filters": 320, "use_bias": false, "name": "conv2d_180", "activation": "linear", "kernel_constraint": null, "kernel_regularizer": null, "strides": [1, 1], "padding": "same", "dilation_rate": [1, 1], "bias_constraint": null, "trainable": true, "activity_regularizer": null}, "inbound_nodes": [[["mixed9", 0, 0, {}]]], "class_name": "Conv2D"}, {"name": "batch_normalization_182", "config": {"scale": false, "axis": 3, "gamma_regularizer": null, "moving_mean_initializer": {"class_name": "Zeros", "config": {}}, "beta_constraint": null, "gamma_constraint": null, "moving_variance_initializer": {"class_name": "Ones", "config": {}}, "name": "batch_normalization_182", "beta_initializer": {"class_name": "Zeros", "config": {}}, "momentum": 0.99, "gamma_initializer": {"class_name": "Ones", "config": {}}, "beta_regularizer": null, "trainable": true, "epsilon": 0.001, "center": true}, "inbound_nodes": [[["conv2d_182", 0, 0, {}]]], "class_name": "BatchNormalization"}, {"name": "batch_normalization_183", "config": {"scale": false, "axis": 3, "gamma_regularizer": null, "moving_mean_initializer": {"class_name": "Zeros", "config": {}}, "beta_constraint": null, "gamma_constraint": null, "moving_variance_initializer": {"class_name": "Ones", "config": {}}, "name": "batch_normalization_183", "beta_initializer": {"class_name": "Zeros", "config": {}}, "momentum": 0.99, "gamma_initializer": {"class_name": "Ones", "config": {}}, "beta_regularizer": null, "trainable": true, "epsilon": 0.001, "center": true}, "inbound_nodes": [[["conv2d_183", 0, 0, {}]]], "class_name": "BatchNormalization"}, {"name": "batch_normalization_186", "config": {"scale": false, "axis": 3, "gamma_regularizer": null, "moving_mean_initializer": {"class_name": "Zeros", "config": {}}, "beta_constraint": null, "gamma_constraint": null, "moving_variance_initializer": {"class_name": "Ones", "config": {}}, "name": "batch_normalization_186", "beta_initializer": {"class_name": "Zeros", "config": {}}, "momentum": 0.99, "gamma_initializer": {"class_name": "Ones", "config": {}}, "beta_regularizer": null, "trainable": true, "epsilon": 0.001, "center": true}, "inbound_nodes": [[["conv2d_186", 0, 0, {}]]], "class_name": "BatchNormalization"}, {"name": "batch_normalization_187", "config": {"scale": false, "axis": 3, "gamma_regularizer": null, "moving_mean_initializer": {"class_name": "Zeros", "config": {}}, "beta_constraint": null, "gamma_constraint": null, "moving_variance_initializer": {"class_name": "Ones", "config": {}}, "name": "batch_normalization_187", "beta_initializer": {"class_name": "Zeros", "config": {}}, "momentum": 0.99, "gamma_initializer": {"class_name": "Ones", "config": {}}, "beta_regularizer": null, "trainable": true, "epsilon": 0.001, "center": true}, "inbound_nodes": [[["conv2d_187", 0, 0, {}]]], "class_name": "BatchNormalization"}, {"name": "conv2d_188", "config": {"bias_initializer": {"class_name": "Zeros", "config": {}}, "kernel_size": [1, 1], "bias_regularizer": null, "data_format": "channels_last", "kernel_initializer": {"class_name": "VarianceScaling", "config": {"scale": 1.0, "mode": "fan_avg", "distribution": "uniform", "seed": null}}, "filters": 192, "use_bias": false, "name": "conv2d_188", "activation": "linear", "kernel_constraint": null, "kernel_regularizer": null, "strides": [1, 1], "padding": "same", "dilation_rate": [1, 1], "bias_constraint": null, "trainable": true, "activity_regularizer": null}, "inbound_nodes": [[["average_pooling2d_18", 0, 0, {}]]], "class_name": "Conv2D"}, {"name": "batch_normalization_180", "config": {"scale": false, "axis": 3, "gamma_regularizer": null, "moving_mean_initializer": {"class_name": "Zeros", "config": {}}, "beta_constraint": null, "gamma_constraint": null, "moving_variance_initializer": {"class_name": "Ones", "config": {}}, "name": "batch_normalization_180", "beta_initializer": {"class_name": "Zeros", "config": {}}, "momentum": 0.99, "gamma_initializer": {"class_name": "Ones", "config": {}}, "beta_regularizer": null, "trainable": true, "epsilon": 0.001, "center": true}, "inbound_nodes": [[["conv2d_180", 0, 0, {}]]], "class_name": "BatchNormalization"}, {"name": "activation_182", "config": {"activation": "relu", "trainable": true, "name": "activation_182"}, "inbound_nodes": [[["batch_normalization_182", 0, 0, {}]]], "class_name": "Activation"}, {"name": "activation_183", "config": {"activation": "relu", "trainable": true, "name": "activation_183"}, "inbound_nodes": [[["batch_normalization_183", 0, 0, {}]]], "class_name": "Activation"}, {"name": "activation_186", "config": {"activation": "relu", "trainable": true, "name": "activation_186"}, "inbound_nodes": [[["batch_normalization_186", 0, 0, {}]]], "class_name": "Activation"}, {"name": "activation_187", "config": {"activation": "relu", "trainable": true, "name": "activation_187"}, "inbound_nodes": [[["batch_normalization_187", 0, 0, {}]]], "class_name": "Activation"}, {"name": "batch_normalization_188", "config": {"scale": false, "axis": 3, "gamma_regularizer": null, "moving_mean_initializer": {"class_name": "Zeros", "config": {}}, "beta_constraint": null, "gamma_constraint": null, "moving_variance_initializer": {"class_name": "Ones", "config": {}}, "name": "batch_normalization_188", "beta_initializer": {"class_name": "Zeros", "config": {}}, "momentum": 0.99, "gamma_initializer": {"class_name": "Ones", "config": {}}, "beta_regularizer": null, "trainable": true, "epsilon": 0.001, "center": true}, "inbound_nodes": [[["conv2d_188", 0, 0, {}]]], "class_name": "BatchNormalization"}, {"name": "activation_180", "config": {"activation": "relu", "trainable": true, "name": "activation_180"}, "inbound_nodes": [[["batch_normalization_180", 0, 0, {}]]], "class_name": "Activation"}, {"name": "mixed9_1", "config": {"axis": 3, "trainable": true, "name": "mixed9_1"}, "inbound_nodes": [[["activation_182", 0, 0, {}], ["activation_183", 0, 0, {}]]], "class_name": "Concatenate"}, {"name": "concatenate_4", "config": {"axis": 3, "trainable": true, "name": "concatenate_4"}, "inbound_nodes": [[["activation_186", 0, 0, {}], ["activation_187", 0, 0, {}]]], "class_name": "Concatenate"}, {"name": "activation_188", "config": {"activation": "relu", "trainable": true, "name": "activation_188"}, "inbound_nodes": [[["batch_normalization_188", 0, 0, {}]]], "class_name": "Activation"}, {"name": "mixed10", "config": {"axis": 3, "trainable": true, "name": "mixed10"}, "inbound_nodes": [[["activation_180", 0, 0, {}], ["mixed9_1", 0, 0, {}], ["concatenate_4", 0, 0, {}], ["activation_188", 0, 0, {}]]], "class_name": "Concatenate"}, {"name": "global_average_pooling2d_2", "config": {"data_format": "channels_last", "trainable": true, "name": "global_average_pooling2d_2"}, "inbound_nodes": [[["mixed10", 0, 0, {}]]], "class_name": "GlobalAveragePooling2D"}, {"name": "dense_2", "config": {"activation": "linear", "bias_regularizer": null, "activity_regularizer": null, "units": 152, "kernel_initializer": {"class_name": "VarianceScaling", "config": {"scale": 1.0, "mode": "fan_avg", "distribution": "uniform", "seed": null}}, "use_bias": true, "name": "dense_2", "bias_initializer": {"class_name": "Zeros", "config": {}}, "kernel_constraint": null, "kernel_regularizer": null, "bias_constraint": null, "trainable": true}, "inbound_nodes": [[["global_average_pooling2d_2", 0, 0, {}]]], "class_name": "Dense"}]}, "class_name": "Model"}