{"backend": "tensorflow", "keras_version": "2.0.9", "config": {"input_layers": [["input_1", 0, 0]], "name": "model_1", "output_layers": [["dense_1", 0, 0]], "layers": [{"name": "input_1", "config": {"sparse": false, "dtype": "float32", "batch_input_shape": [null, 299, 299, 3], "name": "input_1"}, "inbound_nodes": [], "class_name": "InputLayer"}, {"name": "conv2d_1", "config": {"bias_initializer": {"class_name": "Zeros", "config": {}}, "kernel_size": [3, 3], "bias_regularizer": null, "data_format": "channels_last", "kernel_initializer": {"class_name": "VarianceScaling", "config": {"scale": 1.0, "mode": "fan_avg", "distribution": "uniform", "seed": null}}, "filters": 32, "use_bias": false, "name": "conv2d_1", "activation": "linear", "kernel_constraint": null, "kernel_regularizer": null, "strides": [2, 2], "padding": "valid", "dilation_rate": [1, 1], "bias_constraint": null, "trainable": false, "activity_regularizer": null}, "inbound_nodes": [[["input_1", 0, 0, {}]]], "class_name": "Conv2D"}, {"name": "batch_normalization_1", "config": {"scale": false, "axis": 3, "gamma_regularizer": null, "moving_mean_initializer": {"class_name": "Zeros", "config": {}}, "beta_constraint": null, "gamma_constraint": null, "moving_variance_initializer": {"class_name": "Ones", "config": {}}, "name": "batch_normalization_1", "beta_initializer": {"class_name": "Zeros", "config": {}}, "momentum": 0.99, "gamma_initializer": {"class_name": "Ones", "config": {}}, "beta_regularizer": null, "trainable": false, "epsilon": 0.001, "center": true}, "inbound_nodes": [[["conv2d_1", 0, 0, {}]]], "class_name": "BatchNormalization"}, {"name": "activation_1", "config": {"activation": "relu", "trainable": false, "name": "activation_1"}, "inbound_nodes": [[["batch_normalization_1", 0, 0, {}]]], "class_name": "Activation"}, {"name": "conv2d_2", "config": {"bias_initializer": {"class_name": "Zeros", "config": {}}, "kernel_size": [3, 3], "bias_regularizer": null, "data_format": "channels_last", "kernel_initializer": {"class_name": "VarianceScaling", "config": {"scale": 1.0, "mode": "fan_avg", "distribution": "uniform", "seed": null}}, "filters": 32, "use_bias": false, "name": "conv2d_2", "activation": "linear", "kernel_constraint": null, "kernel_regularizer": null, "strides": [1, 1], "padding": "valid", "dilation_rate": [1, 1], "bias_constraint": null, "trainable": false, "activity_regularizer": null}, "inbound_nodes": [[["activation_1", 0, 0, {}]]], "class_name": "Conv2D"}, {"name": "batch_normalization_2", "config": {"scale": false, "axis": 3, "gamma_regularizer": null, "moving_mean_initializer": {"class_name": "Zeros", "config": {}}, "beta_constraint": null, "gamma_constraint": null, "moving_variance_initializer": {"class_name": "Ones", "config": {}}, "name": "batch_normalization_2", "beta_initializer": {"class_name": "Zeros", "config": {}}, "momentum": 0.99, "gamma_initializer": {"class_name": "Ones", "config": {}}, "beta_regularizer": null, "trainable": false, "epsilon": 0.001, "center": true}, "inbound_nodes": [[["conv2d_2", 0, 0, {}]]], "class_name": "BatchNormalization"}, {"name": "activation_2", "config": {"activation": "relu", "trainable": false, "name": "activation_2"}, "inbound_nodes": [[["batch_normalization_2", 0, 0, {}]]], "class_name": "Activation"}, {"name": "conv2d_3", "config": {"bias_initializer": {"class_name": "Zeros", "config": {}}, "kernel_size": [3, 3], "bias_regularizer": null, "data_format": "channels_last", "kernel_initializer": {"class_name": "VarianceScaling", "config": {"scale": 1.0, "mode": "fan_avg", "distribution": "uniform", "seed": null}}, "filters": 64, "use_bias": false, "name": "conv2d_3", "activation": "linear", "kernel_constraint": null, "kernel_regularizer": null, "strides": [1, 1], "padding": "same", "dilation_rate": [1, 1], "bias_constraint": null, "trainable": false, "activity_regularizer": null}, "inbound_nodes": [[["activation_2", 0, 0, {}]]], "class_name": "Conv2D"}, {"name": "batch_normalization_3", "config": {"scale": false, "axis": 3, "gamma_regularizer": null, "moving_mean_initializer": {"class_name": "Zeros", "config": {}}, "beta_constraint": null, "gamma_constraint": null, "moving_variance_initializer": {"class_name": "Ones", "config": {}}, "name": "batch_normalization_3", "beta_initializer": {"class_name": "Zeros", "config": {}}, "momentum": 0.99, "gamma_initializer": {"class_name": "Ones", "config": {}}, "beta_regularizer": null, "trainable": false, "epsilon": 0.001, "center": true}, "inbound_nodes": [[["conv2d_3", 0, 0, {}]]], "class_name": "BatchNormalization"}, {"name": "activation_3", "config": {"activation": "relu", "trainable": false, "name": "activation_3"}, "inbound_nodes": [[["batch_normalization_3", 0, 0, {}]]], "class_name": "Activation"}, {"name": "max_pooling2d_1", "config": {"strides": [2, 2], "padding": "valid", "data_format": "channels_last", "trainable": false, "pool_size": [3, 3], "name": "max_pooling2d_1"}, "inbound_nodes": [[["activation_3", 0, 0, {}]]], "class_name": "MaxPooling2D"}, {"name": "conv2d_4", "config": {"bias_initializer": {"class_name": "Zeros", "config": {}}, "kernel_size": [1, 1], "bias_regularizer": null, "data_format": "channels_last", "kernel_initializer": {"class_name": "VarianceScaling", "config": {"scale": 1.0, "mode": "fan_avg", "distribution": "uniform", "seed": null}}, "filters": 80, "use_bias": false, "name": "conv2d_4", "activation": "linear", "kernel_constraint": null, "kernel_regularizer": null, "strides": [1, 1], "padding": "valid", "dilation_rate": [1, 1], "bias_constraint": null, "trainable": false, "activity_regularizer": null}, "inbound_nodes": [[["max_pooling2d_1", 0, 0, {}]]], "class_name": "Conv2D"}, {"name": "batch_normalization_4", "config": {"scale": false, "axis": 3, "gamma_regularizer": null, "moving_mean_initializer": {"class_name": "Zeros", "config": {}}, "beta_constraint": null, "gamma_constraint": null, "moving_variance_initializer": {"class_name": "Ones", "config": {}}, "name": "batch_normalization_4", "beta_initializer": {"class_name": "Zeros", "config": {}}, "momentum": 0.99, "gamma_initializer": {"class_name": "Ones", "config": {}}, "beta_regularizer": null, "trainable": false, "epsilon": 0.001, "center": true}, "inbound_nodes": [[["conv2d_4", 0, 0, {}]]], "class_name": "BatchNormalization"}, {"name": "activation_4", "config": {"activation": "relu", "trainable": false, "name": "activation_4"}, "inbound_nodes": [[["batch_normalization_4", 0, 0, {}]]], "class_name": "Activation"}, {"name": "conv2d_5", "config": {"bias_initializer": {"class_name": "Zeros", "config": {}}, "kernel_size": [3, 3], "bias_regularizer": null, "data_format": "channels_last", "kernel_initializer": {"class_name": "VarianceScaling", "config": {"scale": 1.0, "mode": "fan_avg", "distribution": "uniform", "seed": null}}, "filters": 192, "use_bias": false, "name": "conv2d_5", "activation": "linear", "kernel_constraint": null, "kernel_regularizer": null, "strides": [1, 1], "padding": "valid", "dilation_rate": [1, 1], "bias_constraint": null, "trainable": false, "activity_regularizer": null}, "inbound_nodes": [[["activation_4", 0, 0, {}]]], "class_name": "Conv2D"}, {"name": "batch_normalization_5", "config": {"scale": false, "axis": 3, "gamma_regularizer": null, "moving_mean_initializer": {"class_name": "Zeros", "config": {}}, "beta_constraint": null, "gamma_constraint": null, "moving_variance_initializer": {"class_name": "Ones", "config": {}}, "name": "batch_normalization_5", "beta_initializer": {"class_name": "Zeros", "config": {}}, "momentum": 0.99, "gamma_initializer": {"class_name": "Ones", "config": {}}, "beta_regularizer": null, "trainable": false, "epsilon": 0.001, "center": true}, "inbound_nodes": [[["conv2d_5", 0, 0, {}]]], "class_name": "BatchNormalization"}, {"name": "activation_5", "config": {"activation": "relu", "trainable": false, "name": "activation_5"}, "inbound_nodes": [[["batch_normalization_5", 0, 0, {}]]], "class_name": "Activation"}, {"name": "max_pooling2d_2", "config": {"strides": [2, 2], "padding": "valid", "data_format": "channels_last", "trainable": false, "pool_size": [3, 3], "name": "max_pooling2d_2"}, "inbound_nodes": [[["activation_5", 0, 0, {}]]], "class_name": "MaxPooling2D"}, {"name": "conv2d_9", "config": {"bias_initializer": {"class_name": "Zeros", "config": {}}, "kernel_size": [1, 1], "bias_regularizer": null, "data_format": "channels_last", "kernel_initializer": {"class_name": "VarianceScaling", "config": {"scale": 1.0, "mode": "fan_avg", "distribution": "uniform", "seed": null}}, "filters": 64, "use_bias": false, "name": "conv2d_9", "activation": "linear", "kernel_constraint": null, "kernel_regularizer": null, "strides": [1, 1], "padding": "same", "dilation_rate": [1, 1], "bias_constraint": null, "trainable": false, "activity_regularizer": null}, "inbound_nodes": [[["max_pooling2d_2", 0, 0, {}]]], "class_name": "Conv2D"}, {"name": "batch_normalization_9", "config": {"scale": false, "axis": 3, "gamma_regularizer": null, "moving_mean_initializer": {"class_name": "Zeros", "config": {}}, "beta_constraint": null, "gamma_constraint": null, "moving_variance_initializer": {"class_name": "Ones", "config": {}}, "name": "batch_normalization_9", "beta_initializer": {"class_name": "Zeros", "config": {}}, "momentum": 0.99, "gamma_initializer": {"class_name": "Ones", "config": {}}, "beta_regularizer": null, "trainable": false, "epsilon": 0.001, "center": true}, "inbound_nodes": [[["conv2d_9", 0, 0, {}]]], "class_name": "BatchNormalization"}, {"name": "activation_9", "config": {"activation": "relu", "trainable": false, "name": "activation_9"}, "inbound_nodes": [[["batch_normalization_9", 0, 0, {}]]], "class_name": "Activation"}, {"name": "conv2d_7", "config": {"bias_initializer": {"class_name": "Zeros", "config": {}}, "kernel_size": [1, 1], "bias_regularizer": null, "data_format": "channels_last", "kernel_initializer": {"class_name": "VarianceScaling", "config": {"scale": 1.0, "mode": "fan_avg", "distribution": "uniform", "seed": null}}, "filters": 48, "use_bias": false, "name": "conv2d_7", "activation": "linear", "kernel_constraint": null, "kernel_regularizer": null, "strides": [1, 1], "padding": "same", "dilation_rate": [1, 1], "bias_constraint": null, "trainable": false, "activity_regularizer": null}, "inbound_nodes": [[["max_pooling2d_2", 0, 0, {}]]], "class_name": "Conv2D"}, {"name": "conv2d_10", "config": {"bias_initializer": {"class_name": "Zeros", "config": {}}, "kernel_size": [3, 3], "bias_regularizer": null, "data_format": "channels_last", "kernel_initializer": {"class_name": "VarianceScaling", "config": {"scale": 1.0, "mode": "fan_avg", "distribution": "uniform", "seed": null}}, "filters": 96, "use_bias": false, "name": "conv2d_10", "activation": "linear", "kernel_constraint": null, "kernel_regularizer": null, "strides": [1, 1], "padding": "same", "dilation_rate": [1, 1], "bias_constraint": null, "trainable": false, "activity_regularizer": null}, "inbound_nodes": [[["activation_9", 0, 0, {}]]], "class_name": "Conv2D"}, {"name": "batch_normalization_7", "config": {"scale": false, "axis": 3, "gamma_regularizer": null, "moving_mean_initializer": {"class_name": "Zeros", "config": {}}, "beta_constraint": null, "gamma_constraint": null, "moving_variance_initializer": {"class_name": "Ones", "config": {}}, "name": "batch_normalization_7", "beta_initializer": {"class_name": "Zeros", "config": {}}, "momentum": 0.99, "gamma_initializer": {"class_name": "Ones", "config": {}}, "beta_regularizer": null, "trainable": false, "epsilon": 0.001, "center": true}, "inbound_nodes": [[["conv2d_7", 0, 0, {}]]], "class_name": "BatchNormalization"}, {"name": "batch_normalization_10", "config": {"scale": false, "axis": 3, "gamma_regularizer": null, "moving_mean_initializer": {"class_name": "Zeros", "config": {}}, "beta_constraint": null, "gamma_constraint": null, "moving_variance_initializer": {"class_name": "Ones", "config": {}}, "name": "batch_normalization_10", "beta_initializer": {"class_name": "Zeros", "config": {}}, "momentum": 0.99, "gamma_initializer": {"class_name": "Ones", "config": {}}, "beta_regularizer": null, "trainable": false, "epsilon": 0.001, "center": true}, "inbound_nodes": [[["conv2d_10", 0, 0, {}]]], "class_name": "BatchNormalization"}, {"name": "activation_7", "config": {"activation": "relu", "trainable": false, "name": "activation_7"}, "inbound_nodes": [[["batch_normalization_7", 0, 0, {}]]], "class_name": "Activation"}, {"name": "activation_10", "config": {"activation": "relu", "trainable": false, "name": "activation_10"}, "inbound_nodes": [[["batch_normalization_10", 0, 0, {}]]], "class_name": "Activation"}, {"name": "average_pooling2d_1", "config": {"strides": [1, 1], "padding": "same", "data_format": "channels_last", "trainable": false, "pool_size": [3, 3], "name": "average_pooling2d_1"}, "inbound_nodes": [[["max_pooling2d_2", 0, 0, {}]]], "class_name": "AveragePooling2D"}, {"name": "conv2d_6", "config": {"bias_initializer": {"class_name": "Zeros", "config": {}}, "kernel_size": [1, 1], "bias_regularizer": null, "data_format": "channels_last", "kernel_initializer": {"class_name": "VarianceScaling", "config": {"scale": 1.0, "mode": "fan_avg", "distribution": "uniform", "seed": null}}, "filters": 64, "use_bias": false, "name": "conv2d_6", "activation": "linear", "kernel_constraint": null, "kernel_regularizer": null, "strides": [1, 1], "padding": "same", "dilation_rate": [1, 1], "bias_constraint": null, "trainable": false, "activity_regularizer": null}, "inbound_nodes": [[["max_pooling2d_2", 0, 0, {}]]], "class_name": "Conv2D"}, {"name": "conv2d_8", "config": {"bias_initializer": {"class_name": "Zeros", "config": {}}, "kernel_size": [5, 5], "bias_regularizer": null, "data_format": "channels_last", "kernel_initializer": {"class_name": "VarianceScaling", "config": {"scale": 1.0, "mode": "fan_avg", "distribution": "uniform", "seed": null}}, "filters": 64, "use_bias": false, "name": "conv2d_8", "activation": "linear", "kernel_constraint": null, "kernel_regularizer": null, "strides": [1, 1], "padding": "same", "dilation_rate": [1, 1], "bias_constraint": null, "trainable": false, "activity_regularizer": null}, "inbound_nodes": [[["activation_7", 0, 0, {}]]], "class_name": "Conv2D"}, {"name": "conv2d_11", "config": {"bias_initializer": {"class_name": "Zeros", "config": {}}, "kernel_size": [3, 3], "bias_regularizer": null, "data_format": "channels_last", "kernel_initializer": {"class_name": "VarianceScaling", "config": {"scale": 1.0, "mode": "fan_avg", "distribution": "uniform", "seed": null}}, "filters": 96, "use_bias": false, "name": "conv2d_11", "activation": "linear", "kernel_constraint": null, "kernel_regularizer": null, "strides": [1, 1], "padding": "same", "dilation_rate": [1, 1], "bias_constraint": null, "trainable": false, "activity_regularizer": null}, "inbound_nodes": [[["activation_10", 0, 0, {}]]], "class_name": "Conv2D"}, {"name": "conv2d_12", "config": {"bias_initializer": {"class_name": "Zeros", "config": {}}, "kernel_size": [1, 1], "bias_regularizer": null, "data_format": "channels_last", "kernel_initializer": {"class_name": "VarianceScaling", "config": {"scale": 1.0, "mode": "fan_avg", "distribution": "uniform", "seed": null}}, "filters": 32, "use_bias": false, "name": "conv2d_12", "activation": "linear", "kernel_constraint": null, "kernel_regularizer": null, "strides": [1, 1], "padding": "same", "dilation_rate": [1, 1], "bias_constraint": null, "trainable": false, "activity_regularizer": null}, "inbound_nodes": [[["average_pooling2d_1", 0, 0, {}]]], "class_name": "Conv2D"}, {"name": "batch_normalization_6", "config": {"scale": false, "axis": 3, "gamma_regularizer": null, "moving_mean_initializer": {"class_name": "Zeros", "config": {}}, "beta_constraint": null, "gamma_constraint": null, "moving_variance_initializer": {"class_name": "Ones", "config": {}}, "name": "batch_normalization_6", "beta_initializer": {"class_name": "Zeros", "config": {}}, "momentum": 0.99, "gamma_initializer": {"class_name": "Ones", "config": {}}, "beta_regularizer": null, "trainable": false, "epsilon": 0.001, "center": true}, "inbound_nodes": [[["conv2d_6", 0, 0, {}]]], "class_name": "BatchNormalization"}, {"name": "batch_normalization_8", "config": {"scale": false, "axis": 3, "gamma_regularizer": null, "moving_mean_initializer": {"class_name": "Zeros", "config": {}}, "beta_constraint": null, "gamma_constraint": null, "moving_variance_initializer": {"class_name": "Ones", "config": {}}, "name": "batch_normalization_8", "beta_initializer": {"class_name": "Zeros", "config": {}}, "momentum": 0.99, "gamma_initializer": {"class_name": "Ones", "config": {}}, "beta_regularizer": null, "trainable": false, "epsilon": 0.001, "center": true}, "inbound_nodes": [[["conv2d_8", 0, 0, {}]]], "class_name": "BatchNormalization"}, {"name": "batch_normalization_11", "config": {"scale": false, "axis": 3, "gamma_regularizer": null, "moving_mean_initializer": {"class_name": "Zeros", "config": {}}, "beta_constraint": null, "gamma_constraint": null, "moving_variance_initializer": {"class_name": "Ones", "config": {}}, "name": "batch_normalization_11", "beta_initializer": {"class_name": "Zeros", "config": {}}, "momentum": 0.99, "gamma_initializer": {"class_name": "Ones", "config": {}}, "beta_regularizer": null, "trainable": false, "epsilon": 0.001, "center": true}, "inbound_nodes": [[["conv2d_11", 0, 0, {}]]], "class_name": "BatchNormalization"}, {"name": "batch_normalization_12", "config": {"scale": false, "axis": 3, "gamma_regularizer": null, "moving_mean_initializer": {"class_name": "Zeros", "config": {}}, "beta_constraint": null, "gamma_constraint": null, "moving_variance_initializer": {"class_name": "Ones", "config": {}}, "name": "batch_normalization_12", "beta_initializer": {"class_name": "Zeros", "config": {}}, "momentum": 0.99, "gamma_initializer": {"class_name": "Ones", "config": {}}, "beta_regularizer": null, "trainable": false, "epsilon": 0.001, "center": true}, "inbound_nodes": [[["conv2d_12", 0, 0, {}]]], "class_name": "BatchNormalization"}, {"name": "activation_6", "config": {"activation": "relu", "trainable": false, "name": "activation_6"}, "inbound_nodes": [[["batch_normalization_6", 0, 0, {}]]], "class_name": "Activation"}, {"name": "activation_8", "config": {"activation": "relu", "trainable": false, "name": "activation_8"}, "inbound_nodes": [[["batch_normalization_8", 0, 0, {}]]], "class_name": "Activation"}, {"name": "activation_11", "config": {"activation": "relu", "trainable": false, "name": "activation_11"}, "inbound_nodes": [[["batch_normalization_11", 0, 0, {}]]], "class_name": "Activation"}, {"name": "activation_12", "config": {"activation": "relu", "trainable": false, "name": "activation_12"}, "inbound_nodes": [[["batch_normalization_12", 0, 0, {}]]], "class_name": "Activation"}, {"name": "mixed0", "config": {"axis": 3, "trainable": false, "name": "mixed0"}, "inbound_nodes": [[["activation_6", 0, 0, {}], ["activation_8", 0, 0, {}], ["activation_11", 0, 0, {}], ["activation_12", 0, 0, {}]]], "class_name": "Concatenate"}, {"name": "conv2d_16", "config": {"bias_initializer": {"class_name": "Zeros", "config": {}}, "kernel_size": [1, 1], "bias_regularizer": null, "data_format": "channels_last", "kernel_initializer": {"class_name": "VarianceScaling", "config": {"scale": 1.0, "mode": "fan_avg", "distribution": "uniform", "seed": null}}, "filters": 64, "use_bias": false, "name": "conv2d_16", "activation": "linear", "kernel_constraint": null, "kernel_regularizer": null, "strides": [1, 1], "padding": "same", "dilation_rate": [1, 1], "bias_constraint": null, "trainable": false, "activity_regularizer": null}, "inbound_nodes": [[["mixed0", 0, 0, {}]]], "class_name": "Conv2D"}, {"name": "batch_normalization_16", "config": {"scale": false, "axis": 3, "gamma_regularizer": null, "moving_mean_initializer": {"class_name": "Zeros", "config": {}}, "beta_constraint": null, "gamma_constraint": null, "moving_variance_initializer": {"class_name": "Ones", "config": {}}, "name": "batch_normalization_16", "beta_initializer": {"class_name": "Zeros", "config": {}}, "momentum": 0.99, "gamma_initializer": {"class_name": "Ones", "config": {}}, "beta_regularizer": null, "trainable": false, "epsilon": 0.001, "center": true}, "inbound_nodes": [[["conv2d_16", 0, 0, {}]]], "class_name": "BatchNormalization"}, {"name": "activation_16", "config": {"activation": "relu", "trainable": false, "name": "activation_16"}, "inbound_nodes": [[["batch_normalization_16", 0, 0, {}]]], "class_name": "Activation"}, {"name": "conv2d_14", "config": {"bias_initializer": {"class_name": "Zeros", "config": {}}, "kernel_size": [1, 1], "bias_regularizer": null, "data_format": "channels_last", "kernel_initializer": {"class_name": "VarianceScaling", "config": {"scale": 1.0, "mode": "fan_avg", "distribution": "uniform", "seed": null}}, "filters": 48, "use_bias": false, "name": "conv2d_14", "activation": "linear", "kernel_constraint": null, "kernel_regularizer": null, "strides": [1, 1], "padding": "same", "dilation_rate": [1, 1], "bias_constraint": null, "trainable": false, "activity_regularizer": null}, "inbound_nodes": [[["mixed0", 0, 0, {}]]], "class_name": "Conv2D"}, {"name": "conv2d_17", "config": {"bias_initializer": {"class_name": "Zeros", "config": {}}, "kernel_size": [3, 3], "bias_regularizer": null, "data_format": "channels_last", "kernel_initializer": {"class_name": "VarianceScaling", "config": {"scale": 1.0, "mode": "fan_avg", "distribution": "uniform", "seed": null}}, "filters": 96, "use_bias": false, "name": "conv2d_17", "activation": "linear", "kernel_constraint": null, "kernel_regularizer": null, "strides": [1, 1], "padding": "same", "dilation_rate": [1, 1], "bias_constraint": null, "trainable": false, "activity_regularizer": null}, "inbound_nodes": [[["activation_16", 0, 0, {}]]], "class_name": "Conv2D"}, {"name": "batch_normalization_14", "config": {"scale": false, "axis": 3, "gamma_regularizer": null, "moving_mean_initializer": {"class_name": "Zeros", "config": {}}, "beta_constraint": null, "gamma_constraint": null, "moving_variance_initializer": {"class_name": "Ones", "config": {}}, "name": "batch_normalization_14", "beta_initializer": {"class_name": "Zeros", "config": {}}, "momentum": 0.99, "gamma_initializer": {"class_name": "Ones", "config": {}}, "beta_regularizer": null, "trainable": false, "epsilon": 0.001, "center": true}, "inbound_nodes": [[["conv2d_14", 0, 0, {}]]], "class_name": "BatchNormalization"}, {"name": "batch_normalization_17", "config": {"scale": false, "axis": 3, "gamma_regularizer": null, "moving_mean_initializer": {"class_name": "Zeros", "config": {}}, "beta_constraint": null, "gamma_constraint": null, "moving_variance_initializer": {"class_name": "Ones", "config": {}}, "name": "batch_normalization_17", "beta_initializer": {"class_name": "Zeros", "config": {}}, "momentum": 0.99, "gamma_initializer": {"class_name": "Ones", "config": {}}, "beta_regularizer": null, "trainable": false, "epsilon": 0.001, "center": true}, "inbound_nodes": [[["conv2d_17", 0, 0, {}]]], "class_name": "BatchNormalization"}, {"name": "activation_14", "config": {"activation": "relu", "trainable": false, "name": "activation_14"}, "inbound_nodes": [[["batch_normalization_14", 0, 0, {}]]], "class_name": "Activation"}, {"name": "activation_17", "config": {"activation": "relu", "trainable": false, "name": "activation_17"}, "inbound_nodes": [[["batch_normalization_17", 0, 0, {}]]], "class_name": "Activation"}, {"name": "average_pooling2d_2", "config": {"strides": [1, 1], "padding": "same", "data_format": "channels_last", "trainable": false, "pool_size": [3, 3], "name": "average_pooling2d_2"}, "inbound_nodes": [[["mixed0", 0, 0, {}]]], "class_name": "AveragePooling2D"}, {"name": "conv2d_13", "config": {"bias_initializer": {"class_name": "Zeros", "config": {}}, "kernel_size": [1, 1], "bias_regularizer": null, "data_format": "channels_last", "kernel_initializer": {"class_name": "VarianceScaling", "config": {"scale": 1.0, "mode": "fan_avg", "distribution": "uniform", "seed": null}}, "filters": 64, "use_bias": false, "name": "conv2d_13", "activation": "linear", "kernel_constraint": null, "kernel_regularizer": null, "strides": [1, 1], "padding": "same", "dilation_rate": [1, 1], "bias_constraint": null, "trainable": false, "activity_regularizer": null}, "inbound_nodes": [[["mixed0", 0, 0, {}]]], "class_name": "Conv2D"}, {"name": "conv2d_15", "config": {"bias_initializer": {"class_name": "Zeros", "config": {}}, "kernel_size": [5, 5], "bias_regularizer": null, "data_format": "channels_last", "kernel_initializer": {"class_name": "VarianceScaling", "config": {"scale": 1.0, "mode": "fan_avg", "distribution": "uniform", "seed": null}}, "filters": 64, "use_bias": false, "name": "conv2d_15", "activation": "linear", "kernel_constraint": null, "kernel_regularizer": null, "strides": [1, 1], "padding": "same", "dilation_rate": [1, 1], "bias_constraint": null, "trainable": false, "activity_regularizer": null}, "inbound_nodes": [[["activation_14", 0, 0, {}]]], "class_name": "Conv2D"}, {"name": "conv2d_18", "config": {"bias_initializer": {"class_name": "Zeros", "config": {}}, "kernel_size": [3, 3], "bias_regularizer": null, "data_format": "channels_last", "kernel_initializer": {"class_name": "VarianceScaling", "config": {"scale": 1.0, "mode": "fan_avg", "distribution": "uniform", "seed": null}}, "filters": 96, "use_bias": false, "name": "conv2d_18", "activation": "linear", "kernel_constraint": null, "kernel_regularizer": null, "strides": [1, 1], "padding": "same", "dilation_rate": [1, 1], "bias_constraint": null, "trainable": false, "activity_regularizer": null}, "inbound_nodes": [[["activation_17", 0, 0, {}]]], "class_name": "Conv2D"}, {"name": "conv2d_19", "config": {"bias_initializer": {"class_name": "Zeros", "config": {}}, "kernel_size": [1, 1], "bias_regularizer": null, "data_format": "channels_last", "kernel_initializer": {"class_name": "VarianceScaling", "config": {"scale": 1.0, "mode": "fan_avg", "distribution": "uniform", "seed": null}}, "filters": 64, "use_bias": false, "name": "conv2d_19", "activation": "linear", "kernel_constraint": null, "kernel_regularizer": null, "strides": [1, 1], "padding": "same", "dilation_rate": [1, 1], "bias_constraint": null, "trainable": false, "activity_regularizer": null}, "inbound_nodes": [[["average_pooling2d_2", 0, 0, {}]]], "class_name": "Conv2D"}, {"name": "batch_normalization_13", "config": {"scale": false, "axis": 3, "gamma_regularizer": null, "moving_mean_initializer": {"class_name": "Zeros", "config": {}}, "beta_constraint": null, "gamma_constraint": null, "moving_variance_initializer": {"class_name": "Ones", "config": {}}, "name": "batch_normalization_13", "beta_initializer": {"class_name": "Zeros", "config": {}}, "momentum": 0.99, "gamma_initializer": {"class_name": "Ones", "config": {}}, "beta_regularizer": null, "trainable": false, "epsilon": 0.001, "center": true}, "inbound_nodes": [[["conv2d_13", 0, 0, {}]]], "class_name": "BatchNormalization"}, {"name": "batch_normalization_15", "config": {"scale": false, "axis": 3, "gamma_regularizer": null, "moving_mean_initializer": {"class_name": "Zeros", "config": {}}, "beta_constraint": null, "gamma_constraint": null, "moving_variance_initializer": {"class_name": "Ones", "config": {}}, "name": "batch_normalization_15", "beta_initializer": {"class_name": "Zeros", "config": {}}, "momentum": 0.99, "gamma_initializer": {"class_name": "Ones", "config": {}}, "beta_regularizer": null, "trainable": false, "epsilon": 0.001, "center": true}, "inbound_nodes": [[["conv2d_15", 0, 0, {}]]], "class_name": "BatchNormalization"}, {"name": "batch_normalization_18", "config": {"scale": false, "axis": 3, "gamma_regularizer": null, "moving_mean_initializer": {"class_name": "Zeros", "config": {}}, "beta_constraint": null, "gamma_constraint": null, "moving_variance_initializer": {"class_name": "Ones", "config": {}}, "name": "batch_normalization_18", "beta_initializer": {"class_name": "Zeros", "config": {}}, "momentum": 0.99, "gamma_initializer": {"class_name": "Ones", "config": {}}, "beta_regularizer": null, "trainable": false, "epsilon": 0.001, "center": true}, "inbound_nodes": [[["conv2d_18", 0, 0, {}]]], "class_name": "BatchNormalization"}, {"name": "batch_normalization_19", "config": {"scale": false, "axis": 3, "gamma_regularizer": null, "moving_mean_initializer": {"class_name": "Zeros", "config": {}}, "beta_constraint": null, "gamma_constraint": null, "moving_variance_initializer": {"class_name": "Ones", "config": {}}, "name": "batch_normalization_19", "beta_initializer": {"class_name": "Zeros", "config": {}}, "momentum": 0.99, "gamma_initializer": {"class_name": "Ones", "config": {}}, "beta_regularizer": null, "trainable": false, "epsilon": 0.001, "center": true}, "inbound_nodes": [[["conv2d_19", 0, 0, {}]]], "class_name": "BatchNormalization"}, {"name": "activation_13", "config": {"activation": "relu", "trainable": false, "name": "activation_13"}, "inbound_nodes": [[["batch_normalization_13", 0, 0, {}]]], "class_name": "Activation"}, {"name": "activation_15", "config": {"activation": "relu", "trainable": false, "name": "activation_15"}, "inbound_nodes": [[["batch_normalization_15", 0, 0, {}]]], "class_name": "Activation"}, {"name": "activation_18", "config": {"activation": "relu", "trainable": false, "name": "activation_18"}, "inbound_nodes": [[["batch_normalization_18", 0, 0, {}]]], "class_name": "Activation"}, {"name": "activation_19", "config": {"activation": "relu", "trainable": false, "name": "activation_19"}, "inbound_nodes": [[["batch_normalization_19", 0, 0, {}]]], "class_name": "Activation"}, {"name": "mixed1", "config": {"axis": 3, "trainable": false, "name": "mixed1"}, "inbound_nodes": [[["activation_13", 0, 0, {}], ["activation_15", 0, 0, {}], ["activation_18", 0, 0, {}], ["activation_19", 0, 0, {}]]], "class_name": "Concatenate"}, {"name": "conv2d_23", "config": {"bias_initializer": {"class_name": "Zeros", "config": {}}, "kernel_size": [1, 1], "bias_regularizer": null, "data_format": "channels_last", "kernel_initializer": {"class_name": "VarianceScaling", "config": {"scale": 1.0, "mode": "fan_avg", "distribution": "uniform", "seed": null}}, "filters": 64, "use_bias": false, "name": "conv2d_23", "activation": "linear", "kernel_constraint": null, "kernel_regularizer": null, "strides": [1, 1], "padding": "same", "dilation_rate": [1, 1], "bias_constraint": null, "trainable": false, "activity_regularizer": null}, "inbound_nodes": [[["mixed1", 0, 0, {}]]], "class_name": "Conv2D"}, {"name": "batch_normalization_23", "config": {"scale": false, "axis": 3, "gamma_regularizer": null, "moving_mean_initializer": {"class_name": "Zeros", "config": {}}, "beta_constraint": null, "gamma_constraint": null, "moving_variance_initializer": {"class_name": "Ones", "config": {}}, "name": "batch_normalization_23", "beta_initializer": {"class_name": "Zeros", "config": {}}, "momentum": 0.99, "gamma_initializer": {"class_name": "Ones", "config": {}}, "beta_regularizer": null, "trainable": false, "epsilon": 0.001, "center": true}, "inbound_nodes": [[["conv2d_23", 0, 0, {}]]], "class_name": "BatchNormalization"}, {"name": "activation_23", "config": {"activation": "relu", "trainable": false, "name": "activation_23"}, "inbound_nodes": [[["batch_normalization_23", 0, 0, {}]]], "class_name": "Activation"}, {"name": "conv2d_21", "config": {"bias_initializer": {"class_name": "Zeros", "config": {}}, "kernel_size": [1, 1], "bias_regularizer": null, "data_format": "channels_last", "kernel_initializer": {"class_name": "VarianceScaling", "config": {"scale": 1.0, "mode": "fan_avg", "distribution": "uniform", "seed": null}}, "filters": 48, "use_bias": false, "name": "conv2d_21", "activation": "linear", "kernel_constraint": null, "kernel_regularizer": null, "strides": [1, 1], "padding": "same", "dilation_rate": [1, 1], "bias_constraint": null, "trainable": false, "activity_regularizer": null}, "inbound_nodes": [[["mixed1", 0, 0, {}]]], "class_name": "Conv2D"}, {"name": "conv2d_24", "config": {"bias_initializer": {"class_name": "Zeros", "config": {}}, "kernel_size": [3, 3], "bias_regularizer": null, "data_format": "channels_last", "kernel_initializer": {"class_name": "VarianceScaling", "config": {"scale": 1.0, "mode": "fan_avg", "distribution": "uniform", "seed": null}}, "filters": 96, "use_bias": false, "name": "conv2d_24", "activation": "linear", "kernel_constraint": null, "kernel_regularizer": null, "strides": [1, 1], "padding": "same", "dilation_rate": [1, 1], "bias_constraint": null, "trainable": false, "activity_regularizer": null}, "inbound_nodes": [[["activation_23", 0, 0, {}]]], "class_name": "Conv2D"}, {"name": "batch_normalization_21", "config": {"scale": false, "axis": 3, "gamma_regularizer": null, "moving_mean_initializer": {"class_name": "Zeros", "config": {}}, "beta_constraint": null, "gamma_constraint": null, "moving_variance_initializer": {"class_name": "Ones", "config": {}}, "name": "batch_normalization_21", "beta_initializer": {"class_name": "Zeros", "config": {}}, "momentum": 0.99, "gamma_initializer": {"class_name": "Ones", "config": {}}, "beta_regularizer": null, "trainable": false, "epsilon": 0.001, "center": true}, "inbound_nodes": [[["conv2d_21", 0, 0, {}]]], "class_name": "BatchNormalization"}, {"name": "batch_normalization_24", "config": {"scale": false, "axis": 3, "gamma_regularizer": null, "moving_mean_initializer": {"class_name": "Zeros", "config": {}}, "beta_constraint": null, "gamma_constraint": null, "moving_variance_initializer": {"class_name": "Ones", "config": {}}, "name": "batch_normalization_24", "beta_initializer": {"class_name": "Zeros", "config": {}}, "momentum": 0.99, "gamma_initializer": {"class_name": "Ones", "config": {}}, "beta_regularizer": null, "trainable": false, "epsilon": 0.001, "center": true}, "inbound_nodes": [[["conv2d_24", 0, 0, {}]]], "class_name": "BatchNormalization"}, {"name": "activation_21", "config": {"activation": "relu", "trainable": false, "name": "activation_21"}, "inbound_nodes": [[["batch_normalization_21", 0, 0, {}]]], "class_name": "Activation"}, {"name": "activation_24", "config": {"activation": "relu", "trainable": false, "name": "activation_24"}, "inbound_nodes": [[["batch_normalization_24", 0, 0, {}]]], "class_name": "Activation"}, {"name": "average_pooling2d_3", "config": {"strides": [1, 1], "padding": "same", "data_format": "channels_last", "trainable": false, "pool_size": [3, 3], "name": "average_pooling2d_3"}, "inbound_nodes": [[["mixed1", 0, 0, {}]]], "class_name": "AveragePooling2D"}, {"name": "conv2d_20", "config": {"bias_initializer": {"class_name": "Zeros", "config": {}}, "kernel_size": [1, 1], "bias_regularizer": null, "data_format": "channels_last", "kernel_initializer": {"class_name": "VarianceScaling", "config": {"scale": 1.0, "mode": "fan_avg", "distribution": "uniform", "seed": null}}, "filters": 64, "use_bias": false, "name": "conv2d_20", "activation": "linear", "kernel_constraint": null, "kernel_regularizer": null, "strides": [1, 1], "padding": "same", "dilation_rate": [1, 1], "bias_constraint": null, "trainable": false, "activity_regularizer": null}, "inbound_nodes": [[["mixed1", 0, 0, {}]]], "class_name": "Conv2D"}, {"name": "conv2d_22", "config": {"bias_initializer": {"class_name": "Zeros", "config": {}}, "kernel_size": [5, 5], "bias_regularizer": null, "data_format": "channels_last", "kernel_initializer": {"class_name": "VarianceScaling", "config": {"scale": 1.0, "mode": "fan_avg", "distribution": "uniform", "seed": null}}, "filters": 64, "use_bias": false, "name": "conv2d_22", "activation": "linear", "kernel_constraint": null, "kernel_regularizer": null, "strides": [1, 1], "padding": "same", "dilation_rate": [1, 1], "bias_constraint": null, "trainable": false, "activity_regularizer": null}, "inbound_nodes": [[["activation_21", 0, 0, {}]]], "class_name": "Conv2D"}, {"name": "conv2d_25", "config": {"bias_initializer": {"class_name": "Zeros", "config": {}}, "kernel_size": [3, 3], "bias_regularizer": null, "data_format": "channels_last", "kernel_initializer": {"class_name": "VarianceScaling", "config": {"scale": 1.0, "mode": "fan_avg", "distribution": "uniform", "seed": null}}, "filters": 96, "use_bias": false, "name": "conv2d_25", "activation": "linear", "kernel_constraint": null, "kernel_regularizer": null, "strides": [1, 1], "padding": "same", "dilation_rate": [1, 1], "bias_constraint": null, "trainable": false, "activity_regularizer": null}, "inbound_nodes": [[["activation_24", 0, 0, {}]]], "class_name": "Conv2D"}, {"name": "conv2d_26", "config": {"bias_initializer": {"class_name": "Zeros", "config": {}}, "kernel_size": [1, 1], "bias_regularizer": null, "data_format": "channels_last", "kernel_initializer": {"class_name": "VarianceScaling", "config": {"scale": 1.0, "mode": "fan_avg", "distribution": "uniform", "seed": null}}, "filters": 64, "use_bias": false, "name": "conv2d_26", "activation": "linear", "kernel_constraint": null, "kernel_regularizer": null, "strides": [1, 1], "padding": "same", "dilation_rate": [1, 1], "bias_constraint": null, "trainable": false, "activity_regularizer": null}, "inbound_nodes": [[["average_pooling2d_3", 0, 0, {}]]], "class_name": "Conv2D"}, {"name": "batch_normalization_20", "config": {"scale": false, "axis": 3, "gamma_regularizer": null, "moving_mean_initializer": {"class_name": "Zeros", "config": {}}, "beta_constraint": null, "gamma_constraint": null, "moving_variance_initializer": {"class_name": "Ones", "config": {}}, "name": "batch_normalization_20", "beta_initializer": {"class_name": "Zeros", "config": {}}, "momentum": 0.99, "gamma_initializer": {"class_name": "Ones", "config": {}}, "beta_regularizer": null, "trainable": false, "epsilon": 0.001, "center": true}, "inbound_nodes": [[["conv2d_20", 0, 0, {}]]], "class_name": "BatchNormalization"}, {"name": "batch_normalization_22", "config": {"scale": false, "axis": 3, "gamma_regularizer": null, "moving_mean_initializer": {"class_name": "Zeros", "config": {}}, "beta_constraint": null, "gamma_constraint": null, "moving_variance_initializer": {"class_name": "Ones", "config": {}}, "name": "batch_normalization_22", "beta_initializer": {"class_name": "Zeros", "config": {}}, "momentum": 0.99, "gamma_initializer": {"class_name": "Ones", "config": {}}, "beta_regularizer": null, "trainable": false, "epsilon": 0.001, "center": true}, "inbound_nodes": [[["conv2d_22", 0, 0, {}]]], "class_name": "BatchNormalization"}, {"name": "batch_normalization_25", "config": {"scale": false, "axis": 3, "gamma_regularizer": null, "moving_mean_initializer": {"class_name": "Zeros", "config": {}}, "beta_constraint": null, "gamma_constraint": null, "moving_variance_initializer": {"class_name": "Ones", "config": {}}, "name": "batch_normalization_25", "beta_initializer": {"class_name": "Zeros", "config": {}}, "momentum": 0.99, "gamma_initializer": {"class_name": "Ones", "config": {}}, "beta_regularizer": null, "trainable": false, "epsilon": 0.001, "center": true}, "inbound_nodes": [[["conv2d_25", 0, 0, {}]]], "class_name": "BatchNormalization"}, {"name": "batch_normalization_26", "config": {"scale": false, "axis": 3, "gamma_regularizer": null, "moving_mean_initializer": {"class_name": "Zeros", "config": {}}, "beta_constraint": null, "gamma_constraint": null, "moving_variance_initializer": {"class_name": "Ones", "config": {}}, "name": "batch_normalization_26", "beta_initializer": {"class_name": "Zeros", "config": {}}, "momentum": 0.99, "gamma_initializer": {"class_name": "Ones", "config": {}}, "beta_regularizer": null, "trainable": false, "epsilon": 0.001, "center": true}, "inbound_nodes": [[["conv2d_26", 0, 0, {}]]], "class_name": "BatchNormalization"}, {"name": "activation_20", "config": {"activation": "relu", "trainable": false, "name": "activation_20"}, "inbound_nodes": [[["batch_normalization_20", 0, 0, {}]]], "class_name": "Activation"}, {"name": "activation_22", "config": {"activation": "relu", "trainable": false, "name": "activation_22"}, "inbound_nodes": [[["batch_normalization_22", 0, 0, {}]]], "class_name": "Activation"}, {"name": "activation_25", "config": {"activation": "relu", "trainable": false, "name": "activation_25"}, "inbound_nodes": [[["batch_normalization_25", 0, 0, {}]]], "class_name": "Activation"}, {"name": "activation_26", "config": {"activation": "relu", "trainable": false, "name": "activation_26"}, "inbound_nodes": [[["batch_normalization_26", 0, 0, {}]]], "class_name": "Activation"}, {"name": "mixed2", "config": {"axis": 3, "trainable": false, "name": "mixed2"}, "inbound_nodes": [[["activation_20", 0, 0, {}], ["activation_22", 0, 0, {}], ["activation_25", 0, 0, {}], ["activation_26", 0, 0, {}]]], "class_name": "Concatenate"}, {"name": "conv2d_28", "config": {"bias_initializer": {"class_name": "Zeros", "config": {}}, "kernel_size": [1, 1], "bias_regularizer": null, "data_format": "channels_last", "kernel_initializer": {"class_name": "VarianceScaling", "config": {"scale": 1.0, "mode": "fan_avg", "distribution": "uniform", "seed": null}}, "filters": 64, "use_bias": false, "name": "conv2d_28", "activation": "linear", "kernel_constraint": null, "kernel_regularizer": null, "strides": [1, 1], "padding": "same", "dilation_rate": [1, 1], "bias_constraint": null, "trainable": false, "activity_regularizer": null}, "inbound_nodes": [[["mixed2", 0, 0, {}]]], "class_name": "Conv2D"}, {"name": "batch_normalization_28", "config": {"scale": false, "axis": 3, "gamma_regularizer": null, "moving_mean_initializer": {"class_name": "Zeros", "config": {}}, "beta_constraint": null, "gamma_constraint": null, "moving_variance_initializer": {"class_name": "Ones", "config": {}}, "name": "batch_normalization_28", "beta_initializer": {"class_name": "Zeros", "config": {}}, "momentum": 0.99, "gamma_initializer": {"class_name": "Ones", "config": {}}, "beta_regularizer": null, "trainable": false, "epsilon": 0.001, "center": true}, "inbound_nodes": [[["conv2d_28", 0, 0, {}]]], "class_name": "BatchNormalization"}, {"name": "activation_28", "config": {"activation": "relu", "trainable": false, "name": "activation_28"}, "inbound_nodes": [[["batch_normalization_28", 0, 0, {}]]], "class_name": "Activation"}, {"name": "conv2d_29", "config": {"bias_initializer": {"class_name": "Zeros", "config": {}}, "kernel_size": [3, 3], "bias_regularizer": null, "data_format": "channels_last", "kernel_initializer": {"class_name": "VarianceScaling", "config": {"scale": 1.0, "mode": "fan_avg", "distribution": "uniform", "seed": null}}, "filters": 96, "use_bias": false, "name": "conv2d_29", "activation": "linear", "kernel_constraint": null, "kernel_regularizer": null, "strides": [1, 1], "padding": "same", "dilation_rate": [1, 1], "bias_constraint": null, "trainable": false, "activity_regularizer": null}, "inbound_nodes": [[["activation_28", 0, 0, {}]]], "class_name": "Conv2D"}, {"name": "batch_normalization_29", "config": {"scale": false, "axis": 3, "gamma_regularizer": null, "moving_mean_initializer": {"class_name": "Zeros", "config": {}}, "beta_constraint": null, "gamma_constraint": null, "moving_variance_initializer": {"class_name": "Ones", "config": {}}, "name": "batch_normalization_29", "beta_initializer": {"class_name": "Zeros", "config": {}}, "momentum": 0.99, "gamma_initializer": {"class_name": "Ones", "config": {}}, "beta_regularizer": null, "trainable": false, "epsilon": 0.001, "center": true}, "inbound_nodes": [[["conv2d_29", 0, 0, {}]]], "class_name": "BatchNormalization"}, {"name": "activation_29", "config": {"activation": "relu", "trainable": false, "name": "activation_29"}, "inbound_nodes": [[["batch_normalization_29", 0, 0, {}]]], "class_name": "Activation"}, {"name": "conv2d_27", "config": {"bias_initializer": {"class_name": "Zeros", "config": {}}, "kernel_size": [3, 3], "bias_regularizer": null, "data_format": "channels_last", "kernel_initializer": {"class_name": "VarianceScaling", "config": {"scale": 1.0, "mode": "fan_avg", "distribution": "uniform", "seed": null}}, "filters": 384, "use_bias": false, "name": "conv2d_27", "activation": "linear", "kernel_constraint": null, "kernel_regularizer": null, "strides": [2, 2], "padding": "valid", "dilation_rate": [1, 1], "bias_constraint": null, "trainable": false, "activity_regularizer": null}, "inbound_nodes": [[["mixed2", 0, 0, {}]]], "class_name": "Conv2D"}, {"name": "conv2d_30", "config": {"bias_initializer": {"class_name": "Zeros", "config": {}}, "kernel_size": [3, 3], "bias_regularizer": null, "data_format": "channels_last", "kernel_initializer": {"class_name": "VarianceScaling", "config": {"scale": 1.0, "mode": "fan_avg", "distribution": "uniform", "seed": null}}, "filters": 96, "use_bias": false, "name": "conv2d_30", "activation": "linear", "kernel_constraint": null, "kernel_regularizer": null, "strides": [2, 2], "padding": "valid", "dilation_rate": [1, 1], "bias_constraint": null, "trainable": false, "activity_regularizer": null}, "inbound_nodes": [[["activation_29", 0, 0, {}]]], "class_name": "Conv2D"}, {"name": "batch_normalization_27", "config": {"scale": false, "axis": 3, "gamma_regularizer": null, "moving_mean_initializer": {"class_name": "Zeros", "config": {}}, "beta_constraint": null, "gamma_constraint": null, "moving_variance_initializer": {"class_name": "Ones", "config": {}}, "name": "batch_normalization_27", "beta_initializer": {"class_name": "Zeros", "config": {}}, "momentum": 0.99, "gamma_initializer": {"class_name": "Ones", "config": {}}, "beta_regularizer": null, "trainable": false, "epsilon": 0.001, "center": true}, "inbound_nodes": [[["conv2d_27", 0, 0, {}]]], "class_name": "BatchNormalization"}, {"name": "batch_normalization_30", "config": {"scale": false, "axis": 3, "gamma_regularizer": null, "moving_mean_initializer": {"class_name": "Zeros", "config": {}}, "beta_constraint": null, "gamma_constraint": null, "moving_variance_initializer": {"class_name": "Ones", "config": {}}, "name": "batch_normalization_30", "beta_initializer": {"class_name": "Zeros", "config": {}}, "momentum": 0.99, "gamma_initializer": {"class_name": "Ones", "config": {}}, "beta_regularizer": null, "trainable": false, "epsilon": 0.001, "center": true}, "inbound_nodes": [[["conv2d_30", 0, 0, {}]]], "class_name": "BatchNormalization"}, {"name": "activation_27", "config": {"activation": "relu", "trainable": false, "name": "activation_27"}, "inbound_nodes": [[["batch_normalization_27", 0, 0, {}]]], "class_name": "Activation"}, {"name": "activation_30", "config": {"activation": "relu", "trainable": false, "name": "activation_30"}, "inbound_nodes": [[["batch_normalization_30", 0, 0, {}]]], "class_name": "Activation"}, {"name": "max_pooling2d_3", "config": {"strides": [2, 2], "padding": "valid", "data_format": "channels_last", "trainable": false, "pool_size": [3, 3], "name": "max_pooling2d_3"}, "inbound_nodes": [[["mixed2", 0, 0, {}]]], "class_name": "MaxPooling2D"}, {"name": "mixed3", "config": {"axis": 3, "trainable": false, "name": "mixed3"}, "inbound_nodes": [[["activation_27", 0, 0, {}], ["activation_30", 0, 0, {}], ["max_pooling2d_3", 0, 0, {}]]], "class_name": "Concatenate"}, {"name": "conv2d_35", "config": {"bias_initializer": {"class_name": "Zeros", "config": {}}, "kernel_size": [1, 1], "bias_regularizer": null, "data_format": "channels_last", "kernel_initializer": {"class_name": "VarianceScaling", "config": {"scale": 1.0, "mode": "fan_avg", "distribution": "uniform", "seed": null}}, "filters": 128, "use_bias": false, "name": "conv2d_35", "activation": "linear", "kernel_constraint": null, "kernel_regularizer": null, "strides": [1, 1], "padding": "same", "dilation_rate": [1, 1], "bias_constraint": null, "trainable": false, "activity_regularizer": null}, "inbound_nodes": [[["mixed3", 0, 0, {}]]], "class_name": "Conv2D"}, {"name": "batch_normalization_35", "config": {"scale": false, "axis": 3, "gamma_regularizer": null, "moving_mean_initializer": {"class_name": "Zeros", "config": {}}, "beta_constraint": null, "gamma_constraint": null, "moving_variance_initializer": {"class_name": "Ones", "config": {}}, "name": "batch_normalization_35", "beta_initializer": {"class_name": "Zeros", "config": {}}, "momentum": 0.99, "gamma_initializer": {"class_name": "Ones", "config": {}}, "beta_regularizer": null, "trainable": false, "epsilon": 0.001, "center": true}, "inbound_nodes": [[["conv2d_35", 0, 0, {}]]], "class_name": "BatchNormalization"}, {"name": "activation_35", "config": {"activation": "relu", "trainable": false, "name": "activation_35"}, "inbound_nodes": [[["batch_normalization_35", 0, 0, {}]]], "class_name": "Activation"}, {"name": "conv2d_36", "config": {"bias_initializer": {"class_name": "Zeros", "config": {}}, "kernel_size": [7, 1], "bias_regularizer": null, "data_format": "channels_last", "kernel_initializer": {"class_name": "VarianceScaling", "config": {"scale": 1.0, "mode": "fan_avg", "distribution": "uniform", "seed": null}}, "filters": 128, "use_bias": false, "name": "conv2d_36", "activation": "linear", "kernel_constraint": null, "kernel_regularizer": null, "strides": [1, 1], "padding": "same", "dilation_rate": [1, 1], "bias_constraint": null, "trainable": false, "activity_regularizer": null}, "inbound_nodes": [[["activation_35", 0, 0, {}]]], "class_name": "Conv2D"}, {"name": "batch_normalization_36", "config": {"scale": false, "axis": 3, "gamma_regularizer": null, "moving_mean_initializer": {"class_name": "Zeros", "config": {}}, "beta_constraint": null, "gamma_constraint": null, "moving_variance_initializer": {"class_name": "Ones", "config": {}}, "name": "batch_normalization_36", "beta_initializer": {"class_name": "Zeros", "config": {}}, "momentum": 0.99, "gamma_initializer": {"class_name": "Ones", "config": {}}, "beta_regularizer": null, "trainable": false, "epsilon": 0.001, "center": true}, "inbound_nodes": [[["conv2d_36", 0, 0, {}]]], "class_name": "BatchNormalization"}, {"name": "activation_36", "config": {"activation": "relu", "trainable": false, "name": "activation_36"}, "inbound_nodes": [[["batch_normalization_36", 0, 0, {}]]], "class_name": "Activation"}, {"name": "conv2d_32", "config": {"bias_initializer": {"class_name": "Zeros", "config": {}}, "kernel_size": [1, 1], "bias_regularizer": null, "data_format": "channels_last", "kernel_initializer": {"class_name": "VarianceScaling", "config": {"scale": 1.0, "mode": "fan_avg", "distribution": "uniform", "seed": null}}, "filters": 128, "use_bias": false, "name": "conv2d_32", "activation": "linear", "kernel_constraint": null, "kernel_regularizer": null, "strides": [1, 1], "padding": "same", "dilation_rate": [1, 1], "bias_constraint": null, "trainable": false, "activity_regularizer": null}, "inbound_nodes": [[["mixed3", 0, 0, {}]]], "class_name": "Conv2D"}, {"name": "conv2d_37", "config": {"bias_initializer": {"class_name": "Zeros", "config": {}}, "kernel_size": [1, 7], "bias_regularizer": null, "data_format": "channels_last", "kernel_initializer": {"class_name": "VarianceScaling", "config": {"scale": 1.0, "mode": "fan_avg", "distribution": "uniform", "seed": null}}, "filters": 128, "use_bias": false, "name": "conv2d_37", "activation": "linear", "kernel_constraint": null, "kernel_regularizer": null, "strides": [1, 1], "padding": "same", "dilation_rate": [1, 1], "bias_constraint": null, "trainable": false, "activity_regularizer": null}, "inbound_nodes": [[["activation_36", 0, 0, {}]]], "class_name": "Conv2D"}, {"name": "batch_normalization_32", "config": {"scale": false, "axis": 3, "gamma_regularizer": null, "moving_mean_initializer": {"class_name": "Zeros", "config": {}}, "beta_constraint": null, "gamma_constraint": null, "moving_variance_initializer": {"class_name": "Ones", "config": {}}, "name": "batch_normalization_32", "beta_initializer": {"class_name": "Zeros", "config": {}}, "momentum": 0.99, "gamma_initializer": {"class_name": "Ones", "config": {}}, "beta_regularizer": null, "trainable": false, "epsilon": 0.001, "center": true}, "inbound_nodes": [[["conv2d_32", 0, 0, {}]]], "class_name": "BatchNormalization"}, {"name": "batch_normalization_37", "config": {"scale": false, "axis": 3, "gamma_regularizer": null, "moving_mean_initializer": {"class_name": "Zeros", "config": {}}, "beta_constraint": null, "gamma_constraint": null, "moving_variance_initializer": {"class_name": "Ones", "config": {}}, "name": "batch_normalization_37", "beta_initializer": {"class_name": "Zeros", "config": {}}, "momentum": 0.99, "gamma_initializer": {"class_name": "Ones", "config": {}}, "beta_regularizer": null, "trainable": false, "epsilon": 0.001, "center": true}, "inbound_nodes": [[["conv2d_37", 0, 0, {}]]], "class_name": "BatchNormalization"}, {"name": "activation_32", "config": {"activation": "relu", "trainable": false, "name": "activation_32"}, "inbound_nodes": [[["batch_normalization_32", 0, 0, {}]]], "class_name": "Activation"}, {"name": "activation_37", "config": {"activation": "relu", "trainable": false, "name": "activation_37"}, "inbound_nodes": [[["batch_normalization_37", 0, 0, {}]]], "class_name": "Activation"}, {"name": "conv2d_33", "config": {"bias_initializer": {"class_name": "Zeros", "config": {}}, "kernel_size": [1, 7], "bias_regularizer": null, "data_format": "channels_last", "kernel_initializer": {"class_name": "VarianceScaling", "config": {"scale": 1.0, "mode": "fan_avg", "distribution": "uniform", "seed": null}}, "filters": 128, "use_bias": false, "name": "conv2d_33", "activation": "linear", "kernel_constraint": null, "kernel_regularizer": null, "strides": [1, 1], "padding": "same", "dilation_rate": [1, 1], "bias_constraint": null, "trainable": false, "activity_regularizer": null}, "inbound_nodes": [[["activation_32", 0, 0, {}]]], "class_name": "Conv2D"}, {"name": "conv2d_38", "config": {"bias_initializer": {"class_name": "Zeros", "config": {}}, "kernel_size": [7, 1], "bias_regularizer": null, "data_format": "channels_last", "kernel_initializer": {"class_name": "VarianceScaling", "config": {"scale": 1.0, "mode": "fan_avg", "distribution": "uniform", "seed": null}}, "filters": 128, "use_bias": false, "name": "conv2d_38", "activation": "linear", "kernel_constraint": null, "kernel_regularizer": null, "strides": [1, 1], "padding": "same", "dilation_rate": [1, 1], "bias_constraint": null, "trainable": false, "activity_regularizer": null}, "inbound_nodes": [[["activation_37", 0, 0, {}]]], "class_name": "Conv2D"}, {"name": "batch_normalization_33", "config": {"scale": false, "axis": 3, "gamma_regularizer": null, "moving_mean_initializer": {"class_name": "Zeros", "config": {}}, "beta_constraint": null, "gamma_constraint": null, "moving_variance_initializer": {"class_name": "Ones", "config": {}}, "name": "batch_normalization_33", "beta_initializer": {"class_name": "Zeros", "config": {}}, "momentum": 0.99, "gamma_initializer": {"class_name": "Ones", "config": {}}, "beta_regularizer": null, "trainable": false, "epsilon": 0.001, "center": true}, "inbound_nodes": [[["conv2d_33", 0, 0, {}]]], "class_name": "BatchNormalization"}, {"name": "batch_normalization_38", "config": {"scale": false, "axis": 3, "gamma_regularizer": null, "moving_mean_initializer": {"class_name": "Zeros", "config": {}}, "beta_constraint": null, "gamma_constraint": null, "moving_variance_initializer": {"class_name": "Ones", "config": {}}, "name": "batch_normalization_38", "beta_initializer": {"class_name": "Zeros", "config": {}}, "momentum": 0.99, "gamma_initializer": {"class_name": "Ones", "config": {}}, "beta_regularizer": null, "trainable": false, "epsilon": 0.001, "center": true}, "inbound_nodes": [[["conv2d_38", 0, 0, {}]]], "class_name": "BatchNormalization"}, {"name": "activation_33", "config": {"activation": "relu", "trainable": false, "name": "activation_33"}, "inbound_nodes": [[["batch_normalization_33", 0, 0, {}]]], "class_name": "Activation"}, {"name": "activation_38", "config": {"activation": "relu", "trainable": false, "name": "activation_38"}, "inbound_nodes": [[["batch_normalization_38", 0, 0, {}]]], "class_name": "Activation"}, {"name": "average_pooling2d_4", "config": {"strides": [1, 1], "padding": "same", "data_format": "channels_last", "trainable": false, "pool_size": [3, 3], "name": "average_pooling2d_4"}, "inbound_nodes": [[["mixed3", 0, 0, {}]]], "class_name": "AveragePooling2D"}, {"name": "conv2d_31", "config": {"bias_initializer": {"class_name": "Zeros", "config": {}}, "kernel_size": [1, 1], "bias_regularizer": null, "data_format": "channels_last", "kernel_initializer": {"class_name": "VarianceScaling", "config": {"scale": 1.0, "mode": "fan_avg", "distribution": "uniform", "seed": null}}, "filters": 192, "use_bias": false, "name": "conv2d_31", "activation": "linear", "kernel_constraint": null, "kernel_regularizer": null, "strides": [1, 1], "padding": "same", "dilation_rate": [1, 1], "bias_constraint": null, "trainable": false, "activity_regularizer": null}, "inbound_nodes": [[["mixed3", 0, 0, {}]]], "class_name": "Conv2D"}, {"name": "conv2d_34", "config": {"bias_initializer": {"class_name": "Zeros", "config": {}}, "kernel_size": [7, 1], "bias_regularizer": null, "data_format": "channels_last", "kernel_initializer": {"class_name": "VarianceScaling", "config": {"scale": 1.0, "mode": "fan_avg", "distribution": "uniform", "seed": null}}, "filters": 192, "use_bias": false, "name": "conv2d_34", "activation": "linear", "kernel_constraint": null, "kernel_regularizer": null, "strides": [1, 1], "padding": "same", "dilation_rate": [1, 1], "bias_constraint": null, "trainable": false, "activity_regularizer": null}, "inbound_nodes": [[["activation_33", 0, 0, {}]]], "class_name": "Conv2D"}, {"name": "conv2d_39", "config": {"bias_initializer": {"class_name": "Zeros", "config": {}}, "kernel_size": [1, 7], "bias_regularizer": null, "data_format": "channels_last", "kernel_initializer": {"class_name": "VarianceScaling", "config": {"scale": 1.0, "mode": "fan_avg", "distribution": "uniform", "seed": null}}, "filters": 192, "use_bias": false, "name": "conv2d_39", "activation": "linear", "kernel_constraint": null, "kernel_regularizer": null, "strides": [1, 1], "padding": "same", "dilation_rate": [1, 1], "bias_constraint": null, "trainable": false, "activity_regularizer": null}, "inbound_nodes": [[["activation_38", 0, 0, {}]]], "class_name": "Conv2D"}, {"name": "conv2d_40", "config": {"bias_initializer": {"class_name": "Zeros", "config": {}}, "kernel_size": [1, 1], "bias_regularizer": null, "data_format": "channels_last", "kernel_initializer": {"class_name": "VarianceScaling", "config": {"scale": 1.0, "mode": "fan_avg", "distribution": "uniform", "seed": null}}, "filters": 192, "use_bias": false, "name": "conv2d_40", "activation": "linear", "kernel_constraint": null, "kernel_regularizer": null, "strides": [1, 1], "padding": "same", "dilation_rate": [1, 1], "bias_constraint": null, "trainable": false, "activity_regularizer": null}, "inbound_nodes": [[["average_pooling2d_4", 0, 0, {}]]], "class_name": "Conv2D"}, {"name": "batch_normalization_31", "config": {"scale": false, "axis": 3, "gamma_regularizer": null, "moving_mean_initializer": {"class_name": "Zeros", "config": {}}, "beta_constraint": null, "gamma_constraint": null, "moving_variance_initializer": {"class_name": "Ones", "config": {}}, "name": "batch_normalization_31", "beta_initializer": {"class_name": "Zeros", "config": {}}, "momentum": 0.99, "gamma_initializer": {"class_name": "Ones", "config": {}}, "beta_regularizer": null, "trainable": false, "epsilon": 0.001, "center": true}, "inbound_nodes": [[["conv2d_31", 0, 0, {}]]], "class_name": "BatchNormalization"}, {"name": "batch_normalization_34", "config": {"scale": false, "axis": 3, "gamma_regularizer": null, "moving_mean_initializer": {"class_name": "Zeros", "config": {}}, "beta_constraint": null, "gamma_constraint": null, "moving_variance_initializer": {"class_name": "Ones", "config": {}}, "name": "batch_normalization_34", "beta_initializer": {"class_name": "Zeros", "config": {}}, "momentum": 0.99, "gamma_initializer": {"class_name": "Ones", "config": {}}, "beta_regularizer": null, "trainable": false, "epsilon": 0.001, "center": true}, "inbound_nodes": [[["conv2d_34", 0, 0, {}]]], "class_name": "BatchNormalization"}, {"name": "batch_normalization_39", "config": {"scale": false, "axis": 3, "gamma_regularizer": null, "moving_mean_initializer": {"class_name": "Zeros", "config": {}}, "beta_constraint": null, "gamma_constraint": null, "moving_variance_initializer": {"class_name": "Ones", "config": {}}, "name": "batch_normalization_39", "beta_initializer": {"class_name": "Zeros", "config": {}}, "momentum": 0.99, "gamma_initializer": {"class_name": "Ones", "config": {}}, "beta_regularizer": null, "trainable": false, "epsilon": 0.001, "center": true}, "inbound_nodes": [[["conv2d_39", 0, 0, {}]]], "class_name": "BatchNormalization"}, {"name": "batch_normalization_40", "config": {"scale": false, "axis": 3, "gamma_regularizer": null, "moving_mean_initializer": {"class_name": "Zeros", "config": {}}, "beta_constraint": null, "gamma_constraint": null, "moving_variance_initializer": {"class_name": "Ones", "config": {}}, "name": "batch_normalization_40", "beta_initializer": {"class_name": "Zeros", "config": {}}, "momentum": 0.99, "gamma_initializer": {"class_name": "Ones", "config": {}}, "beta_regularizer": null, "trainable": false, "epsilon": 0.001, "center": true}, "inbound_nodes": [[["conv2d_40", 0, 0, {}]]], "class_name": "BatchNormalization"}, {"name": "activation_31", "config": {"activation": "relu", "trainable": false, "name": "activation_31"}, "inbound_nodes": [[["batch_normalization_31", 0, 0, {}]]], "class_name": "Activation"}, {"name": "activation_34", "config": {"activation": "relu", "trainable": false, "name": "activation_34"}, "inbound_nodes": [[["batch_normalization_34", 0, 0, {}]]], "class_name": "Activation"}, {"name": "activation_39", "config": {"activation": "relu", "trainable": false, "name": "activation_39"}, "inbound_nodes": [[["batch_normalization_39", 0, 0, {}]]], "class_name": "Activation"}, {"name": "activation_40", "config": {"activation": "relu", "trainable": false, "name": "activation_40"}, "inbound_nodes": [[["batch_normalization_40", 0, 0, {}]]], "class_name": "Activation"}, {"name": "mixed4", "config": {"axis": 3, "trainable": false, "name": "mixed4"}, "inbound_nodes": [[["activation_31", 0, 0, {}], ["activation_34", 0, 0, {}], ["activation_39", 0, 0, {}], ["activation_40", 0, 0, {}]]], "class_name": "Concatenate"}, {"name": "conv2d_45", "config": {"bias_initializer": {"class_name": "Zeros", "config": {}}, "kernel_size": [1, 1], "bias_regularizer": null, "data_format": "channels_last", "kernel_initializer": {"class_name": "VarianceScaling", "config": {"scale": 1.0, "mode": "fan_avg", "distribution": "uniform", "seed": null}}, "filters": 160, "use_bias": false, "name": "conv2d_45", "activation": "linear", "kernel_constraint": null, "kernel_regularizer": null, "strides": [1, 1], "padding": "same", "dilation_rate": [1, 1], "bias_constraint": null, "trainable": false, "activity_regularizer": null}, "inbound_nodes": [[["mixed4", 0, 0, {}]]], "class_name": "Conv2D"}, {"name": "batch_normalization_45", "config": {"scale": false, "axis": 3, "gamma_regularizer": null, "moving_mean_initializer": {"class_name": "Zeros", "config": {}}, "beta_constraint": null, "gamma_constraint": null, "moving_variance_initializer": {"class_name": "Ones", "config": {}}, "name": "batch_normalization_45", "beta_initializer": {"class_name": "Zeros", "config": {}}, "momentum": 0.99, "gamma_initializer": {"class_name": "Ones", "config": {}}, "beta_regularizer": null, "trainable": false, "epsilon": 0.001, "center": true}, "inbound_nodes": [[["conv2d_45", 0, 0, {}]]], "class_name": "BatchNormalization"}, {"name": "activation_45", "config": {"activation": "relu", "trainable": false, "name": "activation_45"}, "inbound_nodes": [[["batch_normalization_45", 0, 0, {}]]], "class_name": "Activation"}, {"name": "conv2d_46", "config": {"bias_initializer": {"class_name": "Zeros", "config": {}}, "kernel_size": [7, 1], "bias_regularizer": null, "data_format": "channels_last", "kernel_initializer": {"class_name": "VarianceScaling", "config": {"scale": 1.0, "mode": "fan_avg", "distribution": "uniform", "seed": null}}, "filters": 160, "use_bias": false, "name": "conv2d_46", "activation": "linear", "kernel_constraint": null, "kernel_regularizer": null, "strides": [1, 1], "padding": "same", "dilation_rate": [1, 1], "bias_constraint": null, "trainable": false, "activity_regularizer": null}, "inbound_nodes": [[["activation_45", 0, 0, {}]]], "class_name": "Conv2D"}, {"name": "batch_normalization_46", "config": {"scale": false, "axis": 3, "gamma_regularizer": null, "moving_mean_initializer": {"class_name": "Zeros", "config": {}}, "beta_constraint": null, "gamma_constraint": null, "moving_variance_initializer": {"class_name": "Ones", "config": {}}, "name": "batch_normalization_46", "beta_initializer": {"class_name": "Zeros", "config": {}}, "momentum": 0.99, "gamma_initializer": {"class_name": "Ones", "config": {}}, "beta_regularizer": null, "trainable": false, "epsilon": 0.001, "center": true}, "inbound_nodes": [[["conv2d_46", 0, 0, {}]]], "class_name": "BatchNormalization"}, {"name": "activation_46", "config": {"activation": "relu", "trainable": false, "name": "activation_46"}, "inbound_nodes": [[["batch_normalization_46", 0, 0, {}]]], "class_name": "Activation"}, {"name": "conv2d_42", "config": {"bias_initializer": {"class_name": "Zeros", "config": {}}, "kernel_size": [1, 1], "bias_regularizer": null, "data_format": "channels_last", "kernel_initializer": {"class_name": "VarianceScaling", "config": {"scale": 1.0, "mode": "fan_avg", "distribution": "uniform", "seed": null}}, "filters": 160, "use_bias": false, "name": "conv2d_42", "activation": "linear", "kernel_constraint": null, "kernel_regularizer": null, "strides": [1, 1], "padding": "same", "dilation_rate": [1, 1], "bias_constraint": null, "trainable": false, "activity_regularizer": null}, "inbound_nodes": [[["mixed4", 0, 0, {}]]], "class_name": "Conv2D"}, {"name": "conv2d_47", "config": {"bias_initializer": {"class_name": "Zeros", "config": {}}, "kernel_size": [1, 7], "bias_regularizer": null, "data_format": "channels_last", "kernel_initializer": {"class_name": "VarianceScaling", "config": {"scale": 1.0, "mode": "fan_avg", "distribution": "uniform", "seed": null}}, "filters": 160, "use_bias": false, "name": "conv2d_47", "activation": "linear", "kernel_constraint": null, "kernel_regularizer": null, "strides": [1, 1], "padding": "same", "dilation_rate": [1, 1], "bias_constraint": null, "trainable": false, "activity_regularizer": null}, "inbound_nodes": [[["activation_46", 0, 0, {}]]], "class_name": "Conv2D"}, {"name": "batch_normalization_42", "config": {"scale": false, "axis": 3, "gamma_regularizer": null, "moving_mean_initializer": {"class_name": "Zeros", "config": {}}, "beta_constraint": null, "gamma_constraint": null, "moving_variance_initializer": {"class_name": "Ones", "config": {}}, "name": "batch_normalization_42", "beta_initializer": {"class_name": "Zeros", "config": {}}, "momentum": 0.99, "gamma_initializer": {"class_name": "Ones", "config": {}}, "beta_regularizer": null, "trainable": false, "epsilon": 0.001, "center": true}, "inbound_nodes": [[["conv2d_42", 0, 0, {}]]], "class_name": "BatchNormalization"}, {"name": "batch_normalization_47", "config": {"scale": false, "axis": 3, "gamma_regularizer": null, "moving_mean_initializer": {"class_name": "Zeros", "config": {}}, "beta_constraint": null, "gamma_constraint": null, "moving_variance_initializer": {"class_name": "Ones", "config": {}}, "name": "batch_normalization_47", "beta_initializer": {"class_name": "Zeros", "config": {}}, "momentum": 0.99, "gamma_initializer": {"class_name": "Ones", "config": {}}, "beta_regularizer": null, "trainable": false, "epsilon": 0.001, "center": true}, "inbound_nodes": [[["conv2d_47", 0, 0, {}]]], "class_name": "BatchNormalization"}, {"name": "activation_42", "config": {"activation": "relu", "trainable": false, "name": "activation_42"}, "inbound_nodes": [[["batch_normalization_42", 0, 0, {}]]], "class_name": "Activation"}, {"name": "activation_47", "config": {"activation": "relu", "trainable": false, "name": "activation_47"}, "inbound_nodes": [[["batch_normalization_47", 0, 0, {}]]], "class_name": "Activation"}, {"name": "conv2d_43", "config": {"bias_initializer": {"class_name": "Zeros", "config": {}}, "kernel_size": [1, 7], "bias_regularizer": null, "data_format": "channels_last", "kernel_initializer": {"class_name": "VarianceScaling", "config": {"scale": 1.0, "mode": "fan_avg", "distribution": "uniform", "seed": null}}, "filters": 160, "use_bias": false, "name": "conv2d_43", "activation": "linear", "kernel_constraint": null, "kernel_regularizer": null, "strides": [1, 1], "padding": "same", "dilation_rate": [1, 1], "bias_constraint": null, "trainable": false, "activity_regularizer": null}, "inbound_nodes": [[["activation_42", 0, 0, {}]]], "class_name": "Conv2D"}, {"name": "conv2d_48", "config": {"bias_initializer": {"class_name": "Zeros", "config": {}}, "kernel_size": [7, 1], "bias_regularizer": null, "data_format": "channels_last", "kernel_initializer": {"class_name": "VarianceScaling", "config": {"scale": 1.0, "mode": "fan_avg", "distribution": "uniform", "seed": null}}, "filters": 160, "use_bias": false, "name": "conv2d_48", "activation": "linear", "kernel_constraint": null, "kernel_regularizer": null, "strides": [1, 1], "padding": "same", "dilation_rate": [1, 1], "bias_constraint": null, "trainable": false, "activity_regularizer": null}, "inbound_nodes": [[["activation_47", 0, 0, {}]]], "class_name": "Conv2D"}, {"name": "batch_normalization_43", "config": {"scale": false, "axis": 3, "gamma_regularizer": null, "moving_mean_initializer": {"class_name": "Zeros", "config": {}}, "beta_constraint": null, "gamma_constraint": null, "moving_variance_initializer": {"class_name": "Ones", "config": {}}, "name": "batch_normalization_43", "beta_initializer": {"class_name": "Zeros", "config": {}}, "momentum": 0.99, "gamma_initializer": {"class_name": "Ones", "config": {}}, "beta_regularizer": null, "trainable": false, "epsilon": 0.001, "center": true}, "inbound_nodes": [[["conv2d_43", 0, 0, {}]]], "class_name": "BatchNormalization"}, {"name": "batch_normalization_48", "config": {"scale": false, "axis": 3, "gamma_regularizer": null, "moving_mean_initializer": {"class_name": "Zeros", "config": {}}, "beta_constraint": null, "gamma_constraint": null, "moving_variance_initializer": {"class_name": "Ones", "config": {}}, "name": "batch_normalization_48", "beta_initializer": {"class_name": "Zeros", "config": {}}, "momentum": 0.99, "gamma_initializer": {"class_name": "Ones", "config": {}}, "beta_regularizer": null, "trainable": false, "epsilon": 0.001, "center": true}, "inbound_nodes": [[["conv2d_48", 0, 0, {}]]], "class_name": "BatchNormalization"}, {"name": "activation_43", "config": {"activation": "relu", "trainable": false, "name": "activation_43"}, "inbound_nodes": [[["batch_normalization_43", 0, 0, {}]]], "class_name": "Activation"}, {"name": "activation_48", "config": {"activation": "relu", "trainable": false, "name": "activation_48"}, "inbound_nodes": [[["batch_normalization_48", 0, 0, {}]]], "class_name": "Activation"}, {"name": "average_pooling2d_5", "config": {"strides": [1, 1], "padding": "same", "data_format": "channels_last", "trainable": false, "pool_size": [3, 3], "name": "average_pooling2d_5"}, "inbound_nodes": [[["mixed4", 0, 0, {}]]], "class_name": "AveragePooling2D"}, {"name": "conv2d_41", "config": {"bias_initializer": {"class_name": "Zeros", "config": {}}, "kernel_size": [1, 1], "bias_regularizer": null, "data_format": "channels_last", "kernel_initializer": {"class_name": "VarianceScaling", "config": {"scale": 1.0, "mode": "fan_avg", "distribution": "uniform", "seed": null}}, "filters": 192, "use_bias": false, "name": "conv2d_41", "activation": "linear", "kernel_constraint": null, "kernel_regularizer": null, "strides": [1, 1], "padding": "same", "dilation_rate": [1, 1], "bias_constraint": null, "trainable": false, "activity_regularizer": null}, "inbound_nodes": [[["mixed4", 0, 0, {}]]], "class_name": "Conv2D"}, {"name": "conv2d_44", "config": {"bias_initializer": {"class_name": "Zeros", "config": {}}, "kernel_size": [7, 1], "bias_regularizer": null, "data_format": "channels_last", "kernel_initializer": {"class_name": "VarianceScaling", "config": {"scale": 1.0, "mode": "fan_avg", "distribution": "uniform", "seed": null}}, "filters": 192, "use_bias": false, "name": "conv2d_44", "activation": "linear", "kernel_constraint": null, "kernel_regularizer": null, "strides": [1, 1], "padding": "same", "dilation_rate": [1, 1], "bias_constraint": null, "trainable": false, "activity_regularizer": null}, "inbound_nodes": [[["activation_43", 0, 0, {}]]], "class_name": "Conv2D"}, {"name": "conv2d_49", "config": {"bias_initializer": {"class_name": "Zeros", "config": {}}, "kernel_size": [1, 7], "bias_regularizer": null, "data_format": "channels_last", "kernel_initializer": {"class_name": "VarianceScaling", "config": {"scale": 1.0, "mode": "fan_avg", "distribution": "uniform", "seed": null}}, "filters": 192, "use_bias": false, "name": "conv2d_49", "activation": "linear", "kernel_constraint": null, "kernel_regularizer": null, "strides": [1, 1], "padding": "same", "dilation_rate": [1, 1], "bias_constraint": null, "trainable": false, "activity_regularizer": null}, "inbound_nodes": [[["activation_48", 0, 0, {}]]], "class_name": "Conv2D"}, {"name": "conv2d_50", "config": {"bias_initializer": {"class_name": "Zeros", "config": {}}, "kernel_size": [1, 1], "bias_regularizer": null, "data_format": "channels_last", "kernel_initializer": {"class_name": "VarianceScaling", "config": {"scale": 1.0, "mode": "fan_avg", "distribution": "uniform", "seed": null}}, "filters": 192, "use_bias": false, "name": "conv2d_50", "activation": "linear", "kernel_constraint": null, "kernel_regularizer": null, "strides": [1, 1], "padding": "same", "dilation_rate": [1, 1], "bias_constraint": null, "trainable": false, "activity_regularizer": null}, "inbound_nodes": [[["average_pooling2d_5", 0, 0, {}]]], "class_name": "Conv2D"}, {"name": "batch_normalization_41", "config": {"scale": false, "axis": 3, "gamma_regularizer": null, "moving_mean_initializer": {"class_name": "Zeros", "config": {}}, "beta_constraint": null, "gamma_constraint": null, "moving_variance_initializer": {"class_name": "Ones", "config": {}}, "name": "batch_normalization_41", "beta_initializer": {"class_name": "Zeros", "config": {}}, "momentum": 0.99, "gamma_initializer": {"class_name": "Ones", "config": {}}, "beta_regularizer": null, "trainable": false, "epsilon": 0.001, "center": true}, "inbound_nodes": [[["conv2d_41", 0, 0, {}]]], "class_name": "BatchNormalization"}, {"name": "batch_normalization_44", "config": {"scale": false, "axis": 3, "gamma_regularizer": null, "moving_mean_initializer": {"class_name": "Zeros", "config": {}}, "beta_constraint": null, "gamma_constraint": null, "moving_variance_initializer": {"class_name": "Ones", "config": {}}, "name": "batch_normalization_44", "beta_initializer": {"class_name": "Zeros", "config": {}}, "momentum": 0.99, "gamma_initializer": {"class_name": "Ones", "config": {}}, "beta_regularizer": null, "trainable": false, "epsilon": 0.001, "center": true}, "inbound_nodes": [[["conv2d_44", 0, 0, {}]]], "class_name": "BatchNormalization"}, {"name": "batch_normalization_49", "config": {"scale": false, "axis": 3, "gamma_regularizer": null, "moving_mean_initializer": {"class_name": "Zeros", "config": {}}, "beta_constraint": null, "gamma_constraint": null, "moving_variance_initializer": {"class_name": "Ones", "config": {}}, "name": "batch_normalization_49", "beta_initializer": {"class_name": "Zeros", "config": {}}, "momentum": 0.99, "gamma_initializer": {"class_name": "Ones", "config": {}}, "beta_regularizer": null, "trainable": false, "epsilon": 0.001, "center": true}, "inbound_nodes": [[["conv2d_49", 0, 0, {}]]], "class_name": "BatchNormalization"}, {"name": "batch_normalization_50", "config": {"scale": false, "axis": 3, "gamma_regularizer": null, "moving_mean_initializer": {"class_name": "Zeros", "config": {}}, "beta_constraint": null, "gamma_constraint": null, "moving_variance_initializer": {"class_name": "Ones", "config": {}}, "name": "batch_normalization_50", "beta_initializer": {"class_name": "Zeros", "config": {}}, "momentum": 0.99, "gamma_initializer": {"class_name": "Ones", "config": {}}, "beta_regularizer": null, "trainable": false, "epsilon": 0.001, "center": true}, "inbound_nodes": [[["conv2d_50", 0, 0, {}]]], "class_name": "BatchNormalization"}, {"name": "activation_41", "config": {"activation": "relu", "trainable": false, "name": "activation_41"}, "inbound_nodes": [[["batch_normalization_41", 0, 0, {}]]], "class_name": "Activation"}, {"name": "activation_44", "config": {"activation": "relu", "trainable": false, "name": "activation_44"}, "inbound_nodes": [[["batch_normalization_44", 0, 0, {}]]], "class_name": "Activation"}, {"name": "activation_49", "config": {"activation": "relu", "trainable": false, "name": "activation_49"}, "inbound_nodes": [[["batch_normalization_49", 0, 0, {}]]], "class_name": "Activation"}, {"name": "activation_50", "config": {"activation": "relu", "trainable": false, "name": "activation_50"}, "inbound_nodes": [[["batch_normalization_50", 0, 0, {}]]], "class_name": "Activation"}, {"name": "mixed5", "config": {"axis": 3, "trainable": false, "name": "mixed5"}, "inbound_nodes": [[["activation_41", 0, 0, {}], ["activation_44", 0, 0, {}], ["activation_49", 0, 0, {}], ["activation_50", 0, 0, {}]]], "class_name": "Concatenate"}, {"name": "conv2d_55", "config": {"bias_initializer": {"class_name": "Zeros", "config": {}}, "kernel_size": [1, 1], "bias_regularizer": null, "data_format": "channels_last", "kernel_initializer": {"class_name": "VarianceScaling", "config": {"scale": 1.0, "mode": "fan_avg", "distribution": "uniform", "seed": null}}, "filters": 160, "use_bias": false, "name": "conv2d_55", "activation": "linear", "kernel_constraint": null, "kernel_regularizer": null, "strides": [1, 1], "padding": "same", "dilation_rate": [1, 1], "bias_constraint": null, "trainable": false, "activity_regularizer": null}, "inbound_nodes": [[["mixed5", 0, 0, {}]]], "class_name": "Conv2D"}, {"name": "batch_normalization_55", "config": {"scale": false, "axis": 3, "gamma_regularizer": null, "moving_mean_initializer": {"class_name": "Zeros", "config": {}}, "beta_constraint": null, "gamma_constraint": null, "moving_variance_initializer": {"class_name": "Ones", "config": {}}, "name": "batch_normalization_55", "beta_initializer": {"class_name": "Zeros", "config": {}}, "momentum": 0.99, "gamma_initializer": {"class_name": "Ones", "config": {}}, "beta_regularizer": null, "trainable": false, "epsilon": 0.001, "center": true}, "inbound_nodes": [[["conv2d_55", 0, 0, {}]]], "class_name": "BatchNormalization"}, {"name": "activation_55", "config": {"activation": "relu", "trainable": false, "name": "activation_55"}, "inbound_nodes": [[["batch_normalization_55", 0, 0, {}]]], "class_name": "Activation"}, {"name": "conv2d_56", "config": {"bias_initializer": {"class_name": "Zeros", "config": {}}, "kernel_size": [7, 1], "bias_regularizer": null, "data_format": "channels_last", "kernel_initializer": {"class_name": "VarianceScaling", "config": {"scale": 1.0, "mode": "fan_avg", "distribution": "uniform", "seed": null}}, "filters": 160, "use_bias": false, "name": "conv2d_56", "activation": "linear", "kernel_constraint": null, "kernel_regularizer": null, "strides": [1, 1], "padding": "same", "dilation_rate": [1, 1], "bias_constraint": null, "trainable": false, "activity_regularizer": null}, "inbound_nodes": [[["activation_55", 0, 0, {}]]], "class_name": "Conv2D"}, {"name": "batch_normalization_56", "config": {"scale": false, "axis": 3, "gamma_regularizer": null, "moving_mean_initializer": {"class_name": "Zeros", "config": {}}, "beta_constraint": null, "gamma_constraint": null, "moving_variance_initializer": {"class_name": "Ones", "config": {}}, "name": "batch_normalization_56", "beta_initializer": {"class_name": "Zeros", "config": {}}, "momentum": 0.99, "gamma_initializer": {"class_name": "Ones", "config": {}}, "beta_regularizer": null, "trainable": false, "epsilon": 0.001, "center": true}, "inbound_nodes": [[["conv2d_56", 0, 0, {}]]], "class_name": "BatchNormalization"}, {"name": "activation_56", "config": {"activation": "relu", "trainable": false, "name": "activation_56"}, "inbound_nodes": [[["batch_normalization_56", 0, 0, {}]]], "class_name": "Activation"}, {"name": "conv2d_52", "config": {"bias_initializer": {"class_name": "Zeros", "config": {}}, "kernel_size": [1, 1], "bias_regularizer": null, "data_format": "channels_last", "kernel_initializer": {"class_name": "VarianceScaling", "config": {"scale": 1.0, "mode": "fan_avg", "distribution": "uniform", "seed": null}}, "filters": 160, "use_bias": false, "name": "conv2d_52", "activation": "linear", "kernel_constraint": null, "kernel_regularizer": null, "strides": [1, 1], "padding": "same", "dilation_rate": [1, 1], "bias_constraint": null, "trainable": false, "activity_regularizer": null}, "inbound_nodes": [[["mixed5", 0, 0, {}]]], "class_name": "Conv2D"}, {"name": "conv2d_57", "config": {"bias_initializer": {"class_name": "Zeros", "config": {}}, "kernel_size": [1, 7], "bias_regularizer": null, "data_format": "channels_last", "kernel_initializer": {"class_name": "VarianceScaling", "config": {"scale": 1.0, "mode": "fan_avg", "distribution": "uniform", "seed": null}}, "filters": 160, "use_bias": false, "name": "conv2d_57", "activation": "linear", "kernel_constraint": null, "kernel_regularizer": null, "strides": [1, 1], "padding": "same", "dilation_rate": [1, 1], "bias_constraint": null, "trainable": false, "activity_regularizer": null}, "inbound_nodes": [[["activation_56", 0, 0, {}]]], "class_name": "Conv2D"}, {"name": "batch_normalization_52", "config": {"scale": false, "axis": 3, "gamma_regularizer": null, "moving_mean_initializer": {"class_name": "Zeros", "config": {}}, "beta_constraint": null, "gamma_constraint": null, "moving_variance_initializer": {"class_name": "Ones", "config": {}}, "name": "batch_normalization_52", "beta_initializer": {"class_name": "Zeros", "config": {}}, "momentum": 0.99, "gamma_initializer": {"class_name": "Ones", "config": {}}, "beta_regularizer": null, "trainable": false, "epsilon": 0.001, "center": true}, "inbound_nodes": [[["conv2d_52", 0, 0, {}]]], "class_name": "BatchNormalization"}, {"name": "batch_normalization_57", "config": {"scale": false, "axis": 3, "gamma_regularizer": null, "moving_mean_initializer": {"class_name": "Zeros", "config": {}}, "beta_constraint": null, "gamma_constraint": null, "moving_variance_initializer": {"class_name": "Ones", "config": {}}, "name": "batch_normalization_57", "beta_initializer": {"class_name": "Zeros", "config": {}}, "momentum": 0.99, "gamma_initializer": {"class_name": "Ones", "config": {}}, "beta_regularizer": null, "trainable": false, "epsilon": 0.001, "center": true}, "inbound_nodes": [[["conv2d_57", 0, 0, {}]]], "class_name": "BatchNormalization"}, {"name": "activation_52", "config": {"activation": "relu", "trainable": false, "name": "activation_52"}, "inbound_nodes": [[["batch_normalization_52", 0, 0, {}]]], "class_name": "Activation"}, {"name": "activation_57", "config": {"activation": "relu", "trainable": false, "name": "activation_57"}, "inbound_nodes": [[["batch_normalization_57", 0, 0, {}]]], "class_name": "Activation"}, {"name": "conv2d_53", "config": {"bias_initializer": {"class_name": "Zeros", "config": {}}, "kernel_size": [1, 7], "bias_regularizer": null, "data_format": "channels_last", "kernel_initializer": {"class_name": "VarianceScaling", "config": {"scale": 1.0, "mode": "fan_avg", "distribution": "uniform", "seed": null}}, "filters": 160, "use_bias": false, "name": "conv2d_53", "activation": "linear", "kernel_constraint": null, "kernel_regularizer": null, "strides": [1, 1], "padding": "same", "dilation_rate": [1, 1], "bias_constraint": null, "trainable": false, "activity_regularizer": null}, "inbound_nodes": [[["activation_52", 0, 0, {}]]], "class_name": "Conv2D"}, {"name": "conv2d_58", "config": {"bias_initializer": {"class_name": "Zeros", "config": {}}, "kernel_size": [7, 1], "bias_regularizer": null, "data_format": "channels_last", "kernel_initializer": {"class_name": "VarianceScaling", "config": {"scale": 1.0, "mode": "fan_avg", "distribution": "uniform", "seed": null}}, "filters": 160, "use_bias": false, "name": "conv2d_58", "activation": "linear", "kernel_constraint": null, "kernel_regularizer": null, "strides": [1, 1], "padding": "same", "dilation_rate": [1, 1], "bias_constraint": null, "trainable": false, "activity_regularizer": null}, "inbound_nodes": [[["activation_57", 0, 0, {}]]], "class_name": "Conv2D"}, {"name": "batch_normalization_53", "config": {"scale": false, "axis": 3, "gamma_regularizer": null, "moving_mean_initializer": {"class_name": "Zeros", "config": {}}, "beta_constraint": null, "gamma_constraint": null, "moving_variance_initializer": {"class_name": "Ones", "config": {}}, "name": "batch_normalization_53", "beta_initializer": {"class_name": "Zeros", "config": {}}, "momentum": 0.99, "gamma_initializer": {"class_name": "Ones", "config": {}}, "beta_regularizer": null, "trainable": false, "epsilon": 0.001, "center": true}, "inbound_nodes": [[["conv2d_53", 0, 0, {}]]], "class_name": "BatchNormalization"}, {"name": "batch_normalization_58", "config": {"scale": false, "axis": 3, "gamma_regularizer": null, "moving_mean_initializer": {"class_name": "Zeros", "config": {}}, "beta_constraint": null, "gamma_constraint": null, "moving_variance_initializer": {"class_name": "Ones", "config": {}}, "name": "batch_normalization_58", "beta_initializer": {"class_name": "Zeros", "config": {}}, "momentum": 0.99, "gamma_initializer": {"class_name": "Ones", "config": {}}, "beta_regularizer": null, "trainable": false, "epsilon": 0.001, "center": true}, "inbound_nodes": [[["conv2d_58", 0, 0, {}]]], "class_name": "BatchNormalization"}, {"name": "activation_53", "config": {"activation": "relu", "trainable": false, "name": "activation_53"}, "inbound_nodes": [[["batch_normalization_53", 0, 0, {}]]], "class_name": "Activation"}, {"name": "activation_58", "config": {"activation": "relu", "trainable": false, "name": "activation_58"}, "inbound_nodes": [[["batch_normalization_58", 0, 0, {}]]], "class_name": "Activation"}, {"name": "average_pooling2d_6", "config": {"strides": [1, 1], "padding": "same", "data_format": "channels_last", "trainable": false, "pool_size": [3, 3], "name": "average_pooling2d_6"}, "inbound_nodes": [[["mixed5", 0, 0, {}]]], "class_name": "AveragePooling2D"}, {"name": "conv2d_51", "config": {"bias_initializer": {"class_name": "Zeros", "config": {}}, "kernel_size": [1, 1], "bias_regularizer": null, "data_format": "channels_last", "kernel_initializer": {"class_name": "VarianceScaling", "config": {"scale": 1.0, "mode": "fan_avg", "distribution": "uniform", "seed": null}}, "filters": 192, "use_bias": false, "name": "conv2d_51", "activation": "linear", "kernel_constraint": null, "kernel_regularizer": null, "strides": [1, 1], "padding": "same", "dilation_rate": [1, 1], "bias_constraint": null, "trainable": false, "activity_regularizer": null}, "inbound_nodes": [[["mixed5", 0, 0, {}]]], "class_name": "Conv2D"}, {"name": "conv2d_54", "config": {"bias_initializer": {"class_name": "Zeros", "config": {}}, "kernel_size": [7, 1], "bias_regularizer": null, "data_format": "channels_last", "kernel_initializer": {"class_name": "VarianceScaling", "config": {"scale": 1.0, "mode": "fan_avg", "distribution": "uniform", "seed": null}}, "filters": 192, "use_bias": false, "name": "conv2d_54", "activation": "linear", "kernel_constraint": null, "kernel_regularizer": null, "strides": [1, 1], "padding": "same", "dilation_rate": [1, 1], "bias_constraint": null, "trainable": false, "activity_regularizer": null}, "inbound_nodes": [[["activation_53", 0, 0, {}]]], "class_name": "Conv2D"}, {"name": "conv2d_59", "config": {"bias_initializer": {"class_name": "Zeros", "config": {}}, "kernel_size": [1, 7], "bias_regularizer": null, "data_format": "channels_last", "kernel_initializer": {"class_name": "VarianceScaling", "config": {"scale": 1.0, "mode": "fan_avg", "distribution": "uniform", "seed": null}}, "filters": 192, "use_bias": false, "name": "conv2d_59", "activation": "linear", "kernel_constraint": null, "kernel_regularizer": null, "strides": [1, 1], "padding": "same", "dilation_rate": [1, 1], "bias_constraint": null, "trainable": false, "activity_regularizer": null}, "inbound_nodes": [[["activation_58", 0, 0, {}]]], "class_name": "Conv2D"}, {"name": "conv2d_60", "config": {"bias_initializer": {"class_name": "Zeros", "config": {}}, "kernel_size": [1, 1], "bias_regularizer": null, "data_format": "channels_last", "kernel_initializer": {"class_name": "VarianceScaling", "config": {"scale": 1.0, "mode": "fan_avg", "distribution": "uniform", "seed": null}}, "filters": 192, "use_bias": false, "name": "conv2d_60", "activation": "linear", "kernel_constraint": null, "kernel_regularizer": null, "strides": [1, 1], "padding": "same", "dilation_rate": [1, 1], "bias_constraint": null, "trainable": false, "activity_regularizer": null}, "inbound_nodes": [[["average_pooling2d_6", 0, 0, {}]]], "class_name": "Conv2D"}, {"name": "batch_normalization_51", "config": {"scale": false, "axis": 3, "gamma_regularizer": null, "moving_mean_initializer": {"class_name": "Zeros", "config": {}}, "beta_constraint": null, "gamma_constraint": null, "moving_variance_initializer": {"class_name": "Ones", "config": {}}, "name": "batch_normalization_51", "beta_initializer": {"class_name": "Zeros", "config": {}}, "momentum": 0.99, "gamma_initializer": {"class_name": "Ones", "config": {}}, "beta_regularizer": null, "trainable": false, "epsilon": 0.001, "center": true}, "inbound_nodes": [[["conv2d_51", 0, 0, {}]]], "class_name": "BatchNormalization"}, {"name": "batch_normalization_54", "config": {"scale": false, "axis": 3, "gamma_regularizer": null, "moving_mean_initializer": {"class_name": "Zeros", "config": {}}, "beta_constraint": null, "gamma_constraint": null, "moving_variance_initializer": {"class_name": "Ones", "config": {}}, "name": "batch_normalization_54", "beta_initializer": {"class_name": "Zeros", "config": {}}, "momentum": 0.99, "gamma_initializer": {"class_name": "Ones", "config": {}}, "beta_regularizer": null, "trainable": false, "epsilon": 0.001, "center": true}, "inbound_nodes": [[["conv2d_54", 0, 0, {}]]], "class_name": "BatchNormalization"}, {"name": "batch_normalization_59", "config": {"scale": false, "axis": 3, "gamma_regularizer": null, "moving_mean_initializer": {"class_name": "Zeros", "config": {}}, "beta_constraint": null, "gamma_constraint": null, "moving_variance_initializer": {"class_name": "Ones", "config": {}}, "name": "batch_normalization_59", "beta_initializer": {"class_name": "Zeros", "config": {}}, "momentum": 0.99, "gamma_initializer": {"class_name": "Ones", "config": {}}, "beta_regularizer": null, "trainable": false, "epsilon": 0.001, "center": true}, "inbound_nodes": [[["conv2d_59", 0, 0, {}]]], "class_name": "BatchNormalization"}, {"name": "batch_normalization_60", "config": {"scale": false, "axis": 3, "gamma_regularizer": null, "moving_mean_initializer": {"class_name": "Zeros", "config": {}}, "beta_constraint": null, "gamma_constraint": null, "moving_variance_initializer": {"class_name": "Ones", "config": {}}, "name": "batch_normalization_60", "beta_initializer": {"class_name": "Zeros", "config": {}}, "momentum": 0.99, "gamma_initializer": {"class_name": "Ones", "config": {}}, "beta_regularizer": null, "trainable": false, "epsilon": 0.001, "center": true}, "inbound_nodes": [[["conv2d_60", 0, 0, {}]]], "class_name": "BatchNormalization"}, {"name": "activation_51", "config": {"activation": "relu", "trainable": false, "name": "activation_51"}, "inbound_nodes": [[["batch_normalization_51", 0, 0, {}]]], "class_name": "Activation"}, {"name": "activation_54", "config": {"activation": "relu", "trainable": false, "name": "activation_54"}, "inbound_nodes": [[["batch_normalization_54", 0, 0, {}]]], "class_name": "Activation"}, {"name": "activation_59", "config": {"activation": "relu", "trainable": false, "name": "activation_59"}, "inbound_nodes": [[["batch_normalization_59", 0, 0, {}]]], "class_name": "Activation"}, {"name": "activation_60", "config": {"activation": "relu", "trainable": false, "name": "activation_60"}, "inbound_nodes": [[["batch_normalization_60", 0, 0, {}]]], "class_name": "Activation"}, {"name": "mixed6", "config": {"axis": 3, "trainable": false, "name": "mixed6"}, "inbound_nodes": [[["activation_51", 0, 0, {}], ["activation_54", 0, 0, {}], ["activation_59", 0, 0, {}], ["activation_60", 0, 0, {}]]], "class_name": "Concatenate"}, {"name": "conv2d_65", "config": {"bias_initializer": {"class_name": "Zeros", "config": {}}, "kernel_size": [1, 1], "bias_regularizer": null, "data_format": "channels_last", "kernel_initializer": {"class_name": "VarianceScaling", "config": {"scale": 1.0, "mode": "fan_avg", "distribution": "uniform", "seed": null}}, "filters": 192, "use_bias": false, "name": "conv2d_65", "activation": "linear", "kernel_constraint": null, "kernel_regularizer": null, "strides": [1, 1], "padding": "same", "dilation_rate": [1, 1], "bias_constraint": null, "trainable": false, "activity_regularizer": null}, "inbound_nodes": [[["mixed6", 0, 0, {}]]], "class_name": "Conv2D"}, {"name": "batch_normalization_65", "config": {"scale": false, "axis": 3, "gamma_regularizer": null, "moving_mean_initializer": {"class_name": "Zeros", "config": {}}, "beta_constraint": null, "gamma_constraint": null, "moving_variance_initializer": {"class_name": "Ones", "config": {}}, "name": "batch_normalization_65", "beta_initializer": {"class_name": "Zeros", "config": {}}, "momentum": 0.99, "gamma_initializer": {"class_name": "Ones", "config": {}}, "beta_regularizer": null, "trainable": false, "epsilon": 0.001, "center": true}, "inbound_nodes": [[["conv2d_65", 0, 0, {}]]], "class_name": "BatchNormalization"}, {"name": "activation_65", "config": {"activation": "relu", "trainable": false, "name": "activation_65"}, "inbound_nodes": [[["batch_normalization_65", 0, 0, {}]]], "class_name": "Activation"}, {"name": "conv2d_66", "config": {"bias_initializer": {"class_name": "Zeros", "config": {}}, "kernel_size": [7, 1], "bias_regularizer": null, "data_format": "channels_last", "kernel_initializer": {"class_name": "VarianceScaling", "config": {"scale": 1.0, "mode": "fan_avg", "distribution": "uniform", "seed": null}}, "filters": 192, "use_bias": false, "name": "conv2d_66", "activation": "linear", "kernel_constraint": null, "kernel_regularizer": null, "strides": [1, 1], "padding": "same", "dilation_rate": [1, 1], "bias_constraint": null, "trainable": false, "activity_regularizer": null}, "inbound_nodes": [[["activation_65", 0, 0, {}]]], "class_name": "Conv2D"}, {"name": "batch_normalization_66", "config": {"scale": false, "axis": 3, "gamma_regularizer": null, "moving_mean_initializer": {"class_name": "Zeros", "config": {}}, "beta_constraint": null, "gamma_constraint": null, "moving_variance_initializer": {"class_name": "Ones", "config": {}}, "name": "batch_normalization_66", "beta_initializer": {"class_name": "Zeros", "config": {}}, "momentum": 0.99, "gamma_initializer": {"class_name": "Ones", "config": {}}, "beta_regularizer": null, "trainable": false, "epsilon": 0.001, "center": true}, "inbound_nodes": [[["conv2d_66", 0, 0, {}]]], "class_name": "BatchNormalization"}, {"name": "activation_66", "config": {"activation": "relu", "trainable": false, "name": "activation_66"}, "inbound_nodes": [[["batch_normalization_66", 0, 0, {}]]], "class_name": "Activation"}, {"name": "conv2d_62", "config": {"bias_initializer": {"class_name": "Zeros", "config": {}}, "kernel_size": [1, 1], "bias_regularizer": null, "data_format": "channels_last", "kernel_initializer": {"class_name": "VarianceScaling", "config": {"scale": 1.0, "mode": "fan_avg", "distribution": "uniform", "seed": null}}, "filters": 192, "use_bias": false, "name": "conv2d_62", "activation": "linear", "kernel_constraint": null, "kernel_regularizer": null, "strides": [1, 1], "padding": "same", "dilation_rate": [1, 1], "bias_constraint": null, "trainable": false, "activity_regularizer": null}, "inbound_nodes": [[["mixed6", 0, 0, {}]]], "class_name": "Conv2D"}, {"name": "conv2d_67", "config": {"bias_initializer": {"class_name": "Zeros", "config": {}}, "kernel_size": [1, 7], "bias_regularizer": null, "data_format": "channels_last", "kernel_initializer": {"class_name": "VarianceScaling", "config": {"scale": 1.0, "mode": "fan_avg", "distribution": "uniform", "seed": null}}, "filters": 192, "use_bias": false, "name": "conv2d_67", "activation": "linear", "kernel_constraint": null, "kernel_regularizer": null, "strides": [1, 1], "padding": "same", "dilation_rate": [1, 1], "bias_constraint": null, "trainable": false, "activity_regularizer": null}, "inbound_nodes": [[["activation_66", 0, 0, {}]]], "class_name": "Conv2D"}, {"name": "batch_normalization_62", "config": {"scale": false, "axis": 3, "gamma_regularizer": null, "moving_mean_initializer": {"class_name": "Zeros", "config": {}}, "beta_constraint": null, "gamma_constraint": null, "moving_variance_initializer": {"class_name": "Ones", "config": {}}, "name": "batch_normalization_62", "beta_initializer": {"class_name": "Zeros", "config": {}}, "momentum": 0.99, "gamma_initializer": {"class_name": "Ones", "config": {}}, "beta_regularizer": null, "trainable": false, "epsilon": 0.001, "center": true}, "inbound_nodes": [[["conv2d_62", 0, 0, {}]]], "class_name": "BatchNormalization"}, {"name": "batch_normalization_67", "config": {"scale": false, "axis": 3, "gamma_regularizer": null, "moving_mean_initializer": {"class_name": "Zeros", "config": {}}, "beta_constraint": null, "gamma_constraint": null, "moving_variance_initializer": {"class_name": "Ones", "config": {}}, "name": "batch_normalization_67", "beta_initializer": {"class_name": "Zeros", "config": {}}, "momentum": 0.99, "gamma_initializer": {"class_name": "Ones", "config": {}}, "beta_regularizer": null, "trainable": false, "epsilon": 0.001, "center": true}, "inbound_nodes": [[["conv2d_67", 0, 0, {}]]], "class_name": "BatchNormalization"}, {"name": "activation_62", "config": {"activation": "relu", "trainable": false, "name": "activation_62"}, "inbound_nodes": [[["batch_normalization_62", 0, 0, {}]]], "class_name": "Activation"}, {"name": "activation_67", "config": {"activation": "relu", "trainable": false, "name": "activation_67"}, "inbound_nodes": [[["batch_normalization_67", 0, 0, {}]]], "class_name": "Activation"}, {"name": "conv2d_63", "config": {"bias_initializer": {"class_name": "Zeros", "config": {}}, "kernel_size": [1, 7], "bias_regularizer": null, "data_format": "channels_last", "kernel_initializer": {"class_name": "VarianceScaling", "config": {"scale": 1.0, "mode": "fan_avg", "distribution": "uniform", "seed": null}}, "filters": 192, "use_bias": false, "name": "conv2d_63", "activation": "linear", "kernel_constraint": null, "kernel_regularizer": null, "strides": [1, 1], "padding": "same", "dilation_rate": [1, 1], "bias_constraint": null, "trainable": false, "activity_regularizer": null}, "inbound_nodes": [[["activation_62", 0, 0, {}]]], "class_name": "Conv2D"}, {"name": "conv2d_68", "config": {"bias_initializer": {"class_name": "Zeros", "config": {}}, "kernel_size": [7, 1], "bias_regularizer": null, "data_format": "channels_last", "kernel_initializer": {"class_name": "VarianceScaling", "config": {"scale": 1.0, "mode": "fan_avg", "distribution": "uniform", "seed": null}}, "filters": 192, "use_bias": false, "name": "conv2d_68", "activation": "linear", "kernel_constraint": null, "kernel_regularizer": null, "strides": [1, 1], "padding": "same", "dilation_rate": [1, 1], "bias_constraint": null, "trainable": false, "activity_regularizer": null}, "inbound_nodes": [[["activation_67", 0, 0, {}]]], "class_name": "Conv2D"}, {"name": "batch_normalization_63", "config": {"scale": false, "axis": 3, "gamma_regularizer": null, "moving_mean_initializer": {"class_name": "Zeros", "config": {}}, "beta_constraint": null, "gamma_constraint": null, "moving_variance_initializer": {"class_name": "Ones", "config": {}}, "name": "batch_normalization_63", "beta_initializer": {"class_name": "Zeros", "config": {}}, "momentum": 0.99, "gamma_initializer": {"class_name": "Ones", "config": {}}, "beta_regularizer": null, "trainable": false, "epsilon": 0.001, "center": true}, "inbound_nodes": [[["conv2d_63", 0, 0, {}]]], "class_name": "BatchNormalization"}, {"name": "batch_normalization_68", "config": {"scale": false, "axis": 3, "gamma_regularizer": null, "moving_mean_initializer": {"class_name": "Zeros", "config": {}}, "beta_constraint": null, "gamma_constraint": null, "moving_variance_initializer": {"class_name": "Ones", "config": {}}, "name": "batch_normalization_68", "beta_initializer": {"class_name": "Zeros", "config": {}}, "momentum": 0.99, "gamma_initializer": {"class_name": "Ones", "config": {}}, "beta_regularizer": null, "trainable": false, "epsilon": 0.001, "center": true}, "inbound_nodes": [[["conv2d_68", 0, 0, {}]]], "class_name": "BatchNormalization"}, {"name": "activation_63", "config": {"activation": "relu", "trainable": false, "name": "activation_63"}, "inbound_nodes": [[["batch_normalization_63", 0, 0, {}]]], "class_name": "Activation"}, {"name": "activation_68", "config": {"activation": "relu", "trainable": false, "name": "activation_68"}, "inbound_nodes": [[["batch_normalization_68", 0, 0, {}]]], "class_name": "Activation"}, {"name": "average_pooling2d_7", "config": {"strides": [1, 1], "padding": "same", "data_format": "channels_last", "trainable": false, "pool_size": [3, 3], "name": "average_pooling2d_7"}, "inbound_nodes": [[["mixed6", 0, 0, {}]]], "class_name": "AveragePooling2D"}, {"name": "conv2d_61", "config": {"bias_initializer": {"class_name": "Zeros", "config": {}}, "kernel_size": [1, 1], "bias_regularizer": null, "data_format": "channels_last", "kernel_initializer": {"class_name": "VarianceScaling", "config": {"scale": 1.0, "mode": "fan_avg", "distribution": "uniform", "seed": null}}, "filters": 192, "use_bias": false, "name": "conv2d_61", "activation": "linear", "kernel_constraint": null, "kernel_regularizer": null, "strides": [1, 1], "padding": "same", "dilation_rate": [1, 1], "bias_constraint": null, "trainable": false, "activity_regularizer": null}, "inbound_nodes": [[["mixed6", 0, 0, {}]]], "class_name": "Conv2D"}, {"name": "conv2d_64", "config": {"bias_initializer": {"class_name": "Zeros", "config": {}}, "kernel_size": [7, 1], "bias_regularizer": null, "data_format": "channels_last", "kernel_initializer": {"class_name": "VarianceScaling", "config": {"scale": 1.0, "mode": "fan_avg", "distribution": "uniform", "seed": null}}, "filters": 192, "use_bias": false, "name": "conv2d_64", "activation": "linear", "kernel_constraint": null, "kernel_regularizer": null, "strides": [1, 1], "padding": "same", "dilation_rate": [1, 1], "bias_constraint": null, "trainable": false, "activity_regularizer": null}, "inbound_nodes": [[["activation_63", 0, 0, {}]]], "class_name": "Conv2D"}, {"name": "conv2d_69", "config": {"bias_initializer": {"class_name": "Zeros", "config": {}}, "kernel_size": [1, 7], "bias_regularizer": null, "data_format": "channels_last", "kernel_initializer": {"class_name": "VarianceScaling", "config": {"scale": 1.0, "mode": "fan_avg", "distribution": "uniform", "seed": null}}, "filters": 192, "use_bias": false, "name": "conv2d_69", "activation": "linear", "kernel_constraint": null, "kernel_regularizer": null, "strides": [1, 1], "padding": "same", "dilation_rate": [1, 1], "bias_constraint": null, "trainable": false, "activity_regularizer": null}, "inbound_nodes": [[["activation_68", 0, 0, {}]]], "class_name": "Conv2D"}, {"name": "conv2d_70", "config": {"bias_initializer": {"class_name": "Zeros", "config": {}}, "kernel_size": [1, 1], "bias_regularizer": null, "data_format": "channels_last", "kernel_initializer": {"class_name": "VarianceScaling", "config": {"scale": 1.0, "mode": "fan_avg", "distribution": "uniform", "seed": null}}, "filters": 192, "use_bias": false, "name": "conv2d_70", "activation": "linear", "kernel_constraint": null, "kernel_regularizer": null, "strides": [1, 1], "padding": "same", "dilation_rate": [1, 1], "bias_constraint": null, "trainable": false, "activity_regularizer": null}, "inbound_nodes": [[["average_pooling2d_7", 0, 0, {}]]], "class_name": "Conv2D"}, {"name": "batch_normalization_61", "config": {"scale": false, "axis": 3, "gamma_regularizer": null, "moving_mean_initializer": {"class_name": "Zeros", "config": {}}, "beta_constraint": null, "gamma_constraint": null, "moving_variance_initializer": {"class_name": "Ones", "config": {}}, "name": "batch_normalization_61", "beta_initializer": {"class_name": "Zeros", "config": {}}, "momentum": 0.99, "gamma_initializer": {"class_name": "Ones", "config": {}}, "beta_regularizer": null, "trainable": false, "epsilon": 0.001, "center": true}, "inbound_nodes": [[["conv2d_61", 0, 0, {}]]], "class_name": "BatchNormalization"}, {"name": "batch_normalization_64", "config": {"scale": false, "axis": 3, "gamma_regularizer": null, "moving_mean_initializer": {"class_name": "Zeros", "config": {}}, "beta_constraint": null, "gamma_constraint": null, "moving_variance_initializer": {"class_name": "Ones", "config": {}}, "name": "batch_normalization_64", "beta_initializer": {"class_name": "Zeros", "config": {}}, "momentum": 0.99, "gamma_initializer": {"class_name": "Ones", "config": {}}, "beta_regularizer": null, "trainable": false, "epsilon": 0.001, "center": true}, "inbound_nodes": [[["conv2d_64", 0, 0, {}]]], "class_name": "BatchNormalization"}, {"name": "batch_normalization_69", "config": {"scale": false, "axis": 3, "gamma_regularizer": null, "moving_mean_initializer": {"class_name": "Zeros", "config": {}}, "beta_constraint": null, "gamma_constraint": null, "moving_variance_initializer": {"class_name": "Ones", "config": {}}, "name": "batch_normalization_69", "beta_initializer": {"class_name": "Zeros", "config": {}}, "momentum": 0.99, "gamma_initializer": {"class_name": "Ones", "config": {}}, "beta_regularizer": null, "trainable": false, "epsilon": 0.001, "center": true}, "inbound_nodes": [[["conv2d_69", 0, 0, {}]]], "class_name": "BatchNormalization"}, {"name": "batch_normalization_70", "config": {"scale": false, "axis": 3, "gamma_regularizer": null, "moving_mean_initializer": {"class_name": "Zeros", "config": {}}, "beta_constraint": null, "gamma_constraint": null, "moving_variance_initializer": {"class_name": "Ones", "config": {}}, "name": "batch_normalization_70", "beta_initializer": {"class_name": "Zeros", "config": {}}, "momentum": 0.99, "gamma_initializer": {"class_name": "Ones", "config": {}}, "beta_regularizer": null, "trainable": false, "epsilon": 0.001, "center": true}, "inbound_nodes": [[["conv2d_70", 0, 0, {}]]], "class_name": "BatchNormalization"}, {"name": "activation_61", "config": {"activation": "relu", "trainable": false, "name": "activation_61"}, "inbound_nodes": [[["batch_normalization_61", 0, 0, {}]]], "class_name": "Activation"}, {"name": "activation_64", "config": {"activation": "relu", "trainable": false, "name": "activation_64"}, "inbound_nodes": [[["batch_normalization_64", 0, 0, {}]]], "class_name": "Activation"}, {"name": "activation_69", "config": {"activation": "relu", "trainable": false, "name": "activation_69"}, "inbound_nodes": [[["batch_normalization_69", 0, 0, {}]]], "class_name": "Activation"}, {"name": "activation_70", "config": {"activation": "relu", "trainable": false, "name": "activation_70"}, "inbound_nodes": [[["batch_normalization_70", 0, 0, {}]]], "class_name": "Activation"}, {"name": "mixed7", "config": {"axis": 3, "trainable": false, "name": "mixed7"}, "inbound_nodes": [[["activation_61", 0, 0, {}], ["activation_64", 0, 0, {}], ["activation_69", 0, 0, {}], ["activation_70", 0, 0, {}]]], "class_name": "Concatenate"}, {"name": "conv2d_73", "config": {"bias_initializer": {"class_name": "Zeros", "config": {}}, "kernel_size": [1, 1], "bias_regularizer": null, "data_format": "channels_last", "kernel_initializer": {"class_name": "VarianceScaling", "config": {"scale": 1.0, "mode": "fan_avg", "distribution": "uniform", "seed": null}}, "filters": 192, "use_bias": false, "name": "conv2d_73", "activation": "linear", "kernel_constraint": null, "kernel_regularizer": null, "strides": [1, 1], "padding": "same", "dilation_rate": [1, 1], "bias_constraint": null, "trainable": false, "activity_regularizer": null}, "inbound_nodes": [[["mixed7", 0, 0, {}]]], "class_name": "Conv2D"}, {"name": "batch_normalization_73", "config": {"scale": false, "axis": 3, "gamma_regularizer": null, "moving_mean_initializer": {"class_name": "Zeros", "config": {}}, "beta_constraint": null, "gamma_constraint": null, "moving_variance_initializer": {"class_name": "Ones", "config": {}}, "name": "batch_normalization_73", "beta_initializer": {"class_name": "Zeros", "config": {}}, "momentum": 0.99, "gamma_initializer": {"class_name": "Ones", "config": {}}, "beta_regularizer": null, "trainable": false, "epsilon": 0.001, "center": true}, "inbound_nodes": [[["conv2d_73", 0, 0, {}]]], "class_name": "BatchNormalization"}, {"name": "activation_73", "config": {"activation": "relu", "trainable": false, "name": "activation_73"}, "inbound_nodes": [[["batch_normalization_73", 0, 0, {}]]], "class_name": "Activation"}, {"name": "conv2d_74", "config": {"bias_initializer": {"class_name": "Zeros", "config": {}}, "kernel_size": [1, 7], "bias_regularizer": null, "data_format": "channels_last", "kernel_initializer": {"class_name": "VarianceScaling", "config": {"scale": 1.0, "mode": "fan_avg", "distribution": "uniform", "seed": null}}, "filters": 192, "use_bias": false, "name": "conv2d_74", "activation": "linear", "kernel_constraint": null, "kernel_regularizer": null, "strides": [1, 1], "padding": "same", "dilation_rate": [1, 1], "bias_constraint": null, "trainable": false, "activity_regularizer": null}, "inbound_nodes": [[["activation_73", 0, 0, {}]]], "class_name": "Conv2D"}, {"name": "batch_normalization_74", "config": {"scale": false, "axis": 3, "gamma_regularizer": null, "moving_mean_initializer": {"class_name": "Zeros", "config": {}}, "beta_constraint": null, "gamma_constraint": null, "moving_variance_initializer": {"class_name": "Ones", "config": {}}, "name": "batch_normalization_74", "beta_initializer": {"class_name": "Zeros", "config": {}}, "momentum": 0.99, "gamma_initializer": {"class_name": "Ones", "config": {}}, "beta_regularizer": null, "trainable": false, "epsilon": 0.001, "center": true}, "inbound_nodes": [[["conv2d_74", 0, 0, {}]]], "class_name": "BatchNormalization"}, {"name": "activation_74", "config": {"activation": "relu", "trainable": false, "name": "activation_74"}, "inbound_nodes": [[["batch_normalization_74", 0, 0, {}]]], "class_name": "Activation"}, {"name": "conv2d_71", "config": {"bias_initializer": {"class_name": "Zeros", "config": {}}, "kernel_size": [1, 1], "bias_regularizer": null, "data_format": "channels_last", "kernel_initializer": {"class_name": "VarianceScaling", "config": {"scale": 1.0, "mode": "fan_avg", "distribution": "uniform", "seed": null}}, "filters": 192, "use_bias": false, "name": "conv2d_71", "activation": "linear", "kernel_constraint": null, "kernel_regularizer": null, "strides": [1, 1], "padding": "same", "dilation_rate": [1, 1], "bias_constraint": null, "trainable": false, "activity_regularizer": null}, "inbound_nodes": [[["mixed7", 0, 0, {}]]], "class_name": "Conv2D"}, {"name": "conv2d_75", "config": {"bias_initializer": {"class_name": "Zeros", "config": {}}, "kernel_size": [7, 1], "bias_regularizer": null, "data_format": "channels_last", "kernel_initializer": {"class_name": "VarianceScaling", "config": {"scale": 1.0, "mode": "fan_avg", "distribution": "uniform", "seed": null}}, "filters": 192, "use_bias": false, "name": "conv2d_75", "activation": "linear", "kernel_constraint": null, "kernel_regularizer": null, "strides": [1, 1], "padding": "same", "dilation_rate": [1, 1], "bias_constraint": null, "trainable": false, "activity_regularizer": null}, "inbound_nodes": [[["activation_74", 0, 0, {}]]], "class_name": "Conv2D"}, {"name": "batch_normalization_71", "config": {"scale": false, "axis": 3, "gamma_regularizer": null, "moving_mean_initializer": {"class_name": "Zeros", "config": {}}, "beta_constraint": null, "gamma_constraint": null, "moving_variance_initializer": {"class_name": "Ones", "config": {}}, "name": "batch_normalization_71", "beta_initializer": {"class_name": "Zeros", "config": {}}, "momentum": 0.99, "gamma_initializer": {"class_name": "Ones", "config": {}}, "beta_regularizer": null, "trainable": false, "epsilon": 0.001, "center": true}, "inbound_nodes": [[["conv2d_71", 0, 0, {}]]], "class_name": "BatchNormalization"}, {"name": "batch_normalization_75", "config": {"scale": false, "axis": 3, "gamma_regularizer": null, "moving_mean_initializer": {"class_name": "Zeros", "config": {}}, "beta_constraint": null, "gamma_constraint": null, "moving_variance_initializer": {"class_name": "Ones", "config": {}}, "name": "batch_normalization_75", "beta_initializer": {"class_name": "Zeros", "config": {}}, "momentum": 0.99, "gamma_initializer": {"class_name": "Ones", "config": {}}, "beta_regularizer": null, "trainable": false, "epsilon": 0.001, "center": true}, "inbound_nodes": [[["conv2d_75", 0, 0, {}]]], "class_name": "BatchNormalization"}, {"name": "activation_71", "config": {"activation": "relu", "trainable": false, "name": "activation_71"}, "inbound_nodes": [[["batch_normalization_71", 0, 0, {}]]], "class_name": "Activation"}, {"name": "activation_75", "config": {"activation": "relu", "trainable": false, "name": "activation_75"}, "inbound_nodes": [[["batch_normalization_75", 0, 0, {}]]], "class_name": "Activation"}, {"name": "conv2d_72", "config": {"bias_initializer": {"class_name": "Zeros", "config": {}}, "kernel_size": [3, 3], "bias_regularizer": null, "data_format": "channels_last", "kernel_initializer": {"class_name": "VarianceScaling", "config": {"scale": 1.0, "mode": "fan_avg", "distribution": "uniform", "seed": null}}, "filters": 320, "use_bias": false, "name": "conv2d_72", "activation": "linear", "kernel_constraint": null, "kernel_regularizer": null, "strides": [2, 2], "padding": "valid", "dilation_rate": [1, 1], "bias_constraint": null, "trainable": false, "activity_regularizer": null}, "inbound_nodes": [[["activation_71", 0, 0, {}]]], "class_name": "Conv2D"}, {"name": "conv2d_76", "config": {"bias_initializer": {"class_name": "Zeros", "config": {}}, "kernel_size": [3, 3], "bias_regularizer": null, "data_format": "channels_last", "kernel_initializer": {"class_name": "VarianceScaling", "config": {"scale": 1.0, "mode": "fan_avg", "distribution": "uniform", "seed": null}}, "filters": 192, "use_bias": false, "name": "conv2d_76", "activation": "linear", "kernel_constraint": null, "kernel_regularizer": null, "strides": [2, 2], "padding": "valid", "dilation_rate": [1, 1], "bias_constraint": null, "trainable": false, "activity_regularizer": null}, "inbound_nodes": [[["activation_75", 0, 0, {}]]], "class_name": "Conv2D"}, {"name": "batch_normalization_72", "config": {"scale": false, "axis": 3, "gamma_regularizer": null, "moving_mean_initializer": {"class_name": "Zeros", "config": {}}, "beta_constraint": null, "gamma_constraint": null, "moving_variance_initializer": {"class_name": "Ones", "config": {}}, "name": "batch_normalization_72", "beta_initializer": {"class_name": "Zeros", "config": {}}, "momentum": 0.99, "gamma_initializer": {"class_name": "Ones", "config": {}}, "beta_regularizer": null, "trainable": false, "epsilon": 0.001, "center": true}, "inbound_nodes": [[["conv2d_72", 0, 0, {}]]], "class_name": "BatchNormalization"}, {"name": "batch_normalization_76", "config": {"scale": false, "axis": 3, "gamma_regularizer": null, "moving_mean_initializer": {"class_name": "Zeros", "config": {}}, "beta_constraint": null, "gamma_constraint": null, "moving_variance_initializer": {"class_name": "Ones", "config": {}}, "name": "batch_normalization_76", "beta_initializer": {"class_name": "Zeros", "config": {}}, "momentum": 0.99, "gamma_initializer": {"class_name": "Ones", "config": {}}, "beta_regularizer": null, "trainable": false, "epsilon": 0.001, "center": true}, "inbound_nodes": [[["conv2d_76", 0, 0, {}]]], "class_name": "BatchNormalization"}, {"name": "activation_72", "config": {"activation": "relu", "trainable": false, "name": "activation_72"}, "inbound_nodes": [[["batch_normalization_72", 0, 0, {}]]], "class_name": "Activation"}, {"name": "activation_76", "config": {"activation": "relu", "trainable": false, "name": "activation_76"}, "inbound_nodes": [[["batch_normalization_76", 0, 0, {}]]], "class_name": "Activation"}, {"name": "max_pooling2d_4", "config": {"strides": [2, 2], "padding": "valid", "data_format": "channels_last", "trainable": false, "pool_size": [3, 3], "name": "max_pooling2d_4"}, "inbound_nodes": [[["mixed7", 0, 0, {}]]], "class_name": "MaxPooling2D"}, {"name": "mixed8", "config": {"axis": 3, "trainable": false, "name": "mixed8"}, "inbound_nodes": [[["activation_72", 0, 0, {}], ["activation_76", 0, 0, {}], ["max_pooling2d_4", 0, 0, {}]]], "class_name": "Concatenate"}, {"name": "conv2d_81", "config": {"bias_initializer": {"class_name": "Zeros", "config": {}}, "kernel_size": [1, 1], "bias_regularizer": null, "data_format": "channels_last", "kernel_initializer": {"class_name": "VarianceScaling", "config": {"scale": 1.0, "mode": "fan_avg", "distribution": "uniform", "seed": null}}, "filters": 448, "use_bias": false, "name": "conv2d_81", "activation": "linear", "kernel_constraint": null, "kernel_regularizer": null, "strides": [1, 1], "padding": "same", "dilation_rate": [1, 1], "bias_constraint": null, "trainable": true, "activity_regularizer": null}, "inbound_nodes": [[["mixed8", 0, 0, {}]]], "class_name": "Conv2D"}, {"name": "batch_normalization_81", "config": {"scale": false, "axis": 3, "gamma_regularizer": null, "moving_mean_initializer": {"class_name": "Zeros", "config": {}}, "beta_constraint": null, "gamma_constraint": null, "moving_variance_initializer": {"class_name": "Ones", "config": {}}, "name": "batch_normalization_81", "beta_initializer": {"class_name": "Zeros", "config": {}}, "momentum": 0.99, "gamma_initializer": {"class_name": "Ones", "config": {}}, "beta_regularizer": null, "trainable": true, "epsilon": 0.001, "center": true}, "inbound_nodes": [[["conv2d_81", 0, 0, {}]]], "class_name": "BatchNormalization"}, {"name": "activation_81", "config": {"activation": "relu", "trainable": true, "name": "activation_81"}, "inbound_nodes": [[["batch_normalization_81", 0, 0, {}]]], "class_name": "Activation"}, {"name": "conv2d_78", "config": {"bias_initializer": {"class_name": "Zeros", "config": {}}, "kernel_size": [1, 1], "bias_regularizer": null, "data_format": "channels_last", "kernel_initializer": {"class_name": "VarianceScaling", "config": {"scale": 1.0, "mode": "fan_avg", "distribution": "uniform", "seed": null}}, "filters": 384, "use_bias": false, "name": "conv2d_78", "activation": "linear", "kernel_constraint": null, "kernel_regularizer": null, "strides": [1, 1], "padding": "same", "dilation_rate": [1, 1], "bias_constraint": null, "trainable": true, "activity_regularizer": null}, "inbound_nodes": [[["mixed8", 0, 0, {}]]], "class_name": "Conv2D"}, {"name": "conv2d_82", "config": {"bias_initializer": {"class_name": "Zeros", "config": {}}, "kernel_size": [3, 3], "bias_regularizer": null, "data_format": "channels_last", "kernel_initializer": {"class_name": "VarianceScaling", "config": {"scale": 1.0, "mode": "fan_avg", "distribution": "uniform", "seed": null}}, "filters": 384, "use_bias": false, "name": "conv2d_82", "activation": "linear", "kernel_constraint": null, "kernel_regularizer": null, "strides": [1, 1], "padding": "same", "dilation_rate": [1, 1], "bias_constraint": null, "trainable": true, "activity_regularizer": null}, "inbound_nodes": [[["activation_81", 0, 0, {}]]], "class_name": "Conv2D"}, {"name": "batch_normalization_78", "config": {"scale": false, "axis": 3, "gamma_regularizer": null, "moving_mean_initializer": {"class_name": "Zeros", "config": {}}, "beta_constraint": null, "gamma_constraint": null, "moving_variance_initializer": {"class_name": "Ones", "config": {}}, "name": "batch_normalization_78", "beta_initializer": {"class_name": "Zeros", "config": {}}, "momentum": 0.99, "gamma_initializer": {"class_name": "Ones", "config": {}}, "beta_regularizer": null, "trainable": true, "epsilon": 0.001, "center": true}, "inbound_nodes": [[["conv2d_78", 0, 0, {}]]], "class_name": "BatchNormalization"}, {"name": "batch_normalization_82", "config": {"scale": false, "axis": 3, "gamma_regularizer": null, "moving_mean_initializer": {"class_name": "Zeros", "config": {}}, "beta_constraint": null, "gamma_constraint": null, "moving_variance_initializer": {"class_name": "Ones", "config": {}}, "name": "batch_normalization_82", "beta_initializer": {"class_name": "Zeros", "config": {}}, "momentum": 0.99, "gamma_initializer": {"class_name": "Ones", "config": {}}, "beta_regularizer": null, "trainable": true, "epsilon": 0.001, "center": true}, "inbound_nodes": [[["conv2d_82", 0, 0, {}]]], "class_name": "BatchNormalization"}, {"name": "activation_78", "config": {"activation": "relu", "trainable": true, "name": "activation_78"}, "inbound_nodes": [[["batch_normalization_78", 0, 0, {}]]], "class_name": "Activation"}, {"name": "activation_82", "config": {"activation": "relu", "trainable": true, "name": "activation_82"}, "inbound_nodes": [[["batch_normalization_82", 0, 0, {}]]], "class_name": "Activation"}, {"name": "conv2d_79", "config": {"bias_initializer": {"class_name": "Zeros", "config": {}}, "kernel_size": [1, 3], "bias_regularizer": null, "data_format": "channels_last", "kernel_initializer": {"class_name": "VarianceScaling", "config": {"scale": 1.0, "mode": "fan_avg", "distribution": "uniform", "seed": null}}, "filters": 384, "use_bias": false, "name": "conv2d_79", "activation": "linear", "kernel_constraint": null, "kernel_regularizer": null, "strides": [1, 1], "padding": "same", "dilation_rate": [1, 1], "bias_constraint": null, "trainable": true, "activity_regularizer": null}, "inbound_nodes": [[["activation_78", 0, 0, {}]]], "class_name": "Conv2D"}, {"name": "conv2d_80", "config": {"bias_initializer": {"class_name": "Zeros", "config": {}}, "kernel_size": [3, 1], "bias_regularizer": null, "data_format": "channels_last", "kernel_initializer": {"class_name": "VarianceScaling", "config": {"scale": 1.0, "mode": "fan_avg", "distribution": "uniform", "seed": null}}, "filters": 384, "use_bias": false, "name": "conv2d_80", "activation": "linear", "kernel_constraint": null, "kernel_regularizer": null, "strides": [1, 1], "padding": "same", "dilation_rate": [1, 1], "bias_constraint": null, "trainable": true, "activity_regularizer": null}, "inbound_nodes": [[["activation_78", 0, 0, {}]]], "class_name": "Conv2D"}, {"name": "conv2d_83", "config": {"bias_initializer": {"class_name": "Zeros", "config": {}}, "kernel_size": [1, 3], "bias_regularizer": null, "data_format": "channels_last", "kernel_initializer": {"class_name": "VarianceScaling", "config": {"scale": 1.0, "mode": "fan_avg", "distribution": "uniform", "seed": null}}, "filters": 384, "use_bias": false, "name": "conv2d_83", "activation": "linear", "kernel_constraint": null, "kernel_regularizer": null, "strides": [1, 1], "padding": "same", "dilation_rate": [1, 1], "bias_constraint": null, "trainable": true, "activity_regularizer": null}, "inbound_nodes": [[["activation_82", 0, 0, {}]]], "class_name": "Conv2D"}, {"name": "conv2d_84", "config": {"bias_initializer": {"class_name": "Zeros", "config": {}}, "kernel_size": [3, 1], "bias_regularizer": null, "data_format": "channels_last", "kernel_initializer": {"class_name": "VarianceScaling", "config": {"scale": 1.0, "mode": "fan_avg", "distribution": "uniform", "seed": null}}, "filters": 384, "use_bias": false, "name": "conv2d_84", "activation": "linear", "kernel_constraint": null, "kernel_regularizer": null, "strides": [1, 1], "padding": "same", "dilation_rate": [1, 1], "bias_constraint": null, "trainable": true, "activity_regularizer": null}, "inbound_nodes": [[["activation_82", 0, 0, {}]]], "class_name": "Conv2D"}, {"name": "average_pooling2d_8", "config": {"strides": [1, 1], "padding": "same", "data_format": "channels_last", "trainable": true, "pool_size": [3, 3], "name": "average_pooling2d_8"}, "inbound_nodes": [[["mixed8", 0, 0, {}]]], "class_name": "AveragePooling2D"}, {"name": "conv2d_77", "config": {"bias_initializer": {"class_name": "Zeros", "config": {}}, "kernel_size": [1, 1], "bias_regularizer": null, "data_format": "channels_last", "kernel_initializer": {"class_name": "VarianceScaling", "config": {"scale": 1.0, "mode": "fan_avg", "distribution": "uniform", "seed": null}}, "filters": 320, "use_bias": false, "name": "conv2d_77", "activation": "linear", "kernel_constraint": null, "kernel_regularizer": null, "strides": [1, 1], "padding": "same", "dilation_rate": [1, 1], "bias_constraint": null, "trainable": true, "activity_regularizer": null}, "inbound_nodes": [[["mixed8", 0, 0, {}]]], "class_name": "Conv2D"}, {"name": "batch_normalization_79", "config": {"scale": false, "axis": 3, "gamma_regularizer": null, "moving_mean_initializer": {"class_name": "Zeros", "config": {}}, "beta_constraint": null, "gamma_constraint": null, "moving_variance_initializer": {"class_name": "Ones", "config": {}}, "name": "batch_normalization_79", "beta_initializer": {"class_name": "Zeros", "config": {}}, "momentum": 0.99, "gamma_initializer": {"class_name": "Ones", "config": {}}, "beta_regularizer": null, "trainable": true, "epsilon": 0.001, "center": true}, "inbound_nodes": [[["conv2d_79", 0, 0, {}]]], "class_name": "BatchNormalization"}, {"name": "batch_normalization_80", "config": {"scale": false, "axis": 3, "gamma_regularizer": null, "moving_mean_initializer": {"class_name": "Zeros", "config": {}}, "beta_constraint": null, "gamma_constraint": null, "moving_variance_initializer": {"class_name": "Ones", "config": {}}, "name": "batch_normalization_80", "beta_initializer": {"class_name": "Zeros", "config": {}}, "momentum": 0.99, "gamma_initializer": {"class_name": "Ones", "config": {}}, "beta_regularizer": null, "trainable": true, "epsilon": 0.001, "center": true}, "inbound_nodes": [[["conv2d_80", 0, 0, {}]]], "class_name": "BatchNormalization"}, {"name": "batch_normalization_83", "config": {"scale": false, "axis": 3, "gamma_regularizer": null, "moving_mean_initializer": {"class_name": "Zeros", "config": {}}, "beta_constraint": null, "gamma_constraint": null, "moving_variance_initializer": {"class_name": "Ones", "config": {}}, "name": "batch_normalization_83", "beta_initializer": {"class_name": "Zeros", "config": {}}, "momentum": 0.99, "gamma_initializer": {"class_name": "Ones", "config": {}}, "beta_regularizer": null, "trainable": true, "epsilon": 0.001, "center": true}, "inbound_nodes": [[["conv2d_83", 0, 0, {}]]], "class_name": "BatchNormalization"}, {"name": "batch_normalization_84", "config": {"scale": false, "axis": 3, "gamma_regularizer": null, "moving_mean_initializer": {"class_name": "Zeros", "config": {}}, "beta_constraint": null, "gamma_constraint": null, "moving_variance_initializer": {"class_name": "Ones", "config": {}}, "name": "batch_normalization_84", "beta_initializer": {"class_name": "Zeros", "config": {}}, "momentum": 0.99, "gamma_initializer": {"class_name": "Ones", "config": {}}, "beta_regularizer": null, "trainable": true, "epsilon": 0.001, "center": true}, "inbound_nodes": [[["conv2d_84", 0, 0, {}]]], "class_name": "BatchNormalization"}, {"name": "conv2d_85", "config": {"bias_initializer": {"class_name": "Zeros", "config": {}}, "kernel_size": [1, 1], "bias_regularizer": null, "data_format": "channels_last", "kernel_initializer": {"class_name": "VarianceScaling", "config": {"scale": 1.0, "mode": "fan_avg", "distribution": "uniform", "seed": null}}, "filters": 192, "use_bias": false, "name": "conv2d_85", "activation": "linear", "kernel_constraint": null, "kernel_regularizer": null, "strides": [1, 1], "padding": "same", "dilation_rate": [1, 1], "bias_constraint": null, "trainable": true, "activity_regularizer": null}, "inbound_nodes": [[["average_pooling2d_8", 0, 0, {}]]], "class_name": "Conv2D"}, {"name": "batch_normalization_77", "config": {"scale": false, "axis": 3, "gamma_regularizer": null, "moving_mean_initializer": {"class_name": "Zeros", "config": {}}, "beta_constraint": null, "gamma_constraint": null, "moving_variance_initializer": {"class_name": "Ones", "config": {}}, "name": "batch_normalization_77", "beta_initializer": {"class_name": "Zeros", "config": {}}, "momentum": 0.99, "gamma_initializer": {"class_name": "Ones", "config": {}}, "beta_regularizer": null, "trainable": true, "epsilon": 0.001, "center": true}, "inbound_nodes": [[["conv2d_77", 0, 0, {}]]], "class_name": "BatchNormalization"}, {"name": "activation_79", "config": {"activation": "relu", "trainable": true, "name": "activation_79"}, "inbound_nodes": [[["batch_normalization_79", 0, 0, {}]]], "class_name": "Activation"}, {"name": "activation_80", "config": {"activation": "relu", "trainable": true, "name": "activation_80"}, "inbound_nodes": [[["batch_normalization_80", 0, 0, {}]]], "class_name": "Activation"}, {"name": "activation_83", "config": {"activation": "relu", "trainable": true, "name": "activation_83"}, "inbound_nodes": [[["batch_normalization_83", 0, 0, {}]]], "class_name": "Activation"}, {"name": "activation_84", "config": {"activation": "relu", "trainable": true, "name": "activation_84"}, "inbound_nodes": [[["batch_normalization_84", 0, 0, {}]]], "class_name": "Activation"}, {"name": "batch_normalization_85", "config": {"scale": false, "axis": 3, "gamma_regularizer": null, "moving_mean_initializer": {"class_name": "Zeros", "config": {}}, "beta_constraint": null, "gamma_constraint": null, "moving_variance_initializer": {"class_name": "Ones", "config": {}}, "name": "batch_normalization_85", "beta_initializer": {"class_name": "Zeros", "config": {}}, "momentum": 0.99, "gamma_initializer": {"class_name": "Ones", "config": {}}, "beta_regularizer": null, "trainable": true, "epsilon": 0.001, "center": true}, "inbound_nodes": [[["conv2d_85", 0, 0, {}]]], "class_name": "BatchNormalization"}, {"name": "activation_77", "config": {"activation": "relu", "trainable": true, "name": "activation_77"}, "inbound_nodes": [[["batch_normalization_77", 0, 0, {}]]], "class_name": "Activation"}, {"name": "mixed9_0", "config": {"axis": 3, "trainable": true, "name": "mixed9_0"}, "inbound_nodes": [[["activation_79", 0, 0, {}], ["activation_80", 0, 0, {}]]], "class_name": "Concatenate"}, {"name": "concatenate_1", "config": {"axis": 3, "trainable": true, "name": "concatenate_1"}, "inbound_nodes": [[["activation_83", 0, 0, {}], ["activation_84", 0, 0, {}]]], "class_name": "Concatenate"}, {"name": "activation_85", "config": {"activation": "relu", "trainable": true, "name": "activation_85"}, "inbound_nodes": [[["batch_normalization_85", 0, 0, {}]]], "class_name": "Activation"}, {"name": "mixed9", "config": {"axis": 3, "trainable": true, "name": "mixed9"}, "inbound_nodes": [[["activation_77", 0, 0, {}], ["mixed9_0", 0, 0, {}], ["concatenate_1", 0, 0, {}], ["activation_85", 0, 0, {}]]], "class_name": "Concatenate"}, {"name": "conv2d_90", "config": {"bias_initializer": {"class_name": "Zeros", "config": {}}, "kernel_size": [1, 1], "bias_regularizer": null, "data_format": "channels_last", "kernel_initializer": {"class_name": "VarianceScaling", "config": {"scale": 1.0, "mode": "fan_avg", "distribution": "uniform", "seed": null}}, "filters": 448, "use_bias": false, "name": "conv2d_90", "activation": "linear", "kernel_constraint": null, "kernel_regularizer": null, "strides": [1, 1], "padding": "same", "dilation_rate": [1, 1], "bias_constraint": null, "trainable": true, "activity_regularizer": null}, "inbound_nodes": [[["mixed9", 0, 0, {}]]], "class_name": "Conv2D"}, {"name": "batch_normalization_90", "config": {"scale": false, "axis": 3, "gamma_regularizer": null, "moving_mean_initializer": {"class_name": "Zeros", "config": {}}, "beta_constraint": null, "gamma_constraint": null, "moving_variance_initializer": {"class_name": "Ones", "config": {}}, "name": "batch_normalization_90", "beta_initializer": {"class_name": "Zeros", "config": {}}, "momentum": 0.99, "gamma_initializer": {"class_name": "Ones", "config": {}}, "beta_regularizer": null, "trainable": true, "epsilon": 0.001, "center": true}, "inbound_nodes": [[["conv2d_90", 0, 0, {}]]], "class_name": "BatchNormalization"}, {"name": "activation_90", "config": {"activation": "relu", "trainable": true, "name": "activation_90"}, "inbound_nodes": [[["batch_normalization_90", 0, 0, {}]]], "class_name": "Activation"}, {"name": "conv2d_87", "config": {"bias_initializer": {"class_name": "Zeros", "config": {}}, "kernel_size": [1, 1], "bias_regularizer": null, "data_format": "channels_last", "kernel_initializer": {"class_name": "VarianceScaling", "config": {"scale": 1.0, "mode": "fan_avg", "distribution": "uniform", "seed": null}}, "filters": 384, "use_bias": false, "name": "conv2d_87", "activation": "linear", "kernel_constraint": null, "kernel_regularizer": null, "strides": [1, 1], "padding": "same", "dilation_rate": [1, 1], "bias_constraint": null, "trainable": true, "activity_regularizer": null}, "inbound_nodes": [[["mixed9", 0, 0, {}]]], "class_name": "Conv2D"}, {"name": "conv2d_91", "config": {"bias_initializer": {"class_name": "Zeros", "config": {}}, "kernel_size": [3, 3], "bias_regularizer": null, "data_format": "channels_last", "kernel_initializer": {"class_name": "VarianceScaling", "config": {"scale": 1.0, "mode": "fan_avg", "distribution": "uniform", "seed": null}}, "filters": 384, "use_bias": false, "name": "conv2d_91", "activation": "linear", "kernel_constraint": null, "kernel_regularizer": null, "strides": [1, 1], "padding": "same", "dilation_rate": [1, 1], "bias_constraint": null, "trainable": true, "activity_regularizer": null}, "inbound_nodes": [[["activation_90", 0, 0, {}]]], "class_name": "Conv2D"}, {"name": "batch_normalization_87", "config": {"scale": false, "axis": 3, "gamma_regularizer": null, "moving_mean_initializer": {"class_name": "Zeros", "config": {}}, "beta_constraint": null, "gamma_constraint": null, "moving_variance_initializer": {"class_name": "Ones", "config": {}}, "name": "batch_normalization_87", "beta_initializer": {"class_name": "Zeros", "config": {}}, "momentum": 0.99, "gamma_initializer": {"class_name": "Ones", "config": {}}, "beta_regularizer": null, "trainable": true, "epsilon": 0.001, "center": true}, "inbound_nodes": [[["conv2d_87", 0, 0, {}]]], "class_name": "BatchNormalization"}, {"name": "batch_normalization_91", "config": {"scale": false, "axis": 3, "gamma_regularizer": null, "moving_mean_initializer": {"class_name": "Zeros", "config": {}}, "beta_constraint": null, "gamma_constraint": null, "moving_variance_initializer": {"class_name": "Ones", "config": {}}, "name": "batch_normalization_91", "beta_initializer": {"class_name": "Zeros", "config": {}}, "momentum": 0.99, "gamma_initializer": {"class_name": "Ones", "config": {}}, "beta_regularizer": null, "trainable": true, "epsilon": 0.001, "center": true}, "inbound_nodes": [[["conv2d_91", 0, 0, {}]]], "class_name": "BatchNormalization"}, {"name": "activation_87", "config": {"activation": "relu", "trainable": true, "name": "activation_87"}, "inbound_nodes": [[["batch_normalization_87", 0, 0, {}]]], "class_name": "Activation"}, {"name": "activation_91", "config": {"activation": "relu", "trainable": true, "name": "activation_91"}, "inbound_nodes": [[["batch_normalization_91", 0, 0, {}]]], "class_name": "Activation"}, {"name": "conv2d_88", "config": {"bias_initializer": {"class_name": "Zeros", "config": {}}, "kernel_size": [1, 3], "bias_regularizer": null, "data_format": "channels_last", "kernel_initializer": {"class_name": "VarianceScaling", "config": {"scale": 1.0, "mode": "fan_avg", "distribution": "uniform", "seed": null}}, "filters": 384, "use_bias": false, "name": "conv2d_88", "activation": "linear", "kernel_constraint": null, "kernel_regularizer": null, "strides": [1, 1], "padding": "same", "dilation_rate": [1, 1], "bias_constraint": null, "trainable": true, "activity_regularizer": null}, "inbound_nodes": [[["activation_87", 0, 0, {}]]], "class_name": "Conv2D"}, {"name": "conv2d_89", "config": {"bias_initializer": {"class_name": "Zeros", "config": {}}, "kernel_size": [3, 1], "bias_regularizer": null, "data_format": "channels_last", "kernel_initializer": {"class_name": "VarianceScaling", "config": {"scale": 1.0, "mode": "fan_avg", "distribution": "uniform", "seed": null}}, "filters": 384, "use_bias": false, "name": "conv2d_89", "activation": "linear", "kernel_constraint": null, "kernel_regularizer": null, "strides": [1, 1], "padding": "same", "dilation_rate": [1, 1], "bias_constraint": null, "trainable": true, "activity_regularizer": null}, "inbound_nodes": [[["activation_87", 0, 0, {}]]], "class_name": "Conv2D"}, {"name": "conv2d_92", "config": {"bias_initializer": {"class_name": "Zeros", "config": {}}, "kernel_size": [1, 3], "bias_regularizer": null, "data_format": "channels_last", "kernel_initializer": {"class_name": "VarianceScaling", "config": {"scale": 1.0, "mode": "fan_avg", "distribution": "uniform", "seed": null}}, "filters": 384, "use_bias": false, "name": "conv2d_92", "activation": "linear", "kernel_constraint": null, "kernel_regularizer": null, "strides": [1, 1], "padding": "same", "dilation_rate": [1, 1], "bias_constraint": null, "trainable": true, "activity_regularizer": null}, "inbound_nodes": [[["activation_91", 0, 0, {}]]], "class_name": "Conv2D"}, {"name": "conv2d_93", "config": {"bias_initializer": {"class_name": "Zeros", "config": {}}, "kernel_size": [3, 1], "bias_regularizer": null, "data_format": "channels_last", "kernel_initializer": {"class_name": "VarianceScaling", "config": {"scale": 1.0, "mode": "fan_avg", "distribution": "uniform", "seed": null}}, "filters": 384, "use_bias": false, "name": "conv2d_93", "activation": "linear", "kernel_constraint": null, "kernel_regularizer": null, "strides": [1, 1], "padding": "same", "dilation_rate": [1, 1], "bias_constraint": null, "trainable": true, "activity_regularizer": null}, "inbound_nodes": [[["activation_91", 0, 0, {}]]], "class_name": "Conv2D"}, {"name": "average_pooling2d_9", "config": {"strides": [1, 1], "padding": "same", "data_format": "channels_last", "trainable": true, "pool_size": [3, 3], "name": "average_pooling2d_9"}, "inbound_nodes": [[["mixed9", 0, 0, {}]]], "class_name": "AveragePooling2D"}, {"name": "conv2d_86", "config": {"bias_initializer": {"class_name": "Zeros", "config": {}}, "kernel_size": [1, 1], "bias_regularizer": null, "data_format": "channels_last", "kernel_initializer": {"class_name": "VarianceScaling", "config": {"scale": 1.0, "mode": "fan_avg", "distribution": "uniform", "seed": null}}, "filters": 320, "use_bias": false, "name": "conv2d_86", "activation": "linear", "kernel_constraint": null, "kernel_regularizer": null, "strides": [1, 1], "padding": "same", "dilation_rate": [1, 1], "bias_constraint": null, "trainable": true, "activity_regularizer": null}, "inbound_nodes": [[["mixed9", 0, 0, {}]]], "class_name": "Conv2D"}, {"name": "batch_normalization_88", "config": {"scale": false, "axis": 3, "gamma_regularizer": null, "moving_mean_initializer": {"class_name": "Zeros", "config": {}}, "beta_constraint": null, "gamma_constraint": null, "moving_variance_initializer": {"class_name": "Ones", "config": {}}, "name": "batch_normalization_88", "beta_initializer": {"class_name": "Zeros", "config": {}}, "momentum": 0.99, "gamma_initializer": {"class_name": "Ones", "config": {}}, "beta_regularizer": null, "trainable": true, "epsilon": 0.001, "center": true}, "inbound_nodes": [[["conv2d_88", 0, 0, {}]]], "class_name": "BatchNormalization"}, {"name": "batch_normalization_89", "config": {"scale": false, "axis": 3, "gamma_regularizer": null, "moving_mean_initializer": {"class_name": "Zeros", "config": {}}, "beta_constraint": null, "gamma_constraint": null, "moving_variance_initializer": {"class_name": "Ones", "config": {}}, "name": "batch_normalization_89", "beta_initializer": {"class_name": "Zeros", "config": {}}, "momentum": 0.99, "gamma_initializer": {"class_name": "Ones", "config": {}}, "beta_regularizer": null, "trainable": true, "epsilon": 0.001, "center": true}, "inbound_nodes": [[["conv2d_89", 0, 0, {}]]], "class_name": "BatchNormalization"}, {"name": "batch_normalization_92", "config": {"scale": false, "axis": 3, "gamma_regularizer": null, "moving_mean_initializer": {"class_name": "Zeros", "config": {}}, "beta_constraint": null, "gamma_constraint": null, "moving_variance_initializer": {"class_name": "Ones", "config": {}}, "name": "batch_normalization_92", "beta_initializer": {"class_name": "Zeros", "config": {}}, "momentum": 0.99, "gamma_initializer": {"class_name": "Ones", "config": {}}, "beta_regularizer": null, "trainable": true, "epsilon": 0.001, "center": true}, "inbound_nodes": [[["conv2d_92", 0, 0, {}]]], "class_name": "BatchNormalization"}, {"name": "batch_normalization_93", "config": {"scale": false, "axis": 3, "gamma_regularizer": null, "moving_mean_initializer": {"class_name": "Zeros", "config": {}}, "beta_constraint": null, "gamma_constraint": null, "moving_variance_initializer": {"class_name": "Ones", "config": {}}, "name": "batch_normalization_93", "beta_initializer": {"class_name": "Zeros", "config": {}}, "momentum": 0.99, "gamma_initializer": {"class_name": "Ones", "config": {}}, "beta_regularizer": null, "trainable": true, "epsilon": 0.001, "center": true}, "inbound_nodes": [[["conv2d_93", 0, 0, {}]]], "class_name": "BatchNormalization"}, {"name": "conv2d_94", "config": {"bias_initializer": {"class_name": "Zeros", "config": {}}, "kernel_size": [1, 1], "bias_regularizer": null, "data_format": "channels_last", "kernel_initializer": {"class_name": "VarianceScaling", "config": {"scale": 1.0, "mode": "fan_avg", "distribution": "uniform", "seed": null}}, "filters": 192, "use_bias": false, "name": "conv2d_94", "activation": "linear", "kernel_constraint": null, "kernel_regularizer": null, "strides": [1, 1], "padding": "same", "dilation_rate": [1, 1], "bias_constraint": null, "trainable": true, "activity_regularizer": null}, "inbound_nodes": [[["average_pooling2d_9", 0, 0, {}]]], "class_name": "Conv2D"}, {"name": "batch_normalization_86", "config": {"scale": false, "axis": 3, "gamma_regularizer": null, "moving_mean_initializer": {"class_name": "Zeros", "config": {}}, "beta_constraint": null, "gamma_constraint": null, "moving_variance_initializer": {"class_name": "Ones", "config": {}}, "name": "batch_normalization_86", "beta_initializer": {"class_name": "Zeros", "config": {}}, "momentum": 0.99, "gamma_initializer": {"class_name": "Ones", "config": {}}, "beta_regularizer": null, "trainable": true, "epsilon": 0.001, "center": true}, "inbound_nodes": [[["conv2d_86", 0, 0, {}]]], "class_name": "BatchNormalization"}, {"name": "activation_88", "config": {"activation": "relu", "trainable": true, "name": "activation_88"}, "inbound_nodes": [[["batch_normalization_88", 0, 0, {}]]], "class_name": "Activation"}, {"name": "activation_89", "config": {"activation": "relu", "trainable": true, "name": "activation_89"}, "inbound_nodes": [[["batch_normalization_89", 0, 0, {}]]], "class_name": "Activation"}, {"name": "activation_92", "config": {"activation": "relu", "trainable": true, "name": "activation_92"}, "inbound_nodes": [[["batch_normalization_92", 0, 0, {}]]], "class_name": "Activation"}, {"name": "activation_93", "config": {"activation": "relu", "trainable": true, "name": "activation_93"}, "inbound_nodes": [[["batch_normalization_93", 0, 0, {}]]], "class_name": "Activation"}, {"name": "batch_normalization_94", "config": {"scale": false, "axis": 3, "gamma_regularizer": null, "moving_mean_initializer": {"class_name": "Zeros", "config": {}}, "beta_constraint": null, "gamma_constraint": null, "moving_variance_initializer": {"class_name": "Ones", "config": {}}, "name": "batch_normalization_94", "beta_initializer": {"class_name": "Zeros", "config": {}}, "momentum": 0.99, "gamma_initializer": {"class_name": "Ones", "config": {}}, "beta_regularizer": null, "trainable": true, "epsilon": 0.001, "center": true}, "inbound_nodes": [[["conv2d_94", 0, 0, {}]]], "class_name": "BatchNormalization"}, {"name": "activation_86", "config": {"activation": "relu", "trainable": true, "name": "activation_86"}, "inbound_nodes": [[["batch_normalization_86", 0, 0, {}]]], "class_name": "Activation"}, {"name": "mixed9_1", "config": {"axis": 3, "trainable": true, "name": "mixed9_1"}, "inbound_nodes": [[["activation_88", 0, 0, {}], ["activation_89", 0, 0, {}]]], "class_name": "Concatenate"}, {"name": "concatenate_2", "config": {"axis": 3, "trainable": true, "name": "concatenate_2"}, "inbound_nodes": [[["activation_92", 0, 0, {}], ["activation_93", 0, 0, {}]]], "class_name": "Concatenate"}, {"name": "activation_94", "config": {"activation": "relu", "trainable": true, "name": "activation_94"}, "inbound_nodes": [[["batch_normalization_94", 0, 0, {}]]], "class_name": "Activation"}, {"name": "mixed10", "config": {"axis": 3, "trainable": true, "name": "mixed10"}, "inbound_nodes": [[["activation_86", 0, 0, {}], ["mixed9_1", 0, 0, {}], ["concatenate_2", 0, 0, {}], ["activation_94", 0, 0, {}]]], "class_name": "Concatenate"}, {"name": "global_average_pooling2d_1", "config": {"data_format": "channels_last", "trainable": true, "name": "global_average_pooling2d_1"}, "inbound_nodes": [[["mixed10", 0, 0, {}]]], "class_name": "GlobalAveragePooling2D"}, {"name": "dense_1", "config": {"activation": "linear", "bias_regularizer": null, "activity_regularizer": null, "units": 152, "kernel_initializer": {"class_name": "VarianceScaling", "config": {"scale": 1.0, "mode": "fan_avg", "distribution": "uniform", "seed": null}}, "use_bias": true, "name": "dense_1", "bias_initializer": {"class_name": "Zeros", "config": {}}, "kernel_constraint": null, "kernel_regularizer": null, "bias_constraint": null, "trainable": true}, "inbound_nodes": [[["global_average_pooling2d_1", 0, 0, {}]]], "class_name": "Dense"}]}, "class_name": "Model"}