{"keras_version": "2.0.9", "backend": "tensorflow", "class_name": "Model", "config": {"output_layers": [["dense_346", 0, 0]], "layers": [{"class_name": "InputLayer", "inbound_nodes": [], "config": {"batch_input_shape": [null, null, null, 3], "sparse": false, "name": "input_15", "dtype": "float32"}, "name": "input_15"}, {"class_name": "Conv2D", "inbound_nodes": [[["input_15", 0, 0, {}]]], "config": {"padding": "valid", "filters": 32, "name": "conv2d_941", "dilation_rate": [1, 1], "bias_constraint": null, "bias_initializer": {"class_name": "Zeros", "config": {}}, "data_format": "channels_last", "strides": [2, 2], "kernel_regularizer": null, "kernel_initializer": {"class_name": "VarianceScaling", "config": {"seed": null, "mode": "fan_avg", "distribution": "uniform", "scale": 1.0}}, "activity_regularizer": null, "kernel_constraint": null, "trainable": false, "activation": "linear", "use_bias": false, "bias_regularizer": null, "kernel_size": [3, 3]}, "name": "conv2d_941"}, {"class_name": "BatchNormalization", "inbound_nodes": [[["conv2d_941", 0, 0, {}]]], "config": {"beta_initializer": {"class_name": "Zeros", "config": {}}, "name": "batch_normalization_941", "epsilon": 0.001, "axis": 3, "moving_mean_initializer": {"class_name": "Zeros", "config": {}}, "scale": false, "center": true, "beta_regularizer": null, "gamma_regularizer": null, "momentum": 0.99, "gamma_constraint": null, "trainable": false, "moving_variance_initializer": {"class_name": "Ones", "config": {}}, "beta_constraint": null, "gamma_initializer": {"class_name": "Ones", "config": {}}}, "name": "batch_normalization_941"}, {"class_name": "Activation", "inbound_nodes": [[["batch_normalization_941", 0, 0, {}]]], "config": {"trainable": false, "activation": "relu", "name": "activation_941"}, "name": "activation_941"}, {"class_name": "Conv2D", "inbound_nodes": [[["activation_941", 0, 0, {}]]], "config": {"padding": "valid", "filters": 32, "name": "conv2d_942", "dilation_rate": [1, 1], "bias_constraint": null, "bias_initializer": {"class_name": "Zeros", "config": {}}, "data_format": "channels_last", "strides": [1, 1], "kernel_regularizer": null, "kernel_initializer": {"class_name": "VarianceScaling", "config": {"seed": null, "mode": "fan_avg", "distribution": "uniform", "scale": 1.0}}, "activity_regularizer": null, "kernel_constraint": null, "trainable": false, "activation": "linear", "use_bias": false, "bias_regularizer": null, "kernel_size": [3, 3]}, "name": "conv2d_942"}, {"class_name": "BatchNormalization", "inbound_nodes": [[["conv2d_942", 0, 0, {}]]], "config": {"beta_initializer": {"class_name": "Zeros", "config": {}}, "name": "batch_normalization_942", "epsilon": 0.001, "axis": 3, "moving_mean_initializer": {"class_name": "Zeros", "config": {}}, "scale": false, "center": true, "beta_regularizer": null, "gamma_regularizer": null, "momentum": 0.99, "gamma_constraint": null, "trainable": false, "moving_variance_initializer": {"class_name": "Ones", "config": {}}, "beta_constraint": null, "gamma_initializer": {"class_name": "Ones", "config": {}}}, "name": "batch_normalization_942"}, {"class_name": "Activation", "inbound_nodes": [[["batch_normalization_942", 0, 0, {}]]], "config": {"trainable": false, "activation": "relu", "name": "activation_942"}, "name": "activation_942"}, {"class_name": "Conv2D", "inbound_nodes": [[["activation_942", 0, 0, {}]]], "config": {"padding": "same", "filters": 64, "name": "conv2d_943", "dilation_rate": [1, 1], "bias_constraint": null, "bias_initializer": {"class_name": "Zeros", "config": {}}, "data_format": "channels_last", "strides": [1, 1], "kernel_regularizer": null, "kernel_initializer": {"class_name": "VarianceScaling", "config": {"seed": null, "mode": "fan_avg", "distribution": "uniform", "scale": 1.0}}, "activity_regularizer": null, "kernel_constraint": null, "trainable": false, "activation": "linear", "use_bias": false, "bias_regularizer": null, "kernel_size": [3, 3]}, "name": "conv2d_943"}, {"class_name": "BatchNormalization", "inbound_nodes": [[["conv2d_943", 0, 0, {}]]], "config": {"beta_initializer": {"class_name": "Zeros", "config": {}}, "name": "batch_normalization_943", "epsilon": 0.001, "axis": 3, "moving_mean_initializer": {"class_name": "Zeros", "config": {}}, "scale": false, "center": true, "beta_regularizer": null, "gamma_regularizer": null, "momentum": 0.99, "gamma_constraint": null, "trainable": false, "moving_variance_initializer": {"class_name": "Ones", "config": {}}, "beta_constraint": null, "gamma_initializer": {"class_name": "Ones", "config": {}}}, "name": "batch_normalization_943"}, {"class_name": "Activation", "inbound_nodes": [[["batch_normalization_943", 0, 0, {}]]], "config": {"trainable": false, "activation": "relu", "name": "activation_943"}, "name": "activation_943"}, {"class_name": "MaxPooling2D", "inbound_nodes": [[["activation_943", 0, 0, {}]]], "config": {"padding": "valid", "pool_size": [3, 3], "name": "max_pooling2d_41", "trainable": false, "strides": [2, 2], "data_format": "channels_last"}, "name": "max_pooling2d_41"}, {"class_name": "Conv2D", "inbound_nodes": [[["max_pooling2d_41", 0, 0, {}]]], "config": {"padding": "valid", "filters": 80, "name": "conv2d_944", "dilation_rate": [1, 1], "bias_constraint": null, "bias_initializer": {"class_name": "Zeros", "config": {}}, "data_format": "channels_last", "strides": [1, 1], "kernel_regularizer": null, "kernel_initializer": {"class_name": "VarianceScaling", "config": {"seed": null, "mode": "fan_avg", "distribution": "uniform", "scale": 1.0}}, "activity_regularizer": null, "kernel_constraint": null, "trainable": false, "activation": "linear", "use_bias": false, "bias_regularizer": null, "kernel_size": [1, 1]}, "name": "conv2d_944"}, {"class_name": "BatchNormalization", "inbound_nodes": [[["conv2d_944", 0, 0, {}]]], "config": {"beta_initializer": {"class_name": "Zeros", "config": {}}, "name": "batch_normalization_944", "epsilon": 0.001, "axis": 3, "moving_mean_initializer": {"class_name": "Zeros", "config": {}}, "scale": false, "center": true, "beta_regularizer": null, "gamma_regularizer": null, "momentum": 0.99, "gamma_constraint": null, "trainable": false, "moving_variance_initializer": {"class_name": "Ones", "config": {}}, "beta_constraint": null, "gamma_initializer": {"class_name": "Ones", "config": {}}}, "name": "batch_normalization_944"}, {"class_name": "Activation", "inbound_nodes": [[["batch_normalization_944", 0, 0, {}]]], "config": {"trainable": false, "activation": "relu", "name": "activation_944"}, "name": "activation_944"}, {"class_name": "Conv2D", "inbound_nodes": [[["activation_944", 0, 0, {}]]], "config": {"padding": "valid", "filters": 192, "name": "conv2d_945", "dilation_rate": [1, 1], "bias_constraint": null, "bias_initializer": {"class_name": "Zeros", "config": {}}, "data_format": "channels_last", "strides": [1, 1], "kernel_regularizer": null, "kernel_initializer": {"class_name": "VarianceScaling", "config": {"seed": null, "mode": "fan_avg", "distribution": "uniform", "scale": 1.0}}, "activity_regularizer": null, "kernel_constraint": null, "trainable": false, "activation": "linear", "use_bias": false, "bias_regularizer": null, "kernel_size": [3, 3]}, "name": "conv2d_945"}, {"class_name": "BatchNormalization", "inbound_nodes": [[["conv2d_945", 0, 0, {}]]], "config": {"beta_initializer": {"class_name": "Zeros", "config": {}}, "name": "batch_normalization_945", "epsilon": 0.001, "axis": 3, "moving_mean_initializer": {"class_name": "Zeros", "config": {}}, "scale": false, "center": true, "beta_regularizer": null, "gamma_regularizer": null, "momentum": 0.99, "gamma_constraint": null, "trainable": false, "moving_variance_initializer": {"class_name": "Ones", "config": {}}, "beta_constraint": null, "gamma_initializer": {"class_name": "Ones", "config": {}}}, "name": "batch_normalization_945"}, {"class_name": "Activation", "inbound_nodes": [[["batch_normalization_945", 0, 0, {}]]], "config": {"trainable": false, "activation": "relu", "name": "activation_945"}, "name": "activation_945"}, {"class_name": "MaxPooling2D", "inbound_nodes": [[["activation_945", 0, 0, {}]]], "config": {"padding": "valid", "pool_size": [3, 3], "name": "max_pooling2d_42", "trainable": false, "strides": [2, 2], "data_format": "channels_last"}, "name": "max_pooling2d_42"}, {"class_name": "Conv2D", "inbound_nodes": [[["max_pooling2d_42", 0, 0, {}]]], "config": {"padding": "same", "filters": 64, "name": "conv2d_949", "dilation_rate": [1, 1], "bias_constraint": null, "bias_initializer": {"class_name": "Zeros", "config": {}}, "data_format": "channels_last", "strides": [1, 1], "kernel_regularizer": null, "kernel_initializer": {"class_name": "VarianceScaling", "config": {"seed": null, "mode": "fan_avg", "distribution": "uniform", "scale": 1.0}}, "activity_regularizer": null, "kernel_constraint": null, "trainable": false, "activation": "linear", "use_bias": false, "bias_regularizer": null, "kernel_size": [1, 1]}, "name": "conv2d_949"}, {"class_name": "BatchNormalization", "inbound_nodes": [[["conv2d_949", 0, 0, {}]]], "config": {"beta_initializer": {"class_name": "Zeros", "config": {}}, "name": "batch_normalization_949", "epsilon": 0.001, "axis": 3, "moving_mean_initializer": {"class_name": "Zeros", "config": {}}, "scale": false, "center": true, "beta_regularizer": null, "gamma_regularizer": null, "momentum": 0.99, "gamma_constraint": null, "trainable": false, "moving_variance_initializer": {"class_name": "Ones", "config": {}}, "beta_constraint": null, "gamma_initializer": {"class_name": "Ones", "config": {}}}, "name": "batch_normalization_949"}, {"class_name": "Activation", "inbound_nodes": [[["batch_normalization_949", 0, 0, {}]]], "config": {"trainable": false, "activation": "relu", "name": "activation_949"}, "name": "activation_949"}, {"class_name": "Conv2D", "inbound_nodes": [[["max_pooling2d_42", 0, 0, {}]]], "config": {"padding": "same", "filters": 48, "name": "conv2d_947", "dilation_rate": [1, 1], "bias_constraint": null, "bias_initializer": {"class_name": "Zeros", "config": {}}, "data_format": "channels_last", "strides": [1, 1], "kernel_regularizer": null, "kernel_initializer": {"class_name": "VarianceScaling", "config": {"seed": null, "mode": "fan_avg", "distribution": "uniform", "scale": 1.0}}, "activity_regularizer": null, "kernel_constraint": null, "trainable": false, "activation": "linear", "use_bias": false, "bias_regularizer": null, "kernel_size": [1, 1]}, "name": "conv2d_947"}, {"class_name": "Conv2D", "inbound_nodes": [[["activation_949", 0, 0, {}]]], "config": {"padding": "same", "filters": 96, "name": "conv2d_950", "dilation_rate": [1, 1], "bias_constraint": null, "bias_initializer": {"class_name": "Zeros", "config": {}}, "data_format": "channels_last", "strides": [1, 1], "kernel_regularizer": null, "kernel_initializer": {"class_name": "VarianceScaling", "config": {"seed": null, "mode": "fan_avg", "distribution": "uniform", "scale": 1.0}}, "activity_regularizer": null, "kernel_constraint": null, "trainable": false, "activation": "linear", "use_bias": false, "bias_regularizer": null, "kernel_size": [3, 3]}, "name": "conv2d_950"}, {"class_name": "BatchNormalization", "inbound_nodes": [[["conv2d_947", 0, 0, {}]]], "config": {"beta_initializer": {"class_name": "Zeros", "config": {}}, "name": "batch_normalization_947", "epsilon": 0.001, "axis": 3, "moving_mean_initializer": {"class_name": "Zeros", "config": {}}, "scale": false, "center": true, "beta_regularizer": null, "gamma_regularizer": null, "momentum": 0.99, "gamma_constraint": null, "trainable": false, "moving_variance_initializer": {"class_name": "Ones", "config": {}}, "beta_constraint": null, "gamma_initializer": {"class_name": "Ones", "config": {}}}, "name": "batch_normalization_947"}, {"class_name": "BatchNormalization", "inbound_nodes": [[["conv2d_950", 0, 0, {}]]], "config": {"beta_initializer": {"class_name": "Zeros", "config": {}}, "name": "batch_normalization_950", "epsilon": 0.001, "axis": 3, "moving_mean_initializer": {"class_name": "Zeros", "config": {}}, "scale": false, "center": true, "beta_regularizer": null, "gamma_regularizer": null, "momentum": 0.99, "gamma_constraint": null, "trainable": false, "moving_variance_initializer": {"class_name": "Ones", "config": {}}, "beta_constraint": null, "gamma_initializer": {"class_name": "Ones", "config": {}}}, "name": "batch_normalization_950"}, {"class_name": "Activation", "inbound_nodes": [[["batch_normalization_947", 0, 0, {}]]], "config": {"trainable": false, "activation": "relu", "name": "activation_947"}, "name": "activation_947"}, {"class_name": "Activation", "inbound_nodes": [[["batch_normalization_950", 0, 0, {}]]], "config": {"trainable": false, "activation": "relu", "name": "activation_950"}, "name": "activation_950"}, {"class_name": "AveragePooling2D", "inbound_nodes": [[["max_pooling2d_42", 0, 0, {}]]], "config": {"padding": "same", "pool_size": [3, 3], "name": "average_pooling2d_91", "trainable": false, "strides": [1, 1], "data_format": "channels_last"}, "name": "average_pooling2d_91"}, {"class_name": "Conv2D", "inbound_nodes": [[["max_pooling2d_42", 0, 0, {}]]], "config": {"padding": "same", "filters": 64, "name": "conv2d_946", "dilation_rate": [1, 1], "bias_constraint": null, "bias_initializer": {"class_name": "Zeros", "config": {}}, "data_format": "channels_last", "strides": [1, 1], "kernel_regularizer": null, "kernel_initializer": {"class_name": "VarianceScaling", "config": {"seed": null, "mode": "fan_avg", "distribution": "uniform", "scale": 1.0}}, "activity_regularizer": null, "kernel_constraint": null, "trainable": false, "activation": "linear", "use_bias": false, "bias_regularizer": null, "kernel_size": [1, 1]}, "name": "conv2d_946"}, {"class_name": "Conv2D", "inbound_nodes": [[["activation_947", 0, 0, {}]]], "config": {"padding": "same", "filters": 64, "name": "conv2d_948", "dilation_rate": [1, 1], "bias_constraint": null, "bias_initializer": {"class_name": "Zeros", "config": {}}, "data_format": "channels_last", "strides": [1, 1], "kernel_regularizer": null, "kernel_initializer": {"class_name": "VarianceScaling", "config": {"seed": null, "mode": "fan_avg", "distribution": "uniform", "scale": 1.0}}, "activity_regularizer": null, "kernel_constraint": null, "trainable": false, "activation": "linear", "use_bias": false, "bias_regularizer": null, "kernel_size": [5, 5]}, "name": "conv2d_948"}, {"class_name": "Conv2D", "inbound_nodes": [[["activation_950", 0, 0, {}]]], "config": {"padding": "same", "filters": 96, "name": "conv2d_951", "dilation_rate": [1, 1], "bias_constraint": null, "bias_initializer": {"class_name": "Zeros", "config": {}}, "data_format": "channels_last", "strides": [1, 1], "kernel_regularizer": null, "kernel_initializer": {"class_name": "VarianceScaling", "config": {"seed": null, "mode": "fan_avg", "distribution": "uniform", "scale": 1.0}}, "activity_regularizer": null, "kernel_constraint": null, "trainable": false, "activation": "linear", "use_bias": false, "bias_regularizer": null, "kernel_size": [3, 3]}, "name": "conv2d_951"}, {"class_name": "Conv2D", "inbound_nodes": [[["average_pooling2d_91", 0, 0, {}]]], "config": {"padding": "same", "filters": 32, "name": "conv2d_952", "dilation_rate": [1, 1], "bias_constraint": null, "bias_initializer": {"class_name": "Zeros", "config": {}}, "data_format": "channels_last", "strides": [1, 1], "kernel_regularizer": null, "kernel_initializer": {"class_name": "VarianceScaling", "config": {"seed": null, "mode": "fan_avg", "distribution": "uniform", "scale": 1.0}}, "activity_regularizer": null, "kernel_constraint": null, "trainable": false, "activation": "linear", "use_bias": false, "bias_regularizer": null, "kernel_size": [1, 1]}, "name": "conv2d_952"}, {"class_name": "BatchNormalization", "inbound_nodes": [[["conv2d_946", 0, 0, {}]]], "config": {"beta_initializer": {"class_name": "Zeros", "config": {}}, "name": "batch_normalization_946", "epsilon": 0.001, "axis": 3, "moving_mean_initializer": {"class_name": "Zeros", "config": {}}, "scale": false, "center": true, "beta_regularizer": null, "gamma_regularizer": null, "momentum": 0.99, "gamma_constraint": null, "trainable": false, "moving_variance_initializer": {"class_name": "Ones", "config": {}}, "beta_constraint": null, "gamma_initializer": {"class_name": "Ones", "config": {}}}, "name": "batch_normalization_946"}, {"class_name": "BatchNormalization", "inbound_nodes": [[["conv2d_948", 0, 0, {}]]], "config": {"beta_initializer": {"class_name": "Zeros", "config": {}}, "name": "batch_normalization_948", "epsilon": 0.001, "axis": 3, "moving_mean_initializer": {"class_name": "Zeros", "config": {}}, "scale": false, "center": true, "beta_regularizer": null, "gamma_regularizer": null, "momentum": 0.99, "gamma_constraint": null, "trainable": false, "moving_variance_initializer": {"class_name": "Ones", "config": {}}, "beta_constraint": null, "gamma_initializer": {"class_name": "Ones", "config": {}}}, "name": "batch_normalization_948"}, {"class_name": "BatchNormalization", "inbound_nodes": [[["conv2d_951", 0, 0, {}]]], "config": {"beta_initializer": {"class_name": "Zeros", "config": {}}, "name": "batch_normalization_951", "epsilon": 0.001, "axis": 3, "moving_mean_initializer": {"class_name": "Zeros", "config": {}}, "scale": false, "center": true, "beta_regularizer": null, "gamma_regularizer": null, "momentum": 0.99, "gamma_constraint": null, "trainable": false, "moving_variance_initializer": {"class_name": "Ones", "config": {}}, "beta_constraint": null, "gamma_initializer": {"class_name": "Ones", "config": {}}}, "name": "batch_normalization_951"}, {"class_name": "BatchNormalization", "inbound_nodes": [[["conv2d_952", 0, 0, {}]]], "config": {"beta_initializer": {"class_name": "Zeros", "config": {}}, "name": "batch_normalization_952", "epsilon": 0.001, "axis": 3, "moving_mean_initializer": {"class_name": "Zeros", "config": {}}, "scale": false, "center": true, "beta_regularizer": null, "gamma_regularizer": null, "momentum": 0.99, "gamma_constraint": null, "trainable": false, "moving_variance_initializer": {"class_name": "Ones", "config": {}}, "beta_constraint": null, "gamma_initializer": {"class_name": "Ones", "config": {}}}, "name": "batch_normalization_952"}, {"class_name": "Activation", "inbound_nodes": [[["batch_normalization_946", 0, 0, {}]]], "config": {"trainable": false, "activation": "relu", "name": "activation_946"}, "name": "activation_946"}, {"class_name": "Activation", "inbound_nodes": [[["batch_normalization_948", 0, 0, {}]]], "config": {"trainable": false, "activation": "relu", "name": "activation_948"}, "name": "activation_948"}, {"class_name": "Activation", "inbound_nodes": [[["batch_normalization_951", 0, 0, {}]]], "config": {"trainable": false, "activation": "relu", "name": "activation_951"}, "name": "activation_951"}, {"class_name": "Activation", "inbound_nodes": [[["batch_normalization_952", 0, 0, {}]]], "config": {"trainable": false, "activation": "relu", "name": "activation_952"}, "name": "activation_952"}, {"class_name": "Concatenate", "inbound_nodes": [[["activation_946", 0, 0, {}], ["activation_948", 0, 0, {}], ["activation_951", 0, 0, {}], ["activation_952", 0, 0, {}]]], "config": {"trainable": false, "name": "mixed0", "axis": 3}, "name": "mixed0"}, {"class_name": "Conv2D", "inbound_nodes": [[["mixed0", 0, 0, {}]]], "config": {"padding": "same", "filters": 64, "name": "conv2d_956", "dilation_rate": [1, 1], "bias_constraint": null, "bias_initializer": {"class_name": "Zeros", "config": {}}, "data_format": "channels_last", "strides": [1, 1], "kernel_regularizer": null, "kernel_initializer": {"class_name": "VarianceScaling", "config": {"seed": null, "mode": "fan_avg", "distribution": "uniform", "scale": 1.0}}, "activity_regularizer": null, "kernel_constraint": null, "trainable": false, "activation": "linear", "use_bias": false, "bias_regularizer": null, "kernel_size": [1, 1]}, "name": "conv2d_956"}, {"class_name": "BatchNormalization", "inbound_nodes": [[["conv2d_956", 0, 0, {}]]], "config": {"beta_initializer": {"class_name": "Zeros", "config": {}}, "name": "batch_normalization_956", "epsilon": 0.001, "axis": 3, "moving_mean_initializer": {"class_name": "Zeros", "config": {}}, "scale": false, "center": true, "beta_regularizer": null, "gamma_regularizer": null, "momentum": 0.99, "gamma_constraint": null, "trainable": false, "moving_variance_initializer": {"class_name": "Ones", "config": {}}, "beta_constraint": null, "gamma_initializer": {"class_name": "Ones", "config": {}}}, "name": "batch_normalization_956"}, {"class_name": "Activation", "inbound_nodes": [[["batch_normalization_956", 0, 0, {}]]], "config": {"trainable": false, "activation": "relu", "name": "activation_956"}, "name": "activation_956"}, {"class_name": "Conv2D", "inbound_nodes": [[["mixed0", 0, 0, {}]]], "config": {"padding": "same", "filters": 48, "name": "conv2d_954", "dilation_rate": [1, 1], "bias_constraint": null, "bias_initializer": {"class_name": "Zeros", "config": {}}, "data_format": "channels_last", "strides": [1, 1], "kernel_regularizer": null, "kernel_initializer": {"class_name": "VarianceScaling", "config": {"seed": null, "mode": "fan_avg", "distribution": "uniform", "scale": 1.0}}, "activity_regularizer": null, "kernel_constraint": null, "trainable": false, "activation": "linear", "use_bias": false, "bias_regularizer": null, "kernel_size": [1, 1]}, "name": "conv2d_954"}, {"class_name": "Conv2D", "inbound_nodes": [[["activation_956", 0, 0, {}]]], "config": {"padding": "same", "filters": 96, "name": "conv2d_957", "dilation_rate": [1, 1], "bias_constraint": null, "bias_initializer": {"class_name": "Zeros", "config": {}}, "data_format": "channels_last", "strides": [1, 1], "kernel_regularizer": null, "kernel_initializer": {"class_name": "VarianceScaling", "config": {"seed": null, "mode": "fan_avg", "distribution": "uniform", "scale": 1.0}}, "activity_regularizer": null, "kernel_constraint": null, "trainable": false, "activation": "linear", "use_bias": false, "bias_regularizer": null, "kernel_size": [3, 3]}, "name": "conv2d_957"}, {"class_name": "BatchNormalization", "inbound_nodes": [[["conv2d_954", 0, 0, {}]]], "config": {"beta_initializer": {"class_name": "Zeros", "config": {}}, "name": "batch_normalization_954", "epsilon": 0.001, "axis": 3, "moving_mean_initializer": {"class_name": "Zeros", "config": {}}, "scale": false, "center": true, "beta_regularizer": null, "gamma_regularizer": null, "momentum": 0.99, "gamma_constraint": null, "trainable": false, "moving_variance_initializer": {"class_name": "Ones", "config": {}}, "beta_constraint": null, "gamma_initializer": {"class_name": "Ones", "config": {}}}, "name": "batch_normalization_954"}, {"class_name": "BatchNormalization", "inbound_nodes": [[["conv2d_957", 0, 0, {}]]], "config": {"beta_initializer": {"class_name": "Zeros", "config": {}}, "name": "batch_normalization_957", "epsilon": 0.001, "axis": 3, "moving_mean_initializer": {"class_name": "Zeros", "config": {}}, "scale": false, "center": true, "beta_regularizer": null, "gamma_regularizer": null, "momentum": 0.99, "gamma_constraint": null, "trainable": false, "moving_variance_initializer": {"class_name": "Ones", "config": {}}, "beta_constraint": null, "gamma_initializer": {"class_name": "Ones", "config": {}}}, "name": "batch_normalization_957"}, {"class_name": "Activation", "inbound_nodes": [[["batch_normalization_954", 0, 0, {}]]], "config": {"trainable": false, "activation": "relu", "name": "activation_954"}, "name": "activation_954"}, {"class_name": "Activation", "inbound_nodes": [[["batch_normalization_957", 0, 0, {}]]], "config": {"trainable": false, "activation": "relu", "name": "activation_957"}, "name": "activation_957"}, {"class_name": "AveragePooling2D", "inbound_nodes": [[["mixed0", 0, 0, {}]]], "config": {"padding": "same", "pool_size": [3, 3], "name": "average_pooling2d_92", "trainable": false, "strides": [1, 1], "data_format": "channels_last"}, "name": "average_pooling2d_92"}, {"class_name": "Conv2D", "inbound_nodes": [[["mixed0", 0, 0, {}]]], "config": {"padding": "same", "filters": 64, "name": "conv2d_953", "dilation_rate": [1, 1], "bias_constraint": null, "bias_initializer": {"class_name": "Zeros", "config": {}}, "data_format": "channels_last", "strides": [1, 1], "kernel_regularizer": null, "kernel_initializer": {"class_name": "VarianceScaling", "config": {"seed": null, "mode": "fan_avg", "distribution": "uniform", "scale": 1.0}}, "activity_regularizer": null, "kernel_constraint": null, "trainable": false, "activation": "linear", "use_bias": false, "bias_regularizer": null, "kernel_size": [1, 1]}, "name": "conv2d_953"}, {"class_name": "Conv2D", "inbound_nodes": [[["activation_954", 0, 0, {}]]], "config": {"padding": "same", "filters": 64, "name": "conv2d_955", "dilation_rate": [1, 1], "bias_constraint": null, "bias_initializer": {"class_name": "Zeros", "config": {}}, "data_format": "channels_last", "strides": [1, 1], "kernel_regularizer": null, "kernel_initializer": {"class_name": "VarianceScaling", "config": {"seed": null, "mode": "fan_avg", "distribution": "uniform", "scale": 1.0}}, "activity_regularizer": null, "kernel_constraint": null, "trainable": false, "activation": "linear", "use_bias": false, "bias_regularizer": null, "kernel_size": [5, 5]}, "name": "conv2d_955"}, {"class_name": "Conv2D", "inbound_nodes": [[["activation_957", 0, 0, {}]]], "config": {"padding": "same", "filters": 96, "name": "conv2d_958", "dilation_rate": [1, 1], "bias_constraint": null, "bias_initializer": {"class_name": "Zeros", "config": {}}, "data_format": "channels_last", "strides": [1, 1], "kernel_regularizer": null, "kernel_initializer": {"class_name": "VarianceScaling", "config": {"seed": null, "mode": "fan_avg", "distribution": "uniform", "scale": 1.0}}, "activity_regularizer": null, "kernel_constraint": null, "trainable": false, "activation": "linear", "use_bias": false, "bias_regularizer": null, "kernel_size": [3, 3]}, "name": "conv2d_958"}, {"class_name": "Conv2D", "inbound_nodes": [[["average_pooling2d_92", 0, 0, {}]]], "config": {"padding": "same", "filters": 64, "name": "conv2d_959", "dilation_rate": [1, 1], "bias_constraint": null, "bias_initializer": {"class_name": "Zeros", "config": {}}, "data_format": "channels_last", "strides": [1, 1], "kernel_regularizer": null, "kernel_initializer": {"class_name": "VarianceScaling", "config": {"seed": null, "mode": "fan_avg", "distribution": "uniform", "scale": 1.0}}, "activity_regularizer": null, "kernel_constraint": null, "trainable": false, "activation": "linear", "use_bias": false, "bias_regularizer": null, "kernel_size": [1, 1]}, "name": "conv2d_959"}, {"class_name": "BatchNormalization", "inbound_nodes": [[["conv2d_953", 0, 0, {}]]], "config": {"beta_initializer": {"class_name": "Zeros", "config": {}}, "name": "batch_normalization_953", "epsilon": 0.001, "axis": 3, "moving_mean_initializer": {"class_name": "Zeros", "config": {}}, "scale": false, "center": true, "beta_regularizer": null, "gamma_regularizer": null, "momentum": 0.99, "gamma_constraint": null, "trainable": false, "moving_variance_initializer": {"class_name": "Ones", "config": {}}, "beta_constraint": null, "gamma_initializer": {"class_name": "Ones", "config": {}}}, "name": "batch_normalization_953"}, {"class_name": "BatchNormalization", "inbound_nodes": [[["conv2d_955", 0, 0, {}]]], "config": {"beta_initializer": {"class_name": "Zeros", "config": {}}, "name": "batch_normalization_955", "epsilon": 0.001, "axis": 3, "moving_mean_initializer": {"class_name": "Zeros", "config": {}}, "scale": false, "center": true, "beta_regularizer": null, "gamma_regularizer": null, "momentum": 0.99, "gamma_constraint": null, "trainable": false, "moving_variance_initializer": {"class_name": "Ones", "config": {}}, "beta_constraint": null, "gamma_initializer": {"class_name": "Ones", "config": {}}}, "name": "batch_normalization_955"}, {"class_name": "BatchNormalization", "inbound_nodes": [[["conv2d_958", 0, 0, {}]]], "config": {"beta_initializer": {"class_name": "Zeros", "config": {}}, "name": "batch_normalization_958", "epsilon": 0.001, "axis": 3, "moving_mean_initializer": {"class_name": "Zeros", "config": {}}, "scale": false, "center": true, "beta_regularizer": null, "gamma_regularizer": null, "momentum": 0.99, "gamma_constraint": null, "trainable": false, "moving_variance_initializer": {"class_name": "Ones", "config": {}}, "beta_constraint": null, "gamma_initializer": {"class_name": "Ones", "config": {}}}, "name": "batch_normalization_958"}, {"class_name": "BatchNormalization", "inbound_nodes": [[["conv2d_959", 0, 0, {}]]], "config": {"beta_initializer": {"class_name": "Zeros", "config": {}}, "name": "batch_normalization_959", "epsilon": 0.001, "axis": 3, "moving_mean_initializer": {"class_name": "Zeros", "config": {}}, "scale": false, "center": true, "beta_regularizer": null, "gamma_regularizer": null, "momentum": 0.99, "gamma_constraint": null, "trainable": false, "moving_variance_initializer": {"class_name": "Ones", "config": {}}, "beta_constraint": null, "gamma_initializer": {"class_name": "Ones", "config": {}}}, "name": "batch_normalization_959"}, {"class_name": "Activation", "inbound_nodes": [[["batch_normalization_953", 0, 0, {}]]], "config": {"trainable": false, "activation": "relu", "name": "activation_953"}, "name": "activation_953"}, {"class_name": "Activation", "inbound_nodes": [[["batch_normalization_955", 0, 0, {}]]], "config": {"trainable": false, "activation": "relu", "name": "activation_955"}, "name": "activation_955"}, {"class_name": "Activation", "inbound_nodes": [[["batch_normalization_958", 0, 0, {}]]], "config": {"trainable": false, "activation": "relu", "name": "activation_958"}, "name": "activation_958"}, {"class_name": "Activation", "inbound_nodes": [[["batch_normalization_959", 0, 0, {}]]], "config": {"trainable": false, "activation": "relu", "name": "activation_959"}, "name": "activation_959"}, {"class_name": "Concatenate", "inbound_nodes": [[["activation_953", 0, 0, {}], ["activation_955", 0, 0, {}], ["activation_958", 0, 0, {}], ["activation_959", 0, 0, {}]]], "config": {"trainable": false, "name": "mixed1", "axis": 3}, "name": "mixed1"}, {"class_name": "Conv2D", "inbound_nodes": [[["mixed1", 0, 0, {}]]], "config": {"padding": "same", "filters": 64, "name": "conv2d_963", "dilation_rate": [1, 1], "bias_constraint": null, "bias_initializer": {"class_name": "Zeros", "config": {}}, "data_format": "channels_last", "strides": [1, 1], "kernel_regularizer": null, "kernel_initializer": {"class_name": "VarianceScaling", "config": {"seed": null, "mode": "fan_avg", "distribution": "uniform", "scale": 1.0}}, "activity_regularizer": null, "kernel_constraint": null, "trainable": false, "activation": "linear", "use_bias": false, "bias_regularizer": null, "kernel_size": [1, 1]}, "name": "conv2d_963"}, {"class_name": "BatchNormalization", "inbound_nodes": [[["conv2d_963", 0, 0, {}]]], "config": {"beta_initializer": {"class_name": "Zeros", "config": {}}, "name": "batch_normalization_963", "epsilon": 0.001, "axis": 3, "moving_mean_initializer": {"class_name": "Zeros", "config": {}}, "scale": false, "center": true, "beta_regularizer": null, "gamma_regularizer": null, "momentum": 0.99, "gamma_constraint": null, "trainable": false, "moving_variance_initializer": {"class_name": "Ones", "config": {}}, "beta_constraint": null, "gamma_initializer": {"class_name": "Ones", "config": {}}}, "name": "batch_normalization_963"}, {"class_name": "Activation", "inbound_nodes": [[["batch_normalization_963", 0, 0, {}]]], "config": {"trainable": false, "activation": "relu", "name": "activation_963"}, "name": "activation_963"}, {"class_name": "Conv2D", "inbound_nodes": [[["mixed1", 0, 0, {}]]], "config": {"padding": "same", "filters": 48, "name": "conv2d_961", "dilation_rate": [1, 1], "bias_constraint": null, "bias_initializer": {"class_name": "Zeros", "config": {}}, "data_format": "channels_last", "strides": [1, 1], "kernel_regularizer": null, "kernel_initializer": {"class_name": "VarianceScaling", "config": {"seed": null, "mode": "fan_avg", "distribution": "uniform", "scale": 1.0}}, "activity_regularizer": null, "kernel_constraint": null, "trainable": false, "activation": "linear", "use_bias": false, "bias_regularizer": null, "kernel_size": [1, 1]}, "name": "conv2d_961"}, {"class_name": "Conv2D", "inbound_nodes": [[["activation_963", 0, 0, {}]]], "config": {"padding": "same", "filters": 96, "name": "conv2d_964", "dilation_rate": [1, 1], "bias_constraint": null, "bias_initializer": {"class_name": "Zeros", "config": {}}, "data_format": "channels_last", "strides": [1, 1], "kernel_regularizer": null, "kernel_initializer": {"class_name": "VarianceScaling", "config": {"seed": null, "mode": "fan_avg", "distribution": "uniform", "scale": 1.0}}, "activity_regularizer": null, "kernel_constraint": null, "trainable": false, "activation": "linear", "use_bias": false, "bias_regularizer": null, "kernel_size": [3, 3]}, "name": "conv2d_964"}, {"class_name": "BatchNormalization", "inbound_nodes": [[["conv2d_961", 0, 0, {}]]], "config": {"beta_initializer": {"class_name": "Zeros", "config": {}}, "name": "batch_normalization_961", "epsilon": 0.001, "axis": 3, "moving_mean_initializer": {"class_name": "Zeros", "config": {}}, "scale": false, "center": true, "beta_regularizer": null, "gamma_regularizer": null, "momentum": 0.99, "gamma_constraint": null, "trainable": false, "moving_variance_initializer": {"class_name": "Ones", "config": {}}, "beta_constraint": null, "gamma_initializer": {"class_name": "Ones", "config": {}}}, "name": "batch_normalization_961"}, {"class_name": "BatchNormalization", "inbound_nodes": [[["conv2d_964", 0, 0, {}]]], "config": {"beta_initializer": {"class_name": "Zeros", "config": {}}, "name": "batch_normalization_964", "epsilon": 0.001, "axis": 3, "moving_mean_initializer": {"class_name": "Zeros", "config": {}}, "scale": false, "center": true, "beta_regularizer": null, "gamma_regularizer": null, "momentum": 0.99, "gamma_constraint": null, "trainable": false, "moving_variance_initializer": {"class_name": "Ones", "config": {}}, "beta_constraint": null, "gamma_initializer": {"class_name": "Ones", "config": {}}}, "name": "batch_normalization_964"}, {"class_name": "Activation", "inbound_nodes": [[["batch_normalization_961", 0, 0, {}]]], "config": {"trainable": false, "activation": "relu", "name": "activation_961"}, "name": "activation_961"}, {"class_name": "Activation", "inbound_nodes": [[["batch_normalization_964", 0, 0, {}]]], "config": {"trainable": false, "activation": "relu", "name": "activation_964"}, "name": "activation_964"}, {"class_name": "AveragePooling2D", "inbound_nodes": [[["mixed1", 0, 0, {}]]], "config": {"padding": "same", "pool_size": [3, 3], "name": "average_pooling2d_93", "trainable": false, "strides": [1, 1], "data_format": "channels_last"}, "name": "average_pooling2d_93"}, {"class_name": "Conv2D", "inbound_nodes": [[["mixed1", 0, 0, {}]]], "config": {"padding": "same", "filters": 64, "name": "conv2d_960", "dilation_rate": [1, 1], "bias_constraint": null, "bias_initializer": {"class_name": "Zeros", "config": {}}, "data_format": "channels_last", "strides": [1, 1], "kernel_regularizer": null, "kernel_initializer": {"class_name": "VarianceScaling", "config": {"seed": null, "mode": "fan_avg", "distribution": "uniform", "scale": 1.0}}, "activity_regularizer": null, "kernel_constraint": null, "trainable": false, "activation": "linear", "use_bias": false, "bias_regularizer": null, "kernel_size": [1, 1]}, "name": "conv2d_960"}, {"class_name": "Conv2D", "inbound_nodes": [[["activation_961", 0, 0, {}]]], "config": {"padding": "same", "filters": 64, "name": "conv2d_962", "dilation_rate": [1, 1], "bias_constraint": null, "bias_initializer": {"class_name": "Zeros", "config": {}}, "data_format": "channels_last", "strides": [1, 1], "kernel_regularizer": null, "kernel_initializer": {"class_name": "VarianceScaling", "config": {"seed": null, "mode": "fan_avg", "distribution": "uniform", "scale": 1.0}}, "activity_regularizer": null, "kernel_constraint": null, "trainable": false, "activation": "linear", "use_bias": false, "bias_regularizer": null, "kernel_size": [5, 5]}, "name": "conv2d_962"}, {"class_name": "Conv2D", "inbound_nodes": [[["activation_964", 0, 0, {}]]], "config": {"padding": "same", "filters": 96, "name": "conv2d_965", "dilation_rate": [1, 1], "bias_constraint": null, "bias_initializer": {"class_name": "Zeros", "config": {}}, "data_format": "channels_last", "strides": [1, 1], "kernel_regularizer": null, "kernel_initializer": {"class_name": "VarianceScaling", "config": {"seed": null, "mode": "fan_avg", "distribution": "uniform", "scale": 1.0}}, "activity_regularizer": null, "kernel_constraint": null, "trainable": false, "activation": "linear", "use_bias": false, "bias_regularizer": null, "kernel_size": [3, 3]}, "name": "conv2d_965"}, {"class_name": "Conv2D", "inbound_nodes": [[["average_pooling2d_93", 0, 0, {}]]], "config": {"padding": "same", "filters": 64, "name": "conv2d_966", "dilation_rate": [1, 1], "bias_constraint": null, "bias_initializer": {"class_name": "Zeros", "config": {}}, "data_format": "channels_last", "strides": [1, 1], "kernel_regularizer": null, "kernel_initializer": {"class_name": "VarianceScaling", "config": {"seed": null, "mode": "fan_avg", "distribution": "uniform", "scale": 1.0}}, "activity_regularizer": null, "kernel_constraint": null, "trainable": false, "activation": "linear", "use_bias": false, "bias_regularizer": null, "kernel_size": [1, 1]}, "name": "conv2d_966"}, {"class_name": "BatchNormalization", "inbound_nodes": [[["conv2d_960", 0, 0, {}]]], "config": {"beta_initializer": {"class_name": "Zeros", "config": {}}, "name": "batch_normalization_960", "epsilon": 0.001, "axis": 3, "moving_mean_initializer": {"class_name": "Zeros", "config": {}}, "scale": false, "center": true, "beta_regularizer": null, "gamma_regularizer": null, "momentum": 0.99, "gamma_constraint": null, "trainable": false, "moving_variance_initializer": {"class_name": "Ones", "config": {}}, "beta_constraint": null, "gamma_initializer": {"class_name": "Ones", "config": {}}}, "name": "batch_normalization_960"}, {"class_name": "BatchNormalization", "inbound_nodes": [[["conv2d_962", 0, 0, {}]]], "config": {"beta_initializer": {"class_name": "Zeros", "config": {}}, "name": "batch_normalization_962", "epsilon": 0.001, "axis": 3, "moving_mean_initializer": {"class_name": "Zeros", "config": {}}, "scale": false, "center": true, "beta_regularizer": null, "gamma_regularizer": null, "momentum": 0.99, "gamma_constraint": null, "trainable": false, "moving_variance_initializer": {"class_name": "Ones", "config": {}}, "beta_constraint": null, "gamma_initializer": {"class_name": "Ones", "config": {}}}, "name": "batch_normalization_962"}, {"class_name": "BatchNormalization", "inbound_nodes": [[["conv2d_965", 0, 0, {}]]], "config": {"beta_initializer": {"class_name": "Zeros", "config": {}}, "name": "batch_normalization_965", "epsilon": 0.001, "axis": 3, "moving_mean_initializer": {"class_name": "Zeros", "config": {}}, "scale": false, "center": true, "beta_regularizer": null, "gamma_regularizer": null, "momentum": 0.99, "gamma_constraint": null, "trainable": false, "moving_variance_initializer": {"class_name": "Ones", "config": {}}, "beta_constraint": null, "gamma_initializer": {"class_name": "Ones", "config": {}}}, "name": "batch_normalization_965"}, {"class_name": "BatchNormalization", "inbound_nodes": [[["conv2d_966", 0, 0, {}]]], "config": {"beta_initializer": {"class_name": "Zeros", "config": {}}, "name": "batch_normalization_966", "epsilon": 0.001, "axis": 3, "moving_mean_initializer": {"class_name": "Zeros", "config": {}}, "scale": false, "center": true, "beta_regularizer": null, "gamma_regularizer": null, "momentum": 0.99, "gamma_constraint": null, "trainable": false, "moving_variance_initializer": {"class_name": "Ones", "config": {}}, "beta_constraint": null, "gamma_initializer": {"class_name": "Ones", "config": {}}}, "name": "batch_normalization_966"}, {"class_name": "Activation", "inbound_nodes": [[["batch_normalization_960", 0, 0, {}]]], "config": {"trainable": false, "activation": "relu", "name": "activation_960"}, "name": "activation_960"}, {"class_name": "Activation", "inbound_nodes": [[["batch_normalization_962", 0, 0, {}]]], "config": {"trainable": false, "activation": "relu", "name": "activation_962"}, "name": "activation_962"}, {"class_name": "Activation", "inbound_nodes": [[["batch_normalization_965", 0, 0, {}]]], "config": {"trainable": false, "activation": "relu", "name": "activation_965"}, "name": "activation_965"}, {"class_name": "Activation", "inbound_nodes": [[["batch_normalization_966", 0, 0, {}]]], "config": {"trainable": false, "activation": "relu", "name": "activation_966"}, "name": "activation_966"}, {"class_name": "Concatenate", "inbound_nodes": [[["activation_960", 0, 0, {}], ["activation_962", 0, 0, {}], ["activation_965", 0, 0, {}], ["activation_966", 0, 0, {}]]], "config": {"trainable": false, "name": "mixed2", "axis": 3}, "name": "mixed2"}, {"class_name": "Conv2D", "inbound_nodes": [[["mixed2", 0, 0, {}]]], "config": {"padding": "same", "filters": 64, "name": "conv2d_968", "dilation_rate": [1, 1], "bias_constraint": null, "bias_initializer": {"class_name": "Zeros", "config": {}}, "data_format": "channels_last", "strides": [1, 1], "kernel_regularizer": null, "kernel_initializer": {"class_name": "VarianceScaling", "config": {"seed": null, "mode": "fan_avg", "distribution": "uniform", "scale": 1.0}}, "activity_regularizer": null, "kernel_constraint": null, "trainable": false, "activation": "linear", "use_bias": false, "bias_regularizer": null, "kernel_size": [1, 1]}, "name": "conv2d_968"}, {"class_name": "BatchNormalization", "inbound_nodes": [[["conv2d_968", 0, 0, {}]]], "config": {"beta_initializer": {"class_name": "Zeros", "config": {}}, "name": "batch_normalization_968", "epsilon": 0.001, "axis": 3, "moving_mean_initializer": {"class_name": "Zeros", "config": {}}, "scale": false, "center": true, "beta_regularizer": null, "gamma_regularizer": null, "momentum": 0.99, "gamma_constraint": null, "trainable": false, "moving_variance_initializer": {"class_name": "Ones", "config": {}}, "beta_constraint": null, "gamma_initializer": {"class_name": "Ones", "config": {}}}, "name": "batch_normalization_968"}, {"class_name": "Activation", "inbound_nodes": [[["batch_normalization_968", 0, 0, {}]]], "config": {"trainable": false, "activation": "relu", "name": "activation_968"}, "name": "activation_968"}, {"class_name": "Conv2D", "inbound_nodes": [[["activation_968", 0, 0, {}]]], "config": {"padding": "same", "filters": 96, "name": "conv2d_969", "dilation_rate": [1, 1], "bias_constraint": null, "bias_initializer": {"class_name": "Zeros", "config": {}}, "data_format": "channels_last", "strides": [1, 1], "kernel_regularizer": null, "kernel_initializer": {"class_name": "VarianceScaling", "config": {"seed": null, "mode": "fan_avg", "distribution": "uniform", "scale": 1.0}}, "activity_regularizer": null, "kernel_constraint": null, "trainable": false, "activation": "linear", "use_bias": false, "bias_regularizer": null, "kernel_size": [3, 3]}, "name": "conv2d_969"}, {"class_name": "BatchNormalization", "inbound_nodes": [[["conv2d_969", 0, 0, {}]]], "config": {"beta_initializer": {"class_name": "Zeros", "config": {}}, "name": "batch_normalization_969", "epsilon": 0.001, "axis": 3, "moving_mean_initializer": {"class_name": "Zeros", "config": {}}, "scale": false, "center": true, "beta_regularizer": null, "gamma_regularizer": null, "momentum": 0.99, "gamma_constraint": null, "trainable": false, "moving_variance_initializer": {"class_name": "Ones", "config": {}}, "beta_constraint": null, "gamma_initializer": {"class_name": "Ones", "config": {}}}, "name": "batch_normalization_969"}, {"class_name": "Activation", "inbound_nodes": [[["batch_normalization_969", 0, 0, {}]]], "config": {"trainable": false, "activation": "relu", "name": "activation_969"}, "name": "activation_969"}, {"class_name": "Conv2D", "inbound_nodes": [[["mixed2", 0, 0, {}]]], "config": {"padding": "valid", "filters": 384, "name": "conv2d_967", "dilation_rate": [1, 1], "bias_constraint": null, "bias_initializer": {"class_name": "Zeros", "config": {}}, "data_format": "channels_last", "strides": [2, 2], "kernel_regularizer": null, "kernel_initializer": {"class_name": "VarianceScaling", "config": {"seed": null, "mode": "fan_avg", "distribution": "uniform", "scale": 1.0}}, "activity_regularizer": null, "kernel_constraint": null, "trainable": false, "activation": "linear", "use_bias": false, "bias_regularizer": null, "kernel_size": [3, 3]}, "name": "conv2d_967"}, {"class_name": "Conv2D", "inbound_nodes": [[["activation_969", 0, 0, {}]]], "config": {"padding": "valid", "filters": 96, "name": "conv2d_970", "dilation_rate": [1, 1], "bias_constraint": null, "bias_initializer": {"class_name": "Zeros", "config": {}}, "data_format": "channels_last", "strides": [2, 2], "kernel_regularizer": null, "kernel_initializer": {"class_name": "VarianceScaling", "config": {"seed": null, "mode": "fan_avg", "distribution": "uniform", "scale": 1.0}}, "activity_regularizer": null, "kernel_constraint": null, "trainable": false, "activation": "linear", "use_bias": false, "bias_regularizer": null, "kernel_size": [3, 3]}, "name": "conv2d_970"}, {"class_name": "BatchNormalization", "inbound_nodes": [[["conv2d_967", 0, 0, {}]]], "config": {"beta_initializer": {"class_name": "Zeros", "config": {}}, "name": "batch_normalization_967", "epsilon": 0.001, "axis": 3, "moving_mean_initializer": {"class_name": "Zeros", "config": {}}, "scale": false, "center": true, "beta_regularizer": null, "gamma_regularizer": null, "momentum": 0.99, "gamma_constraint": null, "trainable": false, "moving_variance_initializer": {"class_name": "Ones", "config": {}}, "beta_constraint": null, "gamma_initializer": {"class_name": "Ones", "config": {}}}, "name": "batch_normalization_967"}, {"class_name": "BatchNormalization", "inbound_nodes": [[["conv2d_970", 0, 0, {}]]], "config": {"beta_initializer": {"class_name": "Zeros", "config": {}}, "name": "batch_normalization_970", "epsilon": 0.001, "axis": 3, "moving_mean_initializer": {"class_name": "Zeros", "config": {}}, "scale": false, "center": true, "beta_regularizer": null, "gamma_regularizer": null, "momentum": 0.99, "gamma_constraint": null, "trainable": false, "moving_variance_initializer": {"class_name": "Ones", "config": {}}, "beta_constraint": null, "gamma_initializer": {"class_name": "Ones", "config": {}}}, "name": "batch_normalization_970"}, {"class_name": "Activation", "inbound_nodes": [[["batch_normalization_967", 0, 0, {}]]], "config": {"trainable": false, "activation": "relu", "name": "activation_967"}, "name": "activation_967"}, {"class_name": "Activation", "inbound_nodes": [[["batch_normalization_970", 0, 0, {}]]], "config": {"trainable": false, "activation": "relu", "name": "activation_970"}, "name": "activation_970"}, {"class_name": "MaxPooling2D", "inbound_nodes": [[["mixed2", 0, 0, {}]]], "config": {"padding": "valid", "pool_size": [3, 3], "name": "max_pooling2d_43", "trainable": false, "strides": [2, 2], "data_format": "channels_last"}, "name": "max_pooling2d_43"}, {"class_name": "Concatenate", "inbound_nodes": [[["activation_967", 0, 0, {}], ["activation_970", 0, 0, {}], ["max_pooling2d_43", 0, 0, {}]]], "config": {"trainable": false, "name": "mixed3", "axis": 3}, "name": "mixed3"}, {"class_name": "Conv2D", "inbound_nodes": [[["mixed3", 0, 0, {}]]], "config": {"padding": "same", "filters": 128, "name": "conv2d_975", "dilation_rate": [1, 1], "bias_constraint": null, "bias_initializer": {"class_name": "Zeros", "config": {}}, "data_format": "channels_last", "strides": [1, 1], "kernel_regularizer": null, "kernel_initializer": {"class_name": "VarianceScaling", "config": {"seed": null, "mode": "fan_avg", "distribution": "uniform", "scale": 1.0}}, "activity_regularizer": null, "kernel_constraint": null, "trainable": false, "activation": "linear", "use_bias": false, "bias_regularizer": null, "kernel_size": [1, 1]}, "name": "conv2d_975"}, {"class_name": "BatchNormalization", "inbound_nodes": [[["conv2d_975", 0, 0, {}]]], "config": {"beta_initializer": {"class_name": "Zeros", "config": {}}, "name": "batch_normalization_975", "epsilon": 0.001, "axis": 3, "moving_mean_initializer": {"class_name": "Zeros", "config": {}}, "scale": false, "center": true, "beta_regularizer": null, "gamma_regularizer": null, "momentum": 0.99, "gamma_constraint": null, "trainable": false, "moving_variance_initializer": {"class_name": "Ones", "config": {}}, "beta_constraint": null, "gamma_initializer": {"class_name": "Ones", "config": {}}}, "name": "batch_normalization_975"}, {"class_name": "Activation", "inbound_nodes": [[["batch_normalization_975", 0, 0, {}]]], "config": {"trainable": false, "activation": "relu", "name": "activation_975"}, "name": "activation_975"}, {"class_name": "Conv2D", "inbound_nodes": [[["activation_975", 0, 0, {}]]], "config": {"padding": "same", "filters": 128, "name": "conv2d_976", "dilation_rate": [1, 1], "bias_constraint": null, "bias_initializer": {"class_name": "Zeros", "config": {}}, "data_format": "channels_last", "strides": [1, 1], "kernel_regularizer": null, "kernel_initializer": {"class_name": "VarianceScaling", "config": {"seed": null, "mode": "fan_avg", "distribution": "uniform", "scale": 1.0}}, "activity_regularizer": null, "kernel_constraint": null, "trainable": false, "activation": "linear", "use_bias": false, "bias_regularizer": null, "kernel_size": [7, 1]}, "name": "conv2d_976"}, {"class_name": "BatchNormalization", "inbound_nodes": [[["conv2d_976", 0, 0, {}]]], "config": {"beta_initializer": {"class_name": "Zeros", "config": {}}, "name": "batch_normalization_976", "epsilon": 0.001, "axis": 3, "moving_mean_initializer": {"class_name": "Zeros", "config": {}}, "scale": false, "center": true, "beta_regularizer": null, "gamma_regularizer": null, "momentum": 0.99, "gamma_constraint": null, "trainable": false, "moving_variance_initializer": {"class_name": "Ones", "config": {}}, "beta_constraint": null, "gamma_initializer": {"class_name": "Ones", "config": {}}}, "name": "batch_normalization_976"}, {"class_name": "Activation", "inbound_nodes": [[["batch_normalization_976", 0, 0, {}]]], "config": {"trainable": false, "activation": "relu", "name": "activation_976"}, "name": "activation_976"}, {"class_name": "Conv2D", "inbound_nodes": [[["mixed3", 0, 0, {}]]], "config": {"padding": "same", "filters": 128, "name": "conv2d_972", "dilation_rate": [1, 1], "bias_constraint": null, "bias_initializer": {"class_name": "Zeros", "config": {}}, "data_format": "channels_last", "strides": [1, 1], "kernel_regularizer": null, "kernel_initializer": {"class_name": "VarianceScaling", "config": {"seed": null, "mode": "fan_avg", "distribution": "uniform", "scale": 1.0}}, "activity_regularizer": null, "kernel_constraint": null, "trainable": false, "activation": "linear", "use_bias": false, "bias_regularizer": null, "kernel_size": [1, 1]}, "name": "conv2d_972"}, {"class_name": "Conv2D", "inbound_nodes": [[["activation_976", 0, 0, {}]]], "config": {"padding": "same", "filters": 128, "name": "conv2d_977", "dilation_rate": [1, 1], "bias_constraint": null, "bias_initializer": {"class_name": "Zeros", "config": {}}, "data_format": "channels_last", "strides": [1, 1], "kernel_regularizer": null, "kernel_initializer": {"class_name": "VarianceScaling", "config": {"seed": null, "mode": "fan_avg", "distribution": "uniform", "scale": 1.0}}, "activity_regularizer": null, "kernel_constraint": null, "trainable": false, "activation": "linear", "use_bias": false, "bias_regularizer": null, "kernel_size": [1, 7]}, "name": "conv2d_977"}, {"class_name": "BatchNormalization", "inbound_nodes": [[["conv2d_972", 0, 0, {}]]], "config": {"beta_initializer": {"class_name": "Zeros", "config": {}}, "name": "batch_normalization_972", "epsilon": 0.001, "axis": 3, "moving_mean_initializer": {"class_name": "Zeros", "config": {}}, "scale": false, "center": true, "beta_regularizer": null, "gamma_regularizer": null, "momentum": 0.99, "gamma_constraint": null, "trainable": false, "moving_variance_initializer": {"class_name": "Ones", "config": {}}, "beta_constraint": null, "gamma_initializer": {"class_name": "Ones", "config": {}}}, "name": "batch_normalization_972"}, {"class_name": "BatchNormalization", "inbound_nodes": [[["conv2d_977", 0, 0, {}]]], "config": {"beta_initializer": {"class_name": "Zeros", "config": {}}, "name": "batch_normalization_977", "epsilon": 0.001, "axis": 3, "moving_mean_initializer": {"class_name": "Zeros", "config": {}}, "scale": false, "center": true, "beta_regularizer": null, "gamma_regularizer": null, "momentum": 0.99, "gamma_constraint": null, "trainable": false, "moving_variance_initializer": {"class_name": "Ones", "config": {}}, "beta_constraint": null, "gamma_initializer": {"class_name": "Ones", "config": {}}}, "name": "batch_normalization_977"}, {"class_name": "Activation", "inbound_nodes": [[["batch_normalization_972", 0, 0, {}]]], "config": {"trainable": false, "activation": "relu", "name": "activation_972"}, "name": "activation_972"}, {"class_name": "Activation", "inbound_nodes": [[["batch_normalization_977", 0, 0, {}]]], "config": {"trainable": false, "activation": "relu", "name": "activation_977"}, "name": "activation_977"}, {"class_name": "Conv2D", "inbound_nodes": [[["activation_972", 0, 0, {}]]], "config": {"padding": "same", "filters": 128, "name": "conv2d_973", "dilation_rate": [1, 1], "bias_constraint": null, "bias_initializer": {"class_name": "Zeros", "config": {}}, "data_format": "channels_last", "strides": [1, 1], "kernel_regularizer": null, "kernel_initializer": {"class_name": "VarianceScaling", "config": {"seed": null, "mode": "fan_avg", "distribution": "uniform", "scale": 1.0}}, "activity_regularizer": null, "kernel_constraint": null, "trainable": false, "activation": "linear", "use_bias": false, "bias_regularizer": null, "kernel_size": [1, 7]}, "name": "conv2d_973"}, {"class_name": "Conv2D", "inbound_nodes": [[["activation_977", 0, 0, {}]]], "config": {"padding": "same", "filters": 128, "name": "conv2d_978", "dilation_rate": [1, 1], "bias_constraint": null, "bias_initializer": {"class_name": "Zeros", "config": {}}, "data_format": "channels_last", "strides": [1, 1], "kernel_regularizer": null, "kernel_initializer": {"class_name": "VarianceScaling", "config": {"seed": null, "mode": "fan_avg", "distribution": "uniform", "scale": 1.0}}, "activity_regularizer": null, "kernel_constraint": null, "trainable": false, "activation": "linear", "use_bias": false, "bias_regularizer": null, "kernel_size": [7, 1]}, "name": "conv2d_978"}, {"class_name": "BatchNormalization", "inbound_nodes": [[["conv2d_973", 0, 0, {}]]], "config": {"beta_initializer": {"class_name": "Zeros", "config": {}}, "name": "batch_normalization_973", "epsilon": 0.001, "axis": 3, "moving_mean_initializer": {"class_name": "Zeros", "config": {}}, "scale": false, "center": true, "beta_regularizer": null, "gamma_regularizer": null, "momentum": 0.99, "gamma_constraint": null, "trainable": false, "moving_variance_initializer": {"class_name": "Ones", "config": {}}, "beta_constraint": null, "gamma_initializer": {"class_name": "Ones", "config": {}}}, "name": "batch_normalization_973"}, {"class_name": "BatchNormalization", "inbound_nodes": [[["conv2d_978", 0, 0, {}]]], "config": {"beta_initializer": {"class_name": "Zeros", "config": {}}, "name": "batch_normalization_978", "epsilon": 0.001, "axis": 3, "moving_mean_initializer": {"class_name": "Zeros", "config": {}}, "scale": false, "center": true, "beta_regularizer": null, "gamma_regularizer": null, "momentum": 0.99, "gamma_constraint": null, "trainable": false, "moving_variance_initializer": {"class_name": "Ones", "config": {}}, "beta_constraint": null, "gamma_initializer": {"class_name": "Ones", "config": {}}}, "name": "batch_normalization_978"}, {"class_name": "Activation", "inbound_nodes": [[["batch_normalization_973", 0, 0, {}]]], "config": {"trainable": false, "activation": "relu", "name": "activation_973"}, "name": "activation_973"}, {"class_name": "Activation", "inbound_nodes": [[["batch_normalization_978", 0, 0, {}]]], "config": {"trainable": false, "activation": "relu", "name": "activation_978"}, "name": "activation_978"}, {"class_name": "AveragePooling2D", "inbound_nodes": [[["mixed3", 0, 0, {}]]], "config": {"padding": "same", "pool_size": [3, 3], "name": "average_pooling2d_94", "trainable": false, "strides": [1, 1], "data_format": "channels_last"}, "name": "average_pooling2d_94"}, {"class_name": "Conv2D", "inbound_nodes": [[["mixed3", 0, 0, {}]]], "config": {"padding": "same", "filters": 192, "name": "conv2d_971", "dilation_rate": [1, 1], "bias_constraint": null, "bias_initializer": {"class_name": "Zeros", "config": {}}, "data_format": "channels_last", "strides": [1, 1], "kernel_regularizer": null, "kernel_initializer": {"class_name": "VarianceScaling", "config": {"seed": null, "mode": "fan_avg", "distribution": "uniform", "scale": 1.0}}, "activity_regularizer": null, "kernel_constraint": null, "trainable": false, "activation": "linear", "use_bias": false, "bias_regularizer": null, "kernel_size": [1, 1]}, "name": "conv2d_971"}, {"class_name": "Conv2D", "inbound_nodes": [[["activation_973", 0, 0, {}]]], "config": {"padding": "same", "filters": 192, "name": "conv2d_974", "dilation_rate": [1, 1], "bias_constraint": null, "bias_initializer": {"class_name": "Zeros", "config": {}}, "data_format": "channels_last", "strides": [1, 1], "kernel_regularizer": null, "kernel_initializer": {"class_name": "VarianceScaling", "config": {"seed": null, "mode": "fan_avg", "distribution": "uniform", "scale": 1.0}}, "activity_regularizer": null, "kernel_constraint": null, "trainable": false, "activation": "linear", "use_bias": false, "bias_regularizer": null, "kernel_size": [7, 1]}, "name": "conv2d_974"}, {"class_name": "Conv2D", "inbound_nodes": [[["activation_978", 0, 0, {}]]], "config": {"padding": "same", "filters": 192, "name": "conv2d_979", "dilation_rate": [1, 1], "bias_constraint": null, "bias_initializer": {"class_name": "Zeros", "config": {}}, "data_format": "channels_last", "strides": [1, 1], "kernel_regularizer": null, "kernel_initializer": {"class_name": "VarianceScaling", "config": {"seed": null, "mode": "fan_avg", "distribution": "uniform", "scale": 1.0}}, "activity_regularizer": null, "kernel_constraint": null, "trainable": false, "activation": "linear", "use_bias": false, "bias_regularizer": null, "kernel_size": [1, 7]}, "name": "conv2d_979"}, {"class_name": "Conv2D", "inbound_nodes": [[["average_pooling2d_94", 0, 0, {}]]], "config": {"padding": "same", "filters": 192, "name": "conv2d_980", "dilation_rate": [1, 1], "bias_constraint": null, "bias_initializer": {"class_name": "Zeros", "config": {}}, "data_format": "channels_last", "strides": [1, 1], "kernel_regularizer": null, "kernel_initializer": {"class_name": "VarianceScaling", "config": {"seed": null, "mode": "fan_avg", "distribution": "uniform", "scale": 1.0}}, "activity_regularizer": null, "kernel_constraint": null, "trainable": false, "activation": "linear", "use_bias": false, "bias_regularizer": null, "kernel_size": [1, 1]}, "name": "conv2d_980"}, {"class_name": "BatchNormalization", "inbound_nodes": [[["conv2d_971", 0, 0, {}]]], "config": {"beta_initializer": {"class_name": "Zeros", "config": {}}, "name": "batch_normalization_971", "epsilon": 0.001, "axis": 3, "moving_mean_initializer": {"class_name": "Zeros", "config": {}}, "scale": false, "center": true, "beta_regularizer": null, "gamma_regularizer": null, "momentum": 0.99, "gamma_constraint": null, "trainable": false, "moving_variance_initializer": {"class_name": "Ones", "config": {}}, "beta_constraint": null, "gamma_initializer": {"class_name": "Ones", "config": {}}}, "name": "batch_normalization_971"}, {"class_name": "BatchNormalization", "inbound_nodes": [[["conv2d_974", 0, 0, {}]]], "config": {"beta_initializer": {"class_name": "Zeros", "config": {}}, "name": "batch_normalization_974", "epsilon": 0.001, "axis": 3, "moving_mean_initializer": {"class_name": "Zeros", "config": {}}, "scale": false, "center": true, "beta_regularizer": null, "gamma_regularizer": null, "momentum": 0.99, "gamma_constraint": null, "trainable": false, "moving_variance_initializer": {"class_name": "Ones", "config": {}}, "beta_constraint": null, "gamma_initializer": {"class_name": "Ones", "config": {}}}, "name": "batch_normalization_974"}, {"class_name": "BatchNormalization", "inbound_nodes": [[["conv2d_979", 0, 0, {}]]], "config": {"beta_initializer": {"class_name": "Zeros", "config": {}}, "name": "batch_normalization_979", "epsilon": 0.001, "axis": 3, "moving_mean_initializer": {"class_name": "Zeros", "config": {}}, "scale": false, "center": true, "beta_regularizer": null, "gamma_regularizer": null, "momentum": 0.99, "gamma_constraint": null, "trainable": false, "moving_variance_initializer": {"class_name": "Ones", "config": {}}, "beta_constraint": null, "gamma_initializer": {"class_name": "Ones", "config": {}}}, "name": "batch_normalization_979"}, {"class_name": "BatchNormalization", "inbound_nodes": [[["conv2d_980", 0, 0, {}]]], "config": {"beta_initializer": {"class_name": "Zeros", "config": {}}, "name": "batch_normalization_980", "epsilon": 0.001, "axis": 3, "moving_mean_initializer": {"class_name": "Zeros", "config": {}}, "scale": false, "center": true, "beta_regularizer": null, "gamma_regularizer": null, "momentum": 0.99, "gamma_constraint": null, "trainable": false, "moving_variance_initializer": {"class_name": "Ones", "config": {}}, "beta_constraint": null, "gamma_initializer": {"class_name": "Ones", "config": {}}}, "name": "batch_normalization_980"}, {"class_name": "Activation", "inbound_nodes": [[["batch_normalization_971", 0, 0, {}]]], "config": {"trainable": false, "activation": "relu", "name": "activation_971"}, "name": "activation_971"}, {"class_name": "Activation", "inbound_nodes": [[["batch_normalization_974", 0, 0, {}]]], "config": {"trainable": false, "activation": "relu", "name": "activation_974"}, "name": "activation_974"}, {"class_name": "Activation", "inbound_nodes": [[["batch_normalization_979", 0, 0, {}]]], "config": {"trainable": false, "activation": "relu", "name": "activation_979"}, "name": "activation_979"}, {"class_name": "Activation", "inbound_nodes": [[["batch_normalization_980", 0, 0, {}]]], "config": {"trainable": false, "activation": "relu", "name": "activation_980"}, "name": "activation_980"}, {"class_name": "Concatenate", "inbound_nodes": [[["activation_971", 0, 0, {}], ["activation_974", 0, 0, {}], ["activation_979", 0, 0, {}], ["activation_980", 0, 0, {}]]], "config": {"trainable": false, "name": "mixed4", "axis": 3}, "name": "mixed4"}, {"class_name": "Conv2D", "inbound_nodes": [[["mixed4", 0, 0, {}]]], "config": {"padding": "same", "filters": 160, "name": "conv2d_985", "dilation_rate": [1, 1], "bias_constraint": null, "bias_initializer": {"class_name": "Zeros", "config": {}}, "data_format": "channels_last", "strides": [1, 1], "kernel_regularizer": null, "kernel_initializer": {"class_name": "VarianceScaling", "config": {"seed": null, "mode": "fan_avg", "distribution": "uniform", "scale": 1.0}}, "activity_regularizer": null, "kernel_constraint": null, "trainable": false, "activation": "linear", "use_bias": false, "bias_regularizer": null, "kernel_size": [1, 1]}, "name": "conv2d_985"}, {"class_name": "BatchNormalization", "inbound_nodes": [[["conv2d_985", 0, 0, {}]]], "config": {"beta_initializer": {"class_name": "Zeros", "config": {}}, "name": "batch_normalization_985", "epsilon": 0.001, "axis": 3, "moving_mean_initializer": {"class_name": "Zeros", "config": {}}, "scale": false, "center": true, "beta_regularizer": null, "gamma_regularizer": null, "momentum": 0.99, "gamma_constraint": null, "trainable": false, "moving_variance_initializer": {"class_name": "Ones", "config": {}}, "beta_constraint": null, "gamma_initializer": {"class_name": "Ones", "config": {}}}, "name": "batch_normalization_985"}, {"class_name": "Activation", "inbound_nodes": [[["batch_normalization_985", 0, 0, {}]]], "config": {"trainable": false, "activation": "relu", "name": "activation_985"}, "name": "activation_985"}, {"class_name": "Conv2D", "inbound_nodes": [[["activation_985", 0, 0, {}]]], "config": {"padding": "same", "filters": 160, "name": "conv2d_986", "dilation_rate": [1, 1], "bias_constraint": null, "bias_initializer": {"class_name": "Zeros", "config": {}}, "data_format": "channels_last", "strides": [1, 1], "kernel_regularizer": null, "kernel_initializer": {"class_name": "VarianceScaling", "config": {"seed": null, "mode": "fan_avg", "distribution": "uniform", "scale": 1.0}}, "activity_regularizer": null, "kernel_constraint": null, "trainable": false, "activation": "linear", "use_bias": false, "bias_regularizer": null, "kernel_size": [7, 1]}, "name": "conv2d_986"}, {"class_name": "BatchNormalization", "inbound_nodes": [[["conv2d_986", 0, 0, {}]]], "config": {"beta_initializer": {"class_name": "Zeros", "config": {}}, "name": "batch_normalization_986", "epsilon": 0.001, "axis": 3, "moving_mean_initializer": {"class_name": "Zeros", "config": {}}, "scale": false, "center": true, "beta_regularizer": null, "gamma_regularizer": null, "momentum": 0.99, "gamma_constraint": null, "trainable": false, "moving_variance_initializer": {"class_name": "Ones", "config": {}}, "beta_constraint": null, "gamma_initializer": {"class_name": "Ones", "config": {}}}, "name": "batch_normalization_986"}, {"class_name": "Activation", "inbound_nodes": [[["batch_normalization_986", 0, 0, {}]]], "config": {"trainable": false, "activation": "relu", "name": "activation_986"}, "name": "activation_986"}, {"class_name": "Conv2D", "inbound_nodes": [[["mixed4", 0, 0, {}]]], "config": {"padding": "same", "filters": 160, "name": "conv2d_982", "dilation_rate": [1, 1], "bias_constraint": null, "bias_initializer": {"class_name": "Zeros", "config": {}}, "data_format": "channels_last", "strides": [1, 1], "kernel_regularizer": null, "kernel_initializer": {"class_name": "VarianceScaling", "config": {"seed": null, "mode": "fan_avg", "distribution": "uniform", "scale": 1.0}}, "activity_regularizer": null, "kernel_constraint": null, "trainable": false, "activation": "linear", "use_bias": false, "bias_regularizer": null, "kernel_size": [1, 1]}, "name": "conv2d_982"}, {"class_name": "Conv2D", "inbound_nodes": [[["activation_986", 0, 0, {}]]], "config": {"padding": "same", "filters": 160, "name": "conv2d_987", "dilation_rate": [1, 1], "bias_constraint": null, "bias_initializer": {"class_name": "Zeros", "config": {}}, "data_format": "channels_last", "strides": [1, 1], "kernel_regularizer": null, "kernel_initializer": {"class_name": "VarianceScaling", "config": {"seed": null, "mode": "fan_avg", "distribution": "uniform", "scale": 1.0}}, "activity_regularizer": null, "kernel_constraint": null, "trainable": false, "activation": "linear", "use_bias": false, "bias_regularizer": null, "kernel_size": [1, 7]}, "name": "conv2d_987"}, {"class_name": "BatchNormalization", "inbound_nodes": [[["conv2d_982", 0, 0, {}]]], "config": {"beta_initializer": {"class_name": "Zeros", "config": {}}, "name": "batch_normalization_982", "epsilon": 0.001, "axis": 3, "moving_mean_initializer": {"class_name": "Zeros", "config": {}}, "scale": false, "center": true, "beta_regularizer": null, "gamma_regularizer": null, "momentum": 0.99, "gamma_constraint": null, "trainable": false, "moving_variance_initializer": {"class_name": "Ones", "config": {}}, "beta_constraint": null, "gamma_initializer": {"class_name": "Ones", "config": {}}}, "name": "batch_normalization_982"}, {"class_name": "BatchNormalization", "inbound_nodes": [[["conv2d_987", 0, 0, {}]]], "config": {"beta_initializer": {"class_name": "Zeros", "config": {}}, "name": "batch_normalization_987", "epsilon": 0.001, "axis": 3, "moving_mean_initializer": {"class_name": "Zeros", "config": {}}, "scale": false, "center": true, "beta_regularizer": null, "gamma_regularizer": null, "momentum": 0.99, "gamma_constraint": null, "trainable": false, "moving_variance_initializer": {"class_name": "Ones", "config": {}}, "beta_constraint": null, "gamma_initializer": {"class_name": "Ones", "config": {}}}, "name": "batch_normalization_987"}, {"class_name": "Activation", "inbound_nodes": [[["batch_normalization_982", 0, 0, {}]]], "config": {"trainable": false, "activation": "relu", "name": "activation_982"}, "name": "activation_982"}, {"class_name": "Activation", "inbound_nodes": [[["batch_normalization_987", 0, 0, {}]]], "config": {"trainable": false, "activation": "relu", "name": "activation_987"}, "name": "activation_987"}, {"class_name": "Conv2D", "inbound_nodes": [[["activation_982", 0, 0, {}]]], "config": {"padding": "same", "filters": 160, "name": "conv2d_983", "dilation_rate": [1, 1], "bias_constraint": null, "bias_initializer": {"class_name": "Zeros", "config": {}}, "data_format": "channels_last", "strides": [1, 1], "kernel_regularizer": null, "kernel_initializer": {"class_name": "VarianceScaling", "config": {"seed": null, "mode": "fan_avg", "distribution": "uniform", "scale": 1.0}}, "activity_regularizer": null, "kernel_constraint": null, "trainable": false, "activation": "linear", "use_bias": false, "bias_regularizer": null, "kernel_size": [1, 7]}, "name": "conv2d_983"}, {"class_name": "Conv2D", "inbound_nodes": [[["activation_987", 0, 0, {}]]], "config": {"padding": "same", "filters": 160, "name": "conv2d_988", "dilation_rate": [1, 1], "bias_constraint": null, "bias_initializer": {"class_name": "Zeros", "config": {}}, "data_format": "channels_last", "strides": [1, 1], "kernel_regularizer": null, "kernel_initializer": {"class_name": "VarianceScaling", "config": {"seed": null, "mode": "fan_avg", "distribution": "uniform", "scale": 1.0}}, "activity_regularizer": null, "kernel_constraint": null, "trainable": false, "activation": "linear", "use_bias": false, "bias_regularizer": null, "kernel_size": [7, 1]}, "name": "conv2d_988"}, {"class_name": "BatchNormalization", "inbound_nodes": [[["conv2d_983", 0, 0, {}]]], "config": {"beta_initializer": {"class_name": "Zeros", "config": {}}, "name": "batch_normalization_983", "epsilon": 0.001, "axis": 3, "moving_mean_initializer": {"class_name": "Zeros", "config": {}}, "scale": false, "center": true, "beta_regularizer": null, "gamma_regularizer": null, "momentum": 0.99, "gamma_constraint": null, "trainable": false, "moving_variance_initializer": {"class_name": "Ones", "config": {}}, "beta_constraint": null, "gamma_initializer": {"class_name": "Ones", "config": {}}}, "name": "batch_normalization_983"}, {"class_name": "BatchNormalization", "inbound_nodes": [[["conv2d_988", 0, 0, {}]]], "config": {"beta_initializer": {"class_name": "Zeros", "config": {}}, "name": "batch_normalization_988", "epsilon": 0.001, "axis": 3, "moving_mean_initializer": {"class_name": "Zeros", "config": {}}, "scale": false, "center": true, "beta_regularizer": null, "gamma_regularizer": null, "momentum": 0.99, "gamma_constraint": null, "trainable": false, "moving_variance_initializer": {"class_name": "Ones", "config": {}}, "beta_constraint": null, "gamma_initializer": {"class_name": "Ones", "config": {}}}, "name": "batch_normalization_988"}, {"class_name": "Activation", "inbound_nodes": [[["batch_normalization_983", 0, 0, {}]]], "config": {"trainable": false, "activation": "relu", "name": "activation_983"}, "name": "activation_983"}, {"class_name": "Activation", "inbound_nodes": [[["batch_normalization_988", 0, 0, {}]]], "config": {"trainable": false, "activation": "relu", "name": "activation_988"}, "name": "activation_988"}, {"class_name": "AveragePooling2D", "inbound_nodes": [[["mixed4", 0, 0, {}]]], "config": {"padding": "same", "pool_size": [3, 3], "name": "average_pooling2d_95", "trainable": false, "strides": [1, 1], "data_format": "channels_last"}, "name": "average_pooling2d_95"}, {"class_name": "Conv2D", "inbound_nodes": [[["mixed4", 0, 0, {}]]], "config": {"padding": "same", "filters": 192, "name": "conv2d_981", "dilation_rate": [1, 1], "bias_constraint": null, "bias_initializer": {"class_name": "Zeros", "config": {}}, "data_format": "channels_last", "strides": [1, 1], "kernel_regularizer": null, "kernel_initializer": {"class_name": "VarianceScaling", "config": {"seed": null, "mode": "fan_avg", "distribution": "uniform", "scale": 1.0}}, "activity_regularizer": null, "kernel_constraint": null, "trainable": false, "activation": "linear", "use_bias": false, "bias_regularizer": null, "kernel_size": [1, 1]}, "name": "conv2d_981"}, {"class_name": "Conv2D", "inbound_nodes": [[["activation_983", 0, 0, {}]]], "config": {"padding": "same", "filters": 192, "name": "conv2d_984", "dilation_rate": [1, 1], "bias_constraint": null, "bias_initializer": {"class_name": "Zeros", "config": {}}, "data_format": "channels_last", "strides": [1, 1], "kernel_regularizer": null, "kernel_initializer": {"class_name": "VarianceScaling", "config": {"seed": null, "mode": "fan_avg", "distribution": "uniform", "scale": 1.0}}, "activity_regularizer": null, "kernel_constraint": null, "trainable": false, "activation": "linear", "use_bias": false, "bias_regularizer": null, "kernel_size": [7, 1]}, "name": "conv2d_984"}, {"class_name": "Conv2D", "inbound_nodes": [[["activation_988", 0, 0, {}]]], "config": {"padding": "same", "filters": 192, "name": "conv2d_989", "dilation_rate": [1, 1], "bias_constraint": null, "bias_initializer": {"class_name": "Zeros", "config": {}}, "data_format": "channels_last", "strides": [1, 1], "kernel_regularizer": null, "kernel_initializer": {"class_name": "VarianceScaling", "config": {"seed": null, "mode": "fan_avg", "distribution": "uniform", "scale": 1.0}}, "activity_regularizer": null, "kernel_constraint": null, "trainable": false, "activation": "linear", "use_bias": false, "bias_regularizer": null, "kernel_size": [1, 7]}, "name": "conv2d_989"}, {"class_name": "Conv2D", "inbound_nodes": [[["average_pooling2d_95", 0, 0, {}]]], "config": {"padding": "same", "filters": 192, "name": "conv2d_990", "dilation_rate": [1, 1], "bias_constraint": null, "bias_initializer": {"class_name": "Zeros", "config": {}}, "data_format": "channels_last", "strides": [1, 1], "kernel_regularizer": null, "kernel_initializer": {"class_name": "VarianceScaling", "config": {"seed": null, "mode": "fan_avg", "distribution": "uniform", "scale": 1.0}}, "activity_regularizer": null, "kernel_constraint": null, "trainable": false, "activation": "linear", "use_bias": false, "bias_regularizer": null, "kernel_size": [1, 1]}, "name": "conv2d_990"}, {"class_name": "BatchNormalization", "inbound_nodes": [[["conv2d_981", 0, 0, {}]]], "config": {"beta_initializer": {"class_name": "Zeros", "config": {}}, "name": "batch_normalization_981", "epsilon": 0.001, "axis": 3, "moving_mean_initializer": {"class_name": "Zeros", "config": {}}, "scale": false, "center": true, "beta_regularizer": null, "gamma_regularizer": null, "momentum": 0.99, "gamma_constraint": null, "trainable": false, "moving_variance_initializer": {"class_name": "Ones", "config": {}}, "beta_constraint": null, "gamma_initializer": {"class_name": "Ones", "config": {}}}, "name": "batch_normalization_981"}, {"class_name": "BatchNormalization", "inbound_nodes": [[["conv2d_984", 0, 0, {}]]], "config": {"beta_initializer": {"class_name": "Zeros", "config": {}}, "name": "batch_normalization_984", "epsilon": 0.001, "axis": 3, "moving_mean_initializer": {"class_name": "Zeros", "config": {}}, "scale": false, "center": true, "beta_regularizer": null, "gamma_regularizer": null, "momentum": 0.99, "gamma_constraint": null, "trainable": false, "moving_variance_initializer": {"class_name": "Ones", "config": {}}, "beta_constraint": null, "gamma_initializer": {"class_name": "Ones", "config": {}}}, "name": "batch_normalization_984"}, {"class_name": "BatchNormalization", "inbound_nodes": [[["conv2d_989", 0, 0, {}]]], "config": {"beta_initializer": {"class_name": "Zeros", "config": {}}, "name": "batch_normalization_989", "epsilon": 0.001, "axis": 3, "moving_mean_initializer": {"class_name": "Zeros", "config": {}}, "scale": false, "center": true, "beta_regularizer": null, "gamma_regularizer": null, "momentum": 0.99, "gamma_constraint": null, "trainable": false, "moving_variance_initializer": {"class_name": "Ones", "config": {}}, "beta_constraint": null, "gamma_initializer": {"class_name": "Ones", "config": {}}}, "name": "batch_normalization_989"}, {"class_name": "BatchNormalization", "inbound_nodes": [[["conv2d_990", 0, 0, {}]]], "config": {"beta_initializer": {"class_name": "Zeros", "config": {}}, "name": "batch_normalization_990", "epsilon": 0.001, "axis": 3, "moving_mean_initializer": {"class_name": "Zeros", "config": {}}, "scale": false, "center": true, "beta_regularizer": null, "gamma_regularizer": null, "momentum": 0.99, "gamma_constraint": null, "trainable": false, "moving_variance_initializer": {"class_name": "Ones", "config": {}}, "beta_constraint": null, "gamma_initializer": {"class_name": "Ones", "config": {}}}, "name": "batch_normalization_990"}, {"class_name": "Activation", "inbound_nodes": [[["batch_normalization_981", 0, 0, {}]]], "config": {"trainable": false, "activation": "relu", "name": "activation_981"}, "name": "activation_981"}, {"class_name": "Activation", "inbound_nodes": [[["batch_normalization_984", 0, 0, {}]]], "config": {"trainable": false, "activation": "relu", "name": "activation_984"}, "name": "activation_984"}, {"class_name": "Activation", "inbound_nodes": [[["batch_normalization_989", 0, 0, {}]]], "config": {"trainable": false, "activation": "relu", "name": "activation_989"}, "name": "activation_989"}, {"class_name": "Activation", "inbound_nodes": [[["batch_normalization_990", 0, 0, {}]]], "config": {"trainable": false, "activation": "relu", "name": "activation_990"}, "name": "activation_990"}, {"class_name": "Concatenate", "inbound_nodes": [[["activation_981", 0, 0, {}], ["activation_984", 0, 0, {}], ["activation_989", 0, 0, {}], ["activation_990", 0, 0, {}]]], "config": {"trainable": false, "name": "mixed5", "axis": 3}, "name": "mixed5"}, {"class_name": "Conv2D", "inbound_nodes": [[["mixed5", 0, 0, {}]]], "config": {"padding": "same", "filters": 160, "name": "conv2d_995", "dilation_rate": [1, 1], "bias_constraint": null, "bias_initializer": {"class_name": "Zeros", "config": {}}, "data_format": "channels_last", "strides": [1, 1], "kernel_regularizer": null, "kernel_initializer": {"class_name": "VarianceScaling", "config": {"seed": null, "mode": "fan_avg", "distribution": "uniform", "scale": 1.0}}, "activity_regularizer": null, "kernel_constraint": null, "trainable": false, "activation": "linear", "use_bias": false, "bias_regularizer": null, "kernel_size": [1, 1]}, "name": "conv2d_995"}, {"class_name": "BatchNormalization", "inbound_nodes": [[["conv2d_995", 0, 0, {}]]], "config": {"beta_initializer": {"class_name": "Zeros", "config": {}}, "name": "batch_normalization_995", "epsilon": 0.001, "axis": 3, "moving_mean_initializer": {"class_name": "Zeros", "config": {}}, "scale": false, "center": true, "beta_regularizer": null, "gamma_regularizer": null, "momentum": 0.99, "gamma_constraint": null, "trainable": false, "moving_variance_initializer": {"class_name": "Ones", "config": {}}, "beta_constraint": null, "gamma_initializer": {"class_name": "Ones", "config": {}}}, "name": "batch_normalization_995"}, {"class_name": "Activation", "inbound_nodes": [[["batch_normalization_995", 0, 0, {}]]], "config": {"trainable": false, "activation": "relu", "name": "activation_995"}, "name": "activation_995"}, {"class_name": "Conv2D", "inbound_nodes": [[["activation_995", 0, 0, {}]]], "config": {"padding": "same", "filters": 160, "name": "conv2d_996", "dilation_rate": [1, 1], "bias_constraint": null, "bias_initializer": {"class_name": "Zeros", "config": {}}, "data_format": "channels_last", "strides": [1, 1], "kernel_regularizer": null, "kernel_initializer": {"class_name": "VarianceScaling", "config": {"seed": null, "mode": "fan_avg", "distribution": "uniform", "scale": 1.0}}, "activity_regularizer": null, "kernel_constraint": null, "trainable": false, "activation": "linear", "use_bias": false, "bias_regularizer": null, "kernel_size": [7, 1]}, "name": "conv2d_996"}, {"class_name": "BatchNormalization", "inbound_nodes": [[["conv2d_996", 0, 0, {}]]], "config": {"beta_initializer": {"class_name": "Zeros", "config": {}}, "name": "batch_normalization_996", "epsilon": 0.001, "axis": 3, "moving_mean_initializer": {"class_name": "Zeros", "config": {}}, "scale": false, "center": true, "beta_regularizer": null, "gamma_regularizer": null, "momentum": 0.99, "gamma_constraint": null, "trainable": false, "moving_variance_initializer": {"class_name": "Ones", "config": {}}, "beta_constraint": null, "gamma_initializer": {"class_name": "Ones", "config": {}}}, "name": "batch_normalization_996"}, {"class_name": "Activation", "inbound_nodes": [[["batch_normalization_996", 0, 0, {}]]], "config": {"trainable": false, "activation": "relu", "name": "activation_996"}, "name": "activation_996"}, {"class_name": "Conv2D", "inbound_nodes": [[["mixed5", 0, 0, {}]]], "config": {"padding": "same", "filters": 160, "name": "conv2d_992", "dilation_rate": [1, 1], "bias_constraint": null, "bias_initializer": {"class_name": "Zeros", "config": {}}, "data_format": "channels_last", "strides": [1, 1], "kernel_regularizer": null, "kernel_initializer": {"class_name": "VarianceScaling", "config": {"seed": null, "mode": "fan_avg", "distribution": "uniform", "scale": 1.0}}, "activity_regularizer": null, "kernel_constraint": null, "trainable": false, "activation": "linear", "use_bias": false, "bias_regularizer": null, "kernel_size": [1, 1]}, "name": "conv2d_992"}, {"class_name": "Conv2D", "inbound_nodes": [[["activation_996", 0, 0, {}]]], "config": {"padding": "same", "filters": 160, "name": "conv2d_997", "dilation_rate": [1, 1], "bias_constraint": null, "bias_initializer": {"class_name": "Zeros", "config": {}}, "data_format": "channels_last", "strides": [1, 1], "kernel_regularizer": null, "kernel_initializer": {"class_name": "VarianceScaling", "config": {"seed": null, "mode": "fan_avg", "distribution": "uniform", "scale": 1.0}}, "activity_regularizer": null, "kernel_constraint": null, "trainable": false, "activation": "linear", "use_bias": false, "bias_regularizer": null, "kernel_size": [1, 7]}, "name": "conv2d_997"}, {"class_name": "BatchNormalization", "inbound_nodes": [[["conv2d_992", 0, 0, {}]]], "config": {"beta_initializer": {"class_name": "Zeros", "config": {}}, "name": "batch_normalization_992", "epsilon": 0.001, "axis": 3, "moving_mean_initializer": {"class_name": "Zeros", "config": {}}, "scale": false, "center": true, "beta_regularizer": null, "gamma_regularizer": null, "momentum": 0.99, "gamma_constraint": null, "trainable": false, "moving_variance_initializer": {"class_name": "Ones", "config": {}}, "beta_constraint": null, "gamma_initializer": {"class_name": "Ones", "config": {}}}, "name": "batch_normalization_992"}, {"class_name": "BatchNormalization", "inbound_nodes": [[["conv2d_997", 0, 0, {}]]], "config": {"beta_initializer": {"class_name": "Zeros", "config": {}}, "name": "batch_normalization_997", "epsilon": 0.001, "axis": 3, "moving_mean_initializer": {"class_name": "Zeros", "config": {}}, "scale": false, "center": true, "beta_regularizer": null, "gamma_regularizer": null, "momentum": 0.99, "gamma_constraint": null, "trainable": false, "moving_variance_initializer": {"class_name": "Ones", "config": {}}, "beta_constraint": null, "gamma_initializer": {"class_name": "Ones", "config": {}}}, "name": "batch_normalization_997"}, {"class_name": "Activation", "inbound_nodes": [[["batch_normalization_992", 0, 0, {}]]], "config": {"trainable": false, "activation": "relu", "name": "activation_992"}, "name": "activation_992"}, {"class_name": "Activation", "inbound_nodes": [[["batch_normalization_997", 0, 0, {}]]], "config": {"trainable": false, "activation": "relu", "name": "activation_997"}, "name": "activation_997"}, {"class_name": "Conv2D", "inbound_nodes": [[["activation_992", 0, 0, {}]]], "config": {"padding": "same", "filters": 160, "name": "conv2d_993", "dilation_rate": [1, 1], "bias_constraint": null, "bias_initializer": {"class_name": "Zeros", "config": {}}, "data_format": "channels_last", "strides": [1, 1], "kernel_regularizer": null, "kernel_initializer": {"class_name": "VarianceScaling", "config": {"seed": null, "mode": "fan_avg", "distribution": "uniform", "scale": 1.0}}, "activity_regularizer": null, "kernel_constraint": null, "trainable": false, "activation": "linear", "use_bias": false, "bias_regularizer": null, "kernel_size": [1, 7]}, "name": "conv2d_993"}, {"class_name": "Conv2D", "inbound_nodes": [[["activation_997", 0, 0, {}]]], "config": {"padding": "same", "filters": 160, "name": "conv2d_998", "dilation_rate": [1, 1], "bias_constraint": null, "bias_initializer": {"class_name": "Zeros", "config": {}}, "data_format": "channels_last", "strides": [1, 1], "kernel_regularizer": null, "kernel_initializer": {"class_name": "VarianceScaling", "config": {"seed": null, "mode": "fan_avg", "distribution": "uniform", "scale": 1.0}}, "activity_regularizer": null, "kernel_constraint": null, "trainable": false, "activation": "linear", "use_bias": false, "bias_regularizer": null, "kernel_size": [7, 1]}, "name": "conv2d_998"}, {"class_name": "BatchNormalization", "inbound_nodes": [[["conv2d_993", 0, 0, {}]]], "config": {"beta_initializer": {"class_name": "Zeros", "config": {}}, "name": "batch_normalization_993", "epsilon": 0.001, "axis": 3, "moving_mean_initializer": {"class_name": "Zeros", "config": {}}, "scale": false, "center": true, "beta_regularizer": null, "gamma_regularizer": null, "momentum": 0.99, "gamma_constraint": null, "trainable": false, "moving_variance_initializer": {"class_name": "Ones", "config": {}}, "beta_constraint": null, "gamma_initializer": {"class_name": "Ones", "config": {}}}, "name": "batch_normalization_993"}, {"class_name": "BatchNormalization", "inbound_nodes": [[["conv2d_998", 0, 0, {}]]], "config": {"beta_initializer": {"class_name": "Zeros", "config": {}}, "name": "batch_normalization_998", "epsilon": 0.001, "axis": 3, "moving_mean_initializer": {"class_name": "Zeros", "config": {}}, "scale": false, "center": true, "beta_regularizer": null, "gamma_regularizer": null, "momentum": 0.99, "gamma_constraint": null, "trainable": false, "moving_variance_initializer": {"class_name": "Ones", "config": {}}, "beta_constraint": null, "gamma_initializer": {"class_name": "Ones", "config": {}}}, "name": "batch_normalization_998"}, {"class_name": "Activation", "inbound_nodes": [[["batch_normalization_993", 0, 0, {}]]], "config": {"trainable": false, "activation": "relu", "name": "activation_993"}, "name": "activation_993"}, {"class_name": "Activation", "inbound_nodes": [[["batch_normalization_998", 0, 0, {}]]], "config": {"trainable": false, "activation": "relu", "name": "activation_998"}, "name": "activation_998"}, {"class_name": "AveragePooling2D", "inbound_nodes": [[["mixed5", 0, 0, {}]]], "config": {"padding": "same", "pool_size": [3, 3], "name": "average_pooling2d_96", "trainable": false, "strides": [1, 1], "data_format": "channels_last"}, "name": "average_pooling2d_96"}, {"class_name": "Conv2D", "inbound_nodes": [[["mixed5", 0, 0, {}]]], "config": {"padding": "same", "filters": 192, "name": "conv2d_991", "dilation_rate": [1, 1], "bias_constraint": null, "bias_initializer": {"class_name": "Zeros", "config": {}}, "data_format": "channels_last", "strides": [1, 1], "kernel_regularizer": null, "kernel_initializer": {"class_name": "VarianceScaling", "config": {"seed": null, "mode": "fan_avg", "distribution": "uniform", "scale": 1.0}}, "activity_regularizer": null, "kernel_constraint": null, "trainable": false, "activation": "linear", "use_bias": false, "bias_regularizer": null, "kernel_size": [1, 1]}, "name": "conv2d_991"}, {"class_name": "Conv2D", "inbound_nodes": [[["activation_993", 0, 0, {}]]], "config": {"padding": "same", "filters": 192, "name": "conv2d_994", "dilation_rate": [1, 1], "bias_constraint": null, "bias_initializer": {"class_name": "Zeros", "config": {}}, "data_format": "channels_last", "strides": [1, 1], "kernel_regularizer": null, "kernel_initializer": {"class_name": "VarianceScaling", "config": {"seed": null, "mode": "fan_avg", "distribution": "uniform", "scale": 1.0}}, "activity_regularizer": null, "kernel_constraint": null, "trainable": false, "activation": "linear", "use_bias": false, "bias_regularizer": null, "kernel_size": [7, 1]}, "name": "conv2d_994"}, {"class_name": "Conv2D", "inbound_nodes": [[["activation_998", 0, 0, {}]]], "config": {"padding": "same", "filters": 192, "name": "conv2d_999", "dilation_rate": [1, 1], "bias_constraint": null, "bias_initializer": {"class_name": "Zeros", "config": {}}, "data_format": "channels_last", "strides": [1, 1], "kernel_regularizer": null, "kernel_initializer": {"class_name": "VarianceScaling", "config": {"seed": null, "mode": "fan_avg", "distribution": "uniform", "scale": 1.0}}, "activity_regularizer": null, "kernel_constraint": null, "trainable": false, "activation": "linear", "use_bias": false, "bias_regularizer": null, "kernel_size": [1, 7]}, "name": "conv2d_999"}, {"class_name": "Conv2D", "inbound_nodes": [[["average_pooling2d_96", 0, 0, {}]]], "config": {"padding": "same", "filters": 192, "name": "conv2d_1000", "dilation_rate": [1, 1], "bias_constraint": null, "bias_initializer": {"class_name": "Zeros", "config": {}}, "data_format": "channels_last", "strides": [1, 1], "kernel_regularizer": null, "kernel_initializer": {"class_name": "VarianceScaling", "config": {"seed": null, "mode": "fan_avg", "distribution": "uniform", "scale": 1.0}}, "activity_regularizer": null, "kernel_constraint": null, "trainable": false, "activation": "linear", "use_bias": false, "bias_regularizer": null, "kernel_size": [1, 1]}, "name": "conv2d_1000"}, {"class_name": "BatchNormalization", "inbound_nodes": [[["conv2d_991", 0, 0, {}]]], "config": {"beta_initializer": {"class_name": "Zeros", "config": {}}, "name": "batch_normalization_991", "epsilon": 0.001, "axis": 3, "moving_mean_initializer": {"class_name": "Zeros", "config": {}}, "scale": false, "center": true, "beta_regularizer": null, "gamma_regularizer": null, "momentum": 0.99, "gamma_constraint": null, "trainable": false, "moving_variance_initializer": {"class_name": "Ones", "config": {}}, "beta_constraint": null, "gamma_initializer": {"class_name": "Ones", "config": {}}}, "name": "batch_normalization_991"}, {"class_name": "BatchNormalization", "inbound_nodes": [[["conv2d_994", 0, 0, {}]]], "config": {"beta_initializer": {"class_name": "Zeros", "config": {}}, "name": "batch_normalization_994", "epsilon": 0.001, "axis": 3, "moving_mean_initializer": {"class_name": "Zeros", "config": {}}, "scale": false, "center": true, "beta_regularizer": null, "gamma_regularizer": null, "momentum": 0.99, "gamma_constraint": null, "trainable": false, "moving_variance_initializer": {"class_name": "Ones", "config": {}}, "beta_constraint": null, "gamma_initializer": {"class_name": "Ones", "config": {}}}, "name": "batch_normalization_994"}, {"class_name": "BatchNormalization", "inbound_nodes": [[["conv2d_999", 0, 0, {}]]], "config": {"beta_initializer": {"class_name": "Zeros", "config": {}}, "name": "batch_normalization_999", "epsilon": 0.001, "axis": 3, "moving_mean_initializer": {"class_name": "Zeros", "config": {}}, "scale": false, "center": true, "beta_regularizer": null, "gamma_regularizer": null, "momentum": 0.99, "gamma_constraint": null, "trainable": false, "moving_variance_initializer": {"class_name": "Ones", "config": {}}, "beta_constraint": null, "gamma_initializer": {"class_name": "Ones", "config": {}}}, "name": "batch_normalization_999"}, {"class_name": "BatchNormalization", "inbound_nodes": [[["conv2d_1000", 0, 0, {}]]], "config": {"beta_initializer": {"class_name": "Zeros", "config": {}}, "name": "batch_normalization_1000", "epsilon": 0.001, "axis": 3, "moving_mean_initializer": {"class_name": "Zeros", "config": {}}, "scale": false, "center": true, "beta_regularizer": null, "gamma_regularizer": null, "momentum": 0.99, "gamma_constraint": null, "trainable": false, "moving_variance_initializer": {"class_name": "Ones", "config": {}}, "beta_constraint": null, "gamma_initializer": {"class_name": "Ones", "config": {}}}, "name": "batch_normalization_1000"}, {"class_name": "Activation", "inbound_nodes": [[["batch_normalization_991", 0, 0, {}]]], "config": {"trainable": false, "activation": "relu", "name": "activation_991"}, "name": "activation_991"}, {"class_name": "Activation", "inbound_nodes": [[["batch_normalization_994", 0, 0, {}]]], "config": {"trainable": false, "activation": "relu", "name": "activation_994"}, "name": "activation_994"}, {"class_name": "Activation", "inbound_nodes": [[["batch_normalization_999", 0, 0, {}]]], "config": {"trainable": false, "activation": "relu", "name": "activation_999"}, "name": "activation_999"}, {"class_name": "Activation", "inbound_nodes": [[["batch_normalization_1000", 0, 0, {}]]], "config": {"trainable": false, "activation": "relu", "name": "activation_1000"}, "name": "activation_1000"}, {"class_name": "Concatenate", "inbound_nodes": [[["activation_991", 0, 0, {}], ["activation_994", 0, 0, {}], ["activation_999", 0, 0, {}], ["activation_1000", 0, 0, {}]]], "config": {"trainable": false, "name": "mixed6", "axis": 3}, "name": "mixed6"}, {"class_name": "Conv2D", "inbound_nodes": [[["mixed6", 0, 0, {}]]], "config": {"padding": "same", "filters": 192, "name": "conv2d_1005", "dilation_rate": [1, 1], "bias_constraint": null, "bias_initializer": {"class_name": "Zeros", "config": {}}, "data_format": "channels_last", "strides": [1, 1], "kernel_regularizer": null, "kernel_initializer": {"class_name": "VarianceScaling", "config": {"seed": null, "mode": "fan_avg", "distribution": "uniform", "scale": 1.0}}, "activity_regularizer": null, "kernel_constraint": null, "trainable": false, "activation": "linear", "use_bias": false, "bias_regularizer": null, "kernel_size": [1, 1]}, "name": "conv2d_1005"}, {"class_name": "BatchNormalization", "inbound_nodes": [[["conv2d_1005", 0, 0, {}]]], "config": {"beta_initializer": {"class_name": "Zeros", "config": {}}, "name": "batch_normalization_1005", "epsilon": 0.001, "axis": 3, "moving_mean_initializer": {"class_name": "Zeros", "config": {}}, "scale": false, "center": true, "beta_regularizer": null, "gamma_regularizer": null, "momentum": 0.99, "gamma_constraint": null, "trainable": false, "moving_variance_initializer": {"class_name": "Ones", "config": {}}, "beta_constraint": null, "gamma_initializer": {"class_name": "Ones", "config": {}}}, "name": "batch_normalization_1005"}, {"class_name": "Activation", "inbound_nodes": [[["batch_normalization_1005", 0, 0, {}]]], "config": {"trainable": false, "activation": "relu", "name": "activation_1005"}, "name": "activation_1005"}, {"class_name": "Conv2D", "inbound_nodes": [[["activation_1005", 0, 0, {}]]], "config": {"padding": "same", "filters": 192, "name": "conv2d_1006", "dilation_rate": [1, 1], "bias_constraint": null, "bias_initializer": {"class_name": "Zeros", "config": {}}, "data_format": "channels_last", "strides": [1, 1], "kernel_regularizer": null, "kernel_initializer": {"class_name": "VarianceScaling", "config": {"seed": null, "mode": "fan_avg", "distribution": "uniform", "scale": 1.0}}, "activity_regularizer": null, "kernel_constraint": null, "trainable": false, "activation": "linear", "use_bias": false, "bias_regularizer": null, "kernel_size": [7, 1]}, "name": "conv2d_1006"}, {"class_name": "BatchNormalization", "inbound_nodes": [[["conv2d_1006", 0, 0, {}]]], "config": {"beta_initializer": {"class_name": "Zeros", "config": {}}, "name": "batch_normalization_1006", "epsilon": 0.001, "axis": 3, "moving_mean_initializer": {"class_name": "Zeros", "config": {}}, "scale": false, "center": true, "beta_regularizer": null, "gamma_regularizer": null, "momentum": 0.99, "gamma_constraint": null, "trainable": false, "moving_variance_initializer": {"class_name": "Ones", "config": {}}, "beta_constraint": null, "gamma_initializer": {"class_name": "Ones", "config": {}}}, "name": "batch_normalization_1006"}, {"class_name": "Activation", "inbound_nodes": [[["batch_normalization_1006", 0, 0, {}]]], "config": {"trainable": false, "activation": "relu", "name": "activation_1006"}, "name": "activation_1006"}, {"class_name": "Conv2D", "inbound_nodes": [[["mixed6", 0, 0, {}]]], "config": {"padding": "same", "filters": 192, "name": "conv2d_1002", "dilation_rate": [1, 1], "bias_constraint": null, "bias_initializer": {"class_name": "Zeros", "config": {}}, "data_format": "channels_last", "strides": [1, 1], "kernel_regularizer": null, "kernel_initializer": {"class_name": "VarianceScaling", "config": {"seed": null, "mode": "fan_avg", "distribution": "uniform", "scale": 1.0}}, "activity_regularizer": null, "kernel_constraint": null, "trainable": false, "activation": "linear", "use_bias": false, "bias_regularizer": null, "kernel_size": [1, 1]}, "name": "conv2d_1002"}, {"class_name": "Conv2D", "inbound_nodes": [[["activation_1006", 0, 0, {}]]], "config": {"padding": "same", "filters": 192, "name": "conv2d_1007", "dilation_rate": [1, 1], "bias_constraint": null, "bias_initializer": {"class_name": "Zeros", "config": {}}, "data_format": "channels_last", "strides": [1, 1], "kernel_regularizer": null, "kernel_initializer": {"class_name": "VarianceScaling", "config": {"seed": null, "mode": "fan_avg", "distribution": "uniform", "scale": 1.0}}, "activity_regularizer": null, "kernel_constraint": null, "trainable": false, "activation": "linear", "use_bias": false, "bias_regularizer": null, "kernel_size": [1, 7]}, "name": "conv2d_1007"}, {"class_name": "BatchNormalization", "inbound_nodes": [[["conv2d_1002", 0, 0, {}]]], "config": {"beta_initializer": {"class_name": "Zeros", "config": {}}, "name": "batch_normalization_1002", "epsilon": 0.001, "axis": 3, "moving_mean_initializer": {"class_name": "Zeros", "config": {}}, "scale": false, "center": true, "beta_regularizer": null, "gamma_regularizer": null, "momentum": 0.99, "gamma_constraint": null, "trainable": false, "moving_variance_initializer": {"class_name": "Ones", "config": {}}, "beta_constraint": null, "gamma_initializer": {"class_name": "Ones", "config": {}}}, "name": "batch_normalization_1002"}, {"class_name": "BatchNormalization", "inbound_nodes": [[["conv2d_1007", 0, 0, {}]]], "config": {"beta_initializer": {"class_name": "Zeros", "config": {}}, "name": "batch_normalization_1007", "epsilon": 0.001, "axis": 3, "moving_mean_initializer": {"class_name": "Zeros", "config": {}}, "scale": false, "center": true, "beta_regularizer": null, "gamma_regularizer": null, "momentum": 0.99, "gamma_constraint": null, "trainable": false, "moving_variance_initializer": {"class_name": "Ones", "config": {}}, "beta_constraint": null, "gamma_initializer": {"class_name": "Ones", "config": {}}}, "name": "batch_normalization_1007"}, {"class_name": "Activation", "inbound_nodes": [[["batch_normalization_1002", 0, 0, {}]]], "config": {"trainable": false, "activation": "relu", "name": "activation_1002"}, "name": "activation_1002"}, {"class_name": "Activation", "inbound_nodes": [[["batch_normalization_1007", 0, 0, {}]]], "config": {"trainable": false, "activation": "relu", "name": "activation_1007"}, "name": "activation_1007"}, {"class_name": "Conv2D", "inbound_nodes": [[["activation_1002", 0, 0, {}]]], "config": {"padding": "same", "filters": 192, "name": "conv2d_1003", "dilation_rate": [1, 1], "bias_constraint": null, "bias_initializer": {"class_name": "Zeros", "config": {}}, "data_format": "channels_last", "strides": [1, 1], "kernel_regularizer": null, "kernel_initializer": {"class_name": "VarianceScaling", "config": {"seed": null, "mode": "fan_avg", "distribution": "uniform", "scale": 1.0}}, "activity_regularizer": null, "kernel_constraint": null, "trainable": false, "activation": "linear", "use_bias": false, "bias_regularizer": null, "kernel_size": [1, 7]}, "name": "conv2d_1003"}, {"class_name": "Conv2D", "inbound_nodes": [[["activation_1007", 0, 0, {}]]], "config": {"padding": "same", "filters": 192, "name": "conv2d_1008", "dilation_rate": [1, 1], "bias_constraint": null, "bias_initializer": {"class_name": "Zeros", "config": {}}, "data_format": "channels_last", "strides": [1, 1], "kernel_regularizer": null, "kernel_initializer": {"class_name": "VarianceScaling", "config": {"seed": null, "mode": "fan_avg", "distribution": "uniform", "scale": 1.0}}, "activity_regularizer": null, "kernel_constraint": null, "trainable": false, "activation": "linear", "use_bias": false, "bias_regularizer": null, "kernel_size": [7, 1]}, "name": "conv2d_1008"}, {"class_name": "BatchNormalization", "inbound_nodes": [[["conv2d_1003", 0, 0, {}]]], "config": {"beta_initializer": {"class_name": "Zeros", "config": {}}, "name": "batch_normalization_1003", "epsilon": 0.001, "axis": 3, "moving_mean_initializer": {"class_name": "Zeros", "config": {}}, "scale": false, "center": true, "beta_regularizer": null, "gamma_regularizer": null, "momentum": 0.99, "gamma_constraint": null, "trainable": false, "moving_variance_initializer": {"class_name": "Ones", "config": {}}, "beta_constraint": null, "gamma_initializer": {"class_name": "Ones", "config": {}}}, "name": "batch_normalization_1003"}, {"class_name": "BatchNormalization", "inbound_nodes": [[["conv2d_1008", 0, 0, {}]]], "config": {"beta_initializer": {"class_name": "Zeros", "config": {}}, "name": "batch_normalization_1008", "epsilon": 0.001, "axis": 3, "moving_mean_initializer": {"class_name": "Zeros", "config": {}}, "scale": false, "center": true, "beta_regularizer": null, "gamma_regularizer": null, "momentum": 0.99, "gamma_constraint": null, "trainable": false, "moving_variance_initializer": {"class_name": "Ones", "config": {}}, "beta_constraint": null, "gamma_initializer": {"class_name": "Ones", "config": {}}}, "name": "batch_normalization_1008"}, {"class_name": "Activation", "inbound_nodes": [[["batch_normalization_1003", 0, 0, {}]]], "config": {"trainable": false, "activation": "relu", "name": "activation_1003"}, "name": "activation_1003"}, {"class_name": "Activation", "inbound_nodes": [[["batch_normalization_1008", 0, 0, {}]]], "config": {"trainable": false, "activation": "relu", "name": "activation_1008"}, "name": "activation_1008"}, {"class_name": "AveragePooling2D", "inbound_nodes": [[["mixed6", 0, 0, {}]]], "config": {"padding": "same", "pool_size": [3, 3], "name": "average_pooling2d_97", "trainable": false, "strides": [1, 1], "data_format": "channels_last"}, "name": "average_pooling2d_97"}, {"class_name": "Conv2D", "inbound_nodes": [[["mixed6", 0, 0, {}]]], "config": {"padding": "same", "filters": 192, "name": "conv2d_1001", "dilation_rate": [1, 1], "bias_constraint": null, "bias_initializer": {"class_name": "Zeros", "config": {}}, "data_format": "channels_last", "strides": [1, 1], "kernel_regularizer": null, "kernel_initializer": {"class_name": "VarianceScaling", "config": {"seed": null, "mode": "fan_avg", "distribution": "uniform", "scale": 1.0}}, "activity_regularizer": null, "kernel_constraint": null, "trainable": false, "activation": "linear", "use_bias": false, "bias_regularizer": null, "kernel_size": [1, 1]}, "name": "conv2d_1001"}, {"class_name": "Conv2D", "inbound_nodes": [[["activation_1003", 0, 0, {}]]], "config": {"padding": "same", "filters": 192, "name": "conv2d_1004", "dilation_rate": [1, 1], "bias_constraint": null, "bias_initializer": {"class_name": "Zeros", "config": {}}, "data_format": "channels_last", "strides": [1, 1], "kernel_regularizer": null, "kernel_initializer": {"class_name": "VarianceScaling", "config": {"seed": null, "mode": "fan_avg", "distribution": "uniform", "scale": 1.0}}, "activity_regularizer": null, "kernel_constraint": null, "trainable": false, "activation": "linear", "use_bias": false, "bias_regularizer": null, "kernel_size": [7, 1]}, "name": "conv2d_1004"}, {"class_name": "Conv2D", "inbound_nodes": [[["activation_1008", 0, 0, {}]]], "config": {"padding": "same", "filters": 192, "name": "conv2d_1009", "dilation_rate": [1, 1], "bias_constraint": null, "bias_initializer": {"class_name": "Zeros", "config": {}}, "data_format": "channels_last", "strides": [1, 1], "kernel_regularizer": null, "kernel_initializer": {"class_name": "VarianceScaling", "config": {"seed": null, "mode": "fan_avg", "distribution": "uniform", "scale": 1.0}}, "activity_regularizer": null, "kernel_constraint": null, "trainable": false, "activation": "linear", "use_bias": false, "bias_regularizer": null, "kernel_size": [1, 7]}, "name": "conv2d_1009"}, {"class_name": "Conv2D", "inbound_nodes": [[["average_pooling2d_97", 0, 0, {}]]], "config": {"padding": "same", "filters": 192, "name": "conv2d_1010", "dilation_rate": [1, 1], "bias_constraint": null, "bias_initializer": {"class_name": "Zeros", "config": {}}, "data_format": "channels_last", "strides": [1, 1], "kernel_regularizer": null, "kernel_initializer": {"class_name": "VarianceScaling", "config": {"seed": null, "mode": "fan_avg", "distribution": "uniform", "scale": 1.0}}, "activity_regularizer": null, "kernel_constraint": null, "trainable": false, "activation": "linear", "use_bias": false, "bias_regularizer": null, "kernel_size": [1, 1]}, "name": "conv2d_1010"}, {"class_name": "BatchNormalization", "inbound_nodes": [[["conv2d_1001", 0, 0, {}]]], "config": {"beta_initializer": {"class_name": "Zeros", "config": {}}, "name": "batch_normalization_1001", "epsilon": 0.001, "axis": 3, "moving_mean_initializer": {"class_name": "Zeros", "config": {}}, "scale": false, "center": true, "beta_regularizer": null, "gamma_regularizer": null, "momentum": 0.99, "gamma_constraint": null, "trainable": false, "moving_variance_initializer": {"class_name": "Ones", "config": {}}, "beta_constraint": null, "gamma_initializer": {"class_name": "Ones", "config": {}}}, "name": "batch_normalization_1001"}, {"class_name": "BatchNormalization", "inbound_nodes": [[["conv2d_1004", 0, 0, {}]]], "config": {"beta_initializer": {"class_name": "Zeros", "config": {}}, "name": "batch_normalization_1004", "epsilon": 0.001, "axis": 3, "moving_mean_initializer": {"class_name": "Zeros", "config": {}}, "scale": false, "center": true, "beta_regularizer": null, "gamma_regularizer": null, "momentum": 0.99, "gamma_constraint": null, "trainable": false, "moving_variance_initializer": {"class_name": "Ones", "config": {}}, "beta_constraint": null, "gamma_initializer": {"class_name": "Ones", "config": {}}}, "name": "batch_normalization_1004"}, {"class_name": "BatchNormalization", "inbound_nodes": [[["conv2d_1009", 0, 0, {}]]], "config": {"beta_initializer": {"class_name": "Zeros", "config": {}}, "name": "batch_normalization_1009", "epsilon": 0.001, "axis": 3, "moving_mean_initializer": {"class_name": "Zeros", "config": {}}, "scale": false, "center": true, "beta_regularizer": null, "gamma_regularizer": null, "momentum": 0.99, "gamma_constraint": null, "trainable": false, "moving_variance_initializer": {"class_name": "Ones", "config": {}}, "beta_constraint": null, "gamma_initializer": {"class_name": "Ones", "config": {}}}, "name": "batch_normalization_1009"}, {"class_name": "BatchNormalization", "inbound_nodes": [[["conv2d_1010", 0, 0, {}]]], "config": {"beta_initializer": {"class_name": "Zeros", "config": {}}, "name": "batch_normalization_1010", "epsilon": 0.001, "axis": 3, "moving_mean_initializer": {"class_name": "Zeros", "config": {}}, "scale": false, "center": true, "beta_regularizer": null, "gamma_regularizer": null, "momentum": 0.99, "gamma_constraint": null, "trainable": false, "moving_variance_initializer": {"class_name": "Ones", "config": {}}, "beta_constraint": null, "gamma_initializer": {"class_name": "Ones", "config": {}}}, "name": "batch_normalization_1010"}, {"class_name": "Activation", "inbound_nodes": [[["batch_normalization_1001", 0, 0, {}]]], "config": {"trainable": false, "activation": "relu", "name": "activation_1001"}, "name": "activation_1001"}, {"class_name": "Activation", "inbound_nodes": [[["batch_normalization_1004", 0, 0, {}]]], "config": {"trainable": false, "activation": "relu", "name": "activation_1004"}, "name": "activation_1004"}, {"class_name": "Activation", "inbound_nodes": [[["batch_normalization_1009", 0, 0, {}]]], "config": {"trainable": false, "activation": "relu", "name": "activation_1009"}, "name": "activation_1009"}, {"class_name": "Activation", "inbound_nodes": [[["batch_normalization_1010", 0, 0, {}]]], "config": {"trainable": false, "activation": "relu", "name": "activation_1010"}, "name": "activation_1010"}, {"class_name": "Concatenate", "inbound_nodes": [[["activation_1001", 0, 0, {}], ["activation_1004", 0, 0, {}], ["activation_1009", 0, 0, {}], ["activation_1010", 0, 0, {}]]], "config": {"trainable": false, "name": "mixed7", "axis": 3}, "name": "mixed7"}, {"class_name": "Conv2D", "inbound_nodes": [[["mixed7", 0, 0, {}]]], "config": {"padding": "same", "filters": 192, "name": "conv2d_1013", "dilation_rate": [1, 1], "bias_constraint": null, "bias_initializer": {"class_name": "Zeros", "config": {}}, "data_format": "channels_last", "strides": [1, 1], "kernel_regularizer": null, "kernel_initializer": {"class_name": "VarianceScaling", "config": {"seed": null, "mode": "fan_avg", "distribution": "uniform", "scale": 1.0}}, "activity_regularizer": null, "kernel_constraint": null, "trainable": false, "activation": "linear", "use_bias": false, "bias_regularizer": null, "kernel_size": [1, 1]}, "name": "conv2d_1013"}, {"class_name": "BatchNormalization", "inbound_nodes": [[["conv2d_1013", 0, 0, {}]]], "config": {"beta_initializer": {"class_name": "Zeros", "config": {}}, "name": "batch_normalization_1013", "epsilon": 0.001, "axis": 3, "moving_mean_initializer": {"class_name": "Zeros", "config": {}}, "scale": false, "center": true, "beta_regularizer": null, "gamma_regularizer": null, "momentum": 0.99, "gamma_constraint": null, "trainable": false, "moving_variance_initializer": {"class_name": "Ones", "config": {}}, "beta_constraint": null, "gamma_initializer": {"class_name": "Ones", "config": {}}}, "name": "batch_normalization_1013"}, {"class_name": "Activation", "inbound_nodes": [[["batch_normalization_1013", 0, 0, {}]]], "config": {"trainable": false, "activation": "relu", "name": "activation_1013"}, "name": "activation_1013"}, {"class_name": "Conv2D", "inbound_nodes": [[["activation_1013", 0, 0, {}]]], "config": {"padding": "same", "filters": 192, "name": "conv2d_1014", "dilation_rate": [1, 1], "bias_constraint": null, "bias_initializer": {"class_name": "Zeros", "config": {}}, "data_format": "channels_last", "strides": [1, 1], "kernel_regularizer": null, "kernel_initializer": {"class_name": "VarianceScaling", "config": {"seed": null, "mode": "fan_avg", "distribution": "uniform", "scale": 1.0}}, "activity_regularizer": null, "kernel_constraint": null, "trainable": false, "activation": "linear", "use_bias": false, "bias_regularizer": null, "kernel_size": [1, 7]}, "name": "conv2d_1014"}, {"class_name": "BatchNormalization", "inbound_nodes": [[["conv2d_1014", 0, 0, {}]]], "config": {"beta_initializer": {"class_name": "Zeros", "config": {}}, "name": "batch_normalization_1014", "epsilon": 0.001, "axis": 3, "moving_mean_initializer": {"class_name": "Zeros", "config": {}}, "scale": false, "center": true, "beta_regularizer": null, "gamma_regularizer": null, "momentum": 0.99, "gamma_constraint": null, "trainable": false, "moving_variance_initializer": {"class_name": "Ones", "config": {}}, "beta_constraint": null, "gamma_initializer": {"class_name": "Ones", "config": {}}}, "name": "batch_normalization_1014"}, {"class_name": "Activation", "inbound_nodes": [[["batch_normalization_1014", 0, 0, {}]]], "config": {"trainable": false, "activation": "relu", "name": "activation_1014"}, "name": "activation_1014"}, {"class_name": "Conv2D", "inbound_nodes": [[["mixed7", 0, 0, {}]]], "config": {"padding": "same", "filters": 192, "name": "conv2d_1011", "dilation_rate": [1, 1], "bias_constraint": null, "bias_initializer": {"class_name": "Zeros", "config": {}}, "data_format": "channels_last", "strides": [1, 1], "kernel_regularizer": null, "kernel_initializer": {"class_name": "VarianceScaling", "config": {"seed": null, "mode": "fan_avg", "distribution": "uniform", "scale": 1.0}}, "activity_regularizer": null, "kernel_constraint": null, "trainable": false, "activation": "linear", "use_bias": false, "bias_regularizer": null, "kernel_size": [1, 1]}, "name": "conv2d_1011"}, {"class_name": "Conv2D", "inbound_nodes": [[["activation_1014", 0, 0, {}]]], "config": {"padding": "same", "filters": 192, "name": "conv2d_1015", "dilation_rate": [1, 1], "bias_constraint": null, "bias_initializer": {"class_name": "Zeros", "config": {}}, "data_format": "channels_last", "strides": [1, 1], "kernel_regularizer": null, "kernel_initializer": {"class_name": "VarianceScaling", "config": {"seed": null, "mode": "fan_avg", "distribution": "uniform", "scale": 1.0}}, "activity_regularizer": null, "kernel_constraint": null, "trainable": false, "activation": "linear", "use_bias": false, "bias_regularizer": null, "kernel_size": [7, 1]}, "name": "conv2d_1015"}, {"class_name": "BatchNormalization", "inbound_nodes": [[["conv2d_1011", 0, 0, {}]]], "config": {"beta_initializer": {"class_name": "Zeros", "config": {}}, "name": "batch_normalization_1011", "epsilon": 0.001, "axis": 3, "moving_mean_initializer": {"class_name": "Zeros", "config": {}}, "scale": false, "center": true, "beta_regularizer": null, "gamma_regularizer": null, "momentum": 0.99, "gamma_constraint": null, "trainable": false, "moving_variance_initializer": {"class_name": "Ones", "config": {}}, "beta_constraint": null, "gamma_initializer": {"class_name": "Ones", "config": {}}}, "name": "batch_normalization_1011"}, {"class_name": "BatchNormalization", "inbound_nodes": [[["conv2d_1015", 0, 0, {}]]], "config": {"beta_initializer": {"class_name": "Zeros", "config": {}}, "name": "batch_normalization_1015", "epsilon": 0.001, "axis": 3, "moving_mean_initializer": {"class_name": "Zeros", "config": {}}, "scale": false, "center": true, "beta_regularizer": null, "gamma_regularizer": null, "momentum": 0.99, "gamma_constraint": null, "trainable": false, "moving_variance_initializer": {"class_name": "Ones", "config": {}}, "beta_constraint": null, "gamma_initializer": {"class_name": "Ones", "config": {}}}, "name": "batch_normalization_1015"}, {"class_name": "Activation", "inbound_nodes": [[["batch_normalization_1011", 0, 0, {}]]], "config": {"trainable": false, "activation": "relu", "name": "activation_1011"}, "name": "activation_1011"}, {"class_name": "Activation", "inbound_nodes": [[["batch_normalization_1015", 0, 0, {}]]], "config": {"trainable": false, "activation": "relu", "name": "activation_1015"}, "name": "activation_1015"}, {"class_name": "Conv2D", "inbound_nodes": [[["activation_1011", 0, 0, {}]]], "config": {"padding": "valid", "filters": 320, "name": "conv2d_1012", "dilation_rate": [1, 1], "bias_constraint": null, "bias_initializer": {"class_name": "Zeros", "config": {}}, "data_format": "channels_last", "strides": [2, 2], "kernel_regularizer": null, "kernel_initializer": {"class_name": "VarianceScaling", "config": {"seed": null, "mode": "fan_avg", "distribution": "uniform", "scale": 1.0}}, "activity_regularizer": null, "kernel_constraint": null, "trainable": false, "activation": "linear", "use_bias": false, "bias_regularizer": null, "kernel_size": [3, 3]}, "name": "conv2d_1012"}, {"class_name": "Conv2D", "inbound_nodes": [[["activation_1015", 0, 0, {}]]], "config": {"padding": "valid", "filters": 192, "name": "conv2d_1016", "dilation_rate": [1, 1], "bias_constraint": null, "bias_initializer": {"class_name": "Zeros", "config": {}}, "data_format": "channels_last", "strides": [2, 2], "kernel_regularizer": null, "kernel_initializer": {"class_name": "VarianceScaling", "config": {"seed": null, "mode": "fan_avg", "distribution": "uniform", "scale": 1.0}}, "activity_regularizer": null, "kernel_constraint": null, "trainable": false, "activation": "linear", "use_bias": false, "bias_regularizer": null, "kernel_size": [3, 3]}, "name": "conv2d_1016"}, {"class_name": "BatchNormalization", "inbound_nodes": [[["conv2d_1012", 0, 0, {}]]], "config": {"beta_initializer": {"class_name": "Zeros", "config": {}}, "name": "batch_normalization_1012", "epsilon": 0.001, "axis": 3, "moving_mean_initializer": {"class_name": "Zeros", "config": {}}, "scale": false, "center": true, "beta_regularizer": null, "gamma_regularizer": null, "momentum": 0.99, "gamma_constraint": null, "trainable": false, "moving_variance_initializer": {"class_name": "Ones", "config": {}}, "beta_constraint": null, "gamma_initializer": {"class_name": "Ones", "config": {}}}, "name": "batch_normalization_1012"}, {"class_name": "BatchNormalization", "inbound_nodes": [[["conv2d_1016", 0, 0, {}]]], "config": {"beta_initializer": {"class_name": "Zeros", "config": {}}, "name": "batch_normalization_1016", "epsilon": 0.001, "axis": 3, "moving_mean_initializer": {"class_name": "Zeros", "config": {}}, "scale": false, "center": true, "beta_regularizer": null, "gamma_regularizer": null, "momentum": 0.99, "gamma_constraint": null, "trainable": false, "moving_variance_initializer": {"class_name": "Ones", "config": {}}, "beta_constraint": null, "gamma_initializer": {"class_name": "Ones", "config": {}}}, "name": "batch_normalization_1016"}, {"class_name": "Activation", "inbound_nodes": [[["batch_normalization_1012", 0, 0, {}]]], "config": {"trainable": false, "activation": "relu", "name": "activation_1012"}, "name": "activation_1012"}, {"class_name": "Activation", "inbound_nodes": [[["batch_normalization_1016", 0, 0, {}]]], "config": {"trainable": false, "activation": "relu", "name": "activation_1016"}, "name": "activation_1016"}, {"class_name": "MaxPooling2D", "inbound_nodes": [[["mixed7", 0, 0, {}]]], "config": {"padding": "valid", "pool_size": [3, 3], "name": "max_pooling2d_44", "trainable": false, "strides": [2, 2], "data_format": "channels_last"}, "name": "max_pooling2d_44"}, {"class_name": "Concatenate", "inbound_nodes": [[["activation_1012", 0, 0, {}], ["activation_1016", 0, 0, {}], ["max_pooling2d_44", 0, 0, {}]]], "config": {"trainable": false, "name": "mixed8", "axis": 3}, "name": "mixed8"}, {"class_name": "Conv2D", "inbound_nodes": [[["mixed8", 0, 0, {}]]], "config": {"padding": "same", "filters": 448, "name": "conv2d_1021", "dilation_rate": [1, 1], "bias_constraint": null, "bias_initializer": {"class_name": "Zeros", "config": {}}, "data_format": "channels_last", "strides": [1, 1], "kernel_regularizer": null, "kernel_initializer": {"class_name": "VarianceScaling", "config": {"seed": null, "mode": "fan_avg", "distribution": "uniform", "scale": 1.0}}, "activity_regularizer": null, "kernel_constraint": null, "trainable": true, "activation": "linear", "use_bias": false, "bias_regularizer": null, "kernel_size": [1, 1]}, "name": "conv2d_1021"}, {"class_name": "BatchNormalization", "inbound_nodes": [[["conv2d_1021", 0, 0, {}]]], "config": {"beta_initializer": {"class_name": "Zeros", "config": {}}, "name": "batch_normalization_1021", "epsilon": 0.001, "axis": 3, "moving_mean_initializer": {"class_name": "Zeros", "config": {}}, "scale": false, "center": true, "beta_regularizer": null, "gamma_regularizer": null, "momentum": 0.99, "gamma_constraint": null, "trainable": true, "moving_variance_initializer": {"class_name": "Ones", "config": {}}, "beta_constraint": null, "gamma_initializer": {"class_name": "Ones", "config": {}}}, "name": "batch_normalization_1021"}, {"class_name": "Activation", "inbound_nodes": [[["batch_normalization_1021", 0, 0, {}]]], "config": {"trainable": true, "activation": "relu", "name": "activation_1021"}, "name": "activation_1021"}, {"class_name": "Conv2D", "inbound_nodes": [[["mixed8", 0, 0, {}]]], "config": {"padding": "same", "filters": 384, "name": "conv2d_1018", "dilation_rate": [1, 1], "bias_constraint": null, "bias_initializer": {"class_name": "Zeros", "config": {}}, "data_format": "channels_last", "strides": [1, 1], "kernel_regularizer": null, "kernel_initializer": {"class_name": "VarianceScaling", "config": {"seed": null, "mode": "fan_avg", "distribution": "uniform", "scale": 1.0}}, "activity_regularizer": null, "kernel_constraint": null, "trainable": true, "activation": "linear", "use_bias": false, "bias_regularizer": null, "kernel_size": [1, 1]}, "name": "conv2d_1018"}, {"class_name": "Conv2D", "inbound_nodes": [[["activation_1021", 0, 0, {}]]], "config": {"padding": "same", "filters": 384, "name": "conv2d_1022", "dilation_rate": [1, 1], "bias_constraint": null, "bias_initializer": {"class_name": "Zeros", "config": {}}, "data_format": "channels_last", "strides": [1, 1], "kernel_regularizer": null, "kernel_initializer": {"class_name": "VarianceScaling", "config": {"seed": null, "mode": "fan_avg", "distribution": "uniform", "scale": 1.0}}, "activity_regularizer": null, "kernel_constraint": null, "trainable": true, "activation": "linear", "use_bias": false, "bias_regularizer": null, "kernel_size": [3, 3]}, "name": "conv2d_1022"}, {"class_name": "BatchNormalization", "inbound_nodes": [[["conv2d_1018", 0, 0, {}]]], "config": {"beta_initializer": {"class_name": "Zeros", "config": {}}, "name": "batch_normalization_1018", "epsilon": 0.001, "axis": 3, "moving_mean_initializer": {"class_name": "Zeros", "config": {}}, "scale": false, "center": true, "beta_regularizer": null, "gamma_regularizer": null, "momentum": 0.99, "gamma_constraint": null, "trainable": true, "moving_variance_initializer": {"class_name": "Ones", "config": {}}, "beta_constraint": null, "gamma_initializer": {"class_name": "Ones", "config": {}}}, "name": "batch_normalization_1018"}, {"class_name": "BatchNormalization", "inbound_nodes": [[["conv2d_1022", 0, 0, {}]]], "config": {"beta_initializer": {"class_name": "Zeros", "config": {}}, "name": "batch_normalization_1022", "epsilon": 0.001, "axis": 3, "moving_mean_initializer": {"class_name": "Zeros", "config": {}}, "scale": false, "center": true, "beta_regularizer": null, "gamma_regularizer": null, "momentum": 0.99, "gamma_constraint": null, "trainable": true, "moving_variance_initializer": {"class_name": "Ones", "config": {}}, "beta_constraint": null, "gamma_initializer": {"class_name": "Ones", "config": {}}}, "name": "batch_normalization_1022"}, {"class_name": "Activation", "inbound_nodes": [[["batch_normalization_1018", 0, 0, {}]]], "config": {"trainable": true, "activation": "relu", "name": "activation_1018"}, "name": "activation_1018"}, {"class_name": "Activation", "inbound_nodes": [[["batch_normalization_1022", 0, 0, {}]]], "config": {"trainable": true, "activation": "relu", "name": "activation_1022"}, "name": "activation_1022"}, {"class_name": "Conv2D", "inbound_nodes": [[["activation_1018", 0, 0, {}]]], "config": {"padding": "same", "filters": 384, "name": "conv2d_1019", "dilation_rate": [1, 1], "bias_constraint": null, "bias_initializer": {"class_name": "Zeros", "config": {}}, "data_format": "channels_last", "strides": [1, 1], "kernel_regularizer": null, "kernel_initializer": {"class_name": "VarianceScaling", "config": {"seed": null, "mode": "fan_avg", "distribution": "uniform", "scale": 1.0}}, "activity_regularizer": null, "kernel_constraint": null, "trainable": true, "activation": "linear", "use_bias": false, "bias_regularizer": null, "kernel_size": [1, 3]}, "name": "conv2d_1019"}, {"class_name": "Conv2D", "inbound_nodes": [[["activation_1018", 0, 0, {}]]], "config": {"padding": "same", "filters": 384, "name": "conv2d_1020", "dilation_rate": [1, 1], "bias_constraint": null, "bias_initializer": {"class_name": "Zeros", "config": {}}, "data_format": "channels_last", "strides": [1, 1], "kernel_regularizer": null, "kernel_initializer": {"class_name": "VarianceScaling", "config": {"seed": null, "mode": "fan_avg", "distribution": "uniform", "scale": 1.0}}, "activity_regularizer": null, "kernel_constraint": null, "trainable": true, "activation": "linear", "use_bias": false, "bias_regularizer": null, "kernel_size": [3, 1]}, "name": "conv2d_1020"}, {"class_name": "Conv2D", "inbound_nodes": [[["activation_1022", 0, 0, {}]]], "config": {"padding": "same", "filters": 384, "name": "conv2d_1023", "dilation_rate": [1, 1], "bias_constraint": null, "bias_initializer": {"class_name": "Zeros", "config": {}}, "data_format": "channels_last", "strides": [1, 1], "kernel_regularizer": null, "kernel_initializer": {"class_name": "VarianceScaling", "config": {"seed": null, "mode": "fan_avg", "distribution": "uniform", "scale": 1.0}}, "activity_regularizer": null, "kernel_constraint": null, "trainable": true, "activation": "linear", "use_bias": false, "bias_regularizer": null, "kernel_size": [1, 3]}, "name": "conv2d_1023"}, {"class_name": "Conv2D", "inbound_nodes": [[["activation_1022", 0, 0, {}]]], "config": {"padding": "same", "filters": 384, "name": "conv2d_1024", "dilation_rate": [1, 1], "bias_constraint": null, "bias_initializer": {"class_name": "Zeros", "config": {}}, "data_format": "channels_last", "strides": [1, 1], "kernel_regularizer": null, "kernel_initializer": {"class_name": "VarianceScaling", "config": {"seed": null, "mode": "fan_avg", "distribution": "uniform", "scale": 1.0}}, "activity_regularizer": null, "kernel_constraint": null, "trainable": true, "activation": "linear", "use_bias": false, "bias_regularizer": null, "kernel_size": [3, 1]}, "name": "conv2d_1024"}, {"class_name": "AveragePooling2D", "inbound_nodes": [[["mixed8", 0, 0, {}]]], "config": {"padding": "same", "pool_size": [3, 3], "name": "average_pooling2d_98", "trainable": true, "strides": [1, 1], "data_format": "channels_last"}, "name": "average_pooling2d_98"}, {"class_name": "Conv2D", "inbound_nodes": [[["mixed8", 0, 0, {}]]], "config": {"padding": "same", "filters": 320, "name": "conv2d_1017", "dilation_rate": [1, 1], "bias_constraint": null, "bias_initializer": {"class_name": "Zeros", "config": {}}, "data_format": "channels_last", "strides": [1, 1], "kernel_regularizer": null, "kernel_initializer": {"class_name": "VarianceScaling", "config": {"seed": null, "mode": "fan_avg", "distribution": "uniform", "scale": 1.0}}, "activity_regularizer": null, "kernel_constraint": null, "trainable": true, "activation": "linear", "use_bias": false, "bias_regularizer": null, "kernel_size": [1, 1]}, "name": "conv2d_1017"}, {"class_name": "BatchNormalization", "inbound_nodes": [[["conv2d_1019", 0, 0, {}]]], "config": {"beta_initializer": {"class_name": "Zeros", "config": {}}, "name": "batch_normalization_1019", "epsilon": 0.001, "axis": 3, "moving_mean_initializer": {"class_name": "Zeros", "config": {}}, "scale": false, "center": true, "beta_regularizer": null, "gamma_regularizer": null, "momentum": 0.99, "gamma_constraint": null, "trainable": true, "moving_variance_initializer": {"class_name": "Ones", "config": {}}, "beta_constraint": null, "gamma_initializer": {"class_name": "Ones", "config": {}}}, "name": "batch_normalization_1019"}, {"class_name": "BatchNormalization", "inbound_nodes": [[["conv2d_1020", 0, 0, {}]]], "config": {"beta_initializer": {"class_name": "Zeros", "config": {}}, "name": "batch_normalization_1020", "epsilon": 0.001, "axis": 3, "moving_mean_initializer": {"class_name": "Zeros", "config": {}}, "scale": false, "center": true, "beta_regularizer": null, "gamma_regularizer": null, "momentum": 0.99, "gamma_constraint": null, "trainable": true, "moving_variance_initializer": {"class_name": "Ones", "config": {}}, "beta_constraint": null, "gamma_initializer": {"class_name": "Ones", "config": {}}}, "name": "batch_normalization_1020"}, {"class_name": "BatchNormalization", "inbound_nodes": [[["conv2d_1023", 0, 0, {}]]], "config": {"beta_initializer": {"class_name": "Zeros", "config": {}}, "name": "batch_normalization_1023", "epsilon": 0.001, "axis": 3, "moving_mean_initializer": {"class_name": "Zeros", "config": {}}, "scale": false, "center": true, "beta_regularizer": null, "gamma_regularizer": null, "momentum": 0.99, "gamma_constraint": null, "trainable": true, "moving_variance_initializer": {"class_name": "Ones", "config": {}}, "beta_constraint": null, "gamma_initializer": {"class_name": "Ones", "config": {}}}, "name": "batch_normalization_1023"}, {"class_name": "BatchNormalization", "inbound_nodes": [[["conv2d_1024", 0, 0, {}]]], "config": {"beta_initializer": {"class_name": "Zeros", "config": {}}, "name": "batch_normalization_1024", "epsilon": 0.001, "axis": 3, "moving_mean_initializer": {"class_name": "Zeros", "config": {}}, "scale": false, "center": true, "beta_regularizer": null, "gamma_regularizer": null, "momentum": 0.99, "gamma_constraint": null, "trainable": true, "moving_variance_initializer": {"class_name": "Ones", "config": {}}, "beta_constraint": null, "gamma_initializer": {"class_name": "Ones", "config": {}}}, "name": "batch_normalization_1024"}, {"class_name": "Conv2D", "inbound_nodes": [[["average_pooling2d_98", 0, 0, {}]]], "config": {"padding": "same", "filters": 192, "name": "conv2d_1025", "dilation_rate": [1, 1], "bias_constraint": null, "bias_initializer": {"class_name": "Zeros", "config": {}}, "data_format": "channels_last", "strides": [1, 1], "kernel_regularizer": null, "kernel_initializer": {"class_name": "VarianceScaling", "config": {"seed": null, "mode": "fan_avg", "distribution": "uniform", "scale": 1.0}}, "activity_regularizer": null, "kernel_constraint": null, "trainable": true, "activation": "linear", "use_bias": false, "bias_regularizer": null, "kernel_size": [1, 1]}, "name": "conv2d_1025"}, {"class_name": "BatchNormalization", "inbound_nodes": [[["conv2d_1017", 0, 0, {}]]], "config": {"beta_initializer": {"class_name": "Zeros", "config": {}}, "name": "batch_normalization_1017", "epsilon": 0.001, "axis": 3, "moving_mean_initializer": {"class_name": "Zeros", "config": {}}, "scale": false, "center": true, "beta_regularizer": null, "gamma_regularizer": null, "momentum": 0.99, "gamma_constraint": null, "trainable": true, "moving_variance_initializer": {"class_name": "Ones", "config": {}}, "beta_constraint": null, "gamma_initializer": {"class_name": "Ones", "config": {}}}, "name": "batch_normalization_1017"}, {"class_name": "Activation", "inbound_nodes": [[["batch_normalization_1019", 0, 0, {}]]], "config": {"trainable": true, "activation": "relu", "name": "activation_1019"}, "name": "activation_1019"}, {"class_name": "Activation", "inbound_nodes": [[["batch_normalization_1020", 0, 0, {}]]], "config": {"trainable": true, "activation": "relu", "name": "activation_1020"}, "name": "activation_1020"}, {"class_name": "Activation", "inbound_nodes": [[["batch_normalization_1023", 0, 0, {}]]], "config": {"trainable": true, "activation": "relu", "name": "activation_1023"}, "name": "activation_1023"}, {"class_name": "Activation", "inbound_nodes": [[["batch_normalization_1024", 0, 0, {}]]], "config": {"trainable": true, "activation": "relu", "name": "activation_1024"}, "name": "activation_1024"}, {"class_name": "BatchNormalization", "inbound_nodes": [[["conv2d_1025", 0, 0, {}]]], "config": {"beta_initializer": {"class_name": "Zeros", "config": {}}, "name": "batch_normalization_1025", "epsilon": 0.001, "axis": 3, "moving_mean_initializer": {"class_name": "Zeros", "config": {}}, "scale": false, "center": true, "beta_regularizer": null, "gamma_regularizer": null, "momentum": 0.99, "gamma_constraint": null, "trainable": true, "moving_variance_initializer": {"class_name": "Ones", "config": {}}, "beta_constraint": null, "gamma_initializer": {"class_name": "Ones", "config": {}}}, "name": "batch_normalization_1025"}, {"class_name": "Activation", "inbound_nodes": [[["batch_normalization_1017", 0, 0, {}]]], "config": {"trainable": true, "activation": "relu", "name": "activation_1017"}, "name": "activation_1017"}, {"class_name": "Concatenate", "inbound_nodes": [[["activation_1019", 0, 0, {}], ["activation_1020", 0, 0, {}]]], "config": {"trainable": true, "name": "mixed9_0", "axis": 3}, "name": "mixed9_0"}, {"class_name": "Concatenate", "inbound_nodes": [[["activation_1023", 0, 0, {}], ["activation_1024", 0, 0, {}]]], "config": {"trainable": true, "name": "concatenate_23", "axis": 3}, "name": "concatenate_23"}, {"class_name": "Activation", "inbound_nodes": [[["batch_normalization_1025", 0, 0, {}]]], "config": {"trainable": true, "activation": "relu", "name": "activation_1025"}, "name": "activation_1025"}, {"class_name": "Concatenate", "inbound_nodes": [[["activation_1017", 0, 0, {}], ["mixed9_0", 0, 0, {}], ["concatenate_23", 0, 0, {}], ["activation_1025", 0, 0, {}]]], "config": {"trainable": true, "name": "mixed9", "axis": 3}, "name": "mixed9"}, {"class_name": "Conv2D", "inbound_nodes": [[["mixed9", 0, 0, {}]]], "config": {"padding": "same", "filters": 448, "name": "conv2d_1030", "dilation_rate": [1, 1], "bias_constraint": null, "bias_initializer": {"class_name": "Zeros", "config": {}}, "data_format": "channels_last", "strides": [1, 1], "kernel_regularizer": null, "kernel_initializer": {"class_name": "VarianceScaling", "config": {"seed": null, "mode": "fan_avg", "distribution": "uniform", "scale": 1.0}}, "activity_regularizer": null, "kernel_constraint": null, "trainable": true, "activation": "linear", "use_bias": false, "bias_regularizer": null, "kernel_size": [1, 1]}, "name": "conv2d_1030"}, {"class_name": "BatchNormalization", "inbound_nodes": [[["conv2d_1030", 0, 0, {}]]], "config": {"beta_initializer": {"class_name": "Zeros", "config": {}}, "name": "batch_normalization_1030", "epsilon": 0.001, "axis": 3, "moving_mean_initializer": {"class_name": "Zeros", "config": {}}, "scale": false, "center": true, "beta_regularizer": null, "gamma_regularizer": null, "momentum": 0.99, "gamma_constraint": null, "trainable": true, "moving_variance_initializer": {"class_name": "Ones", "config": {}}, "beta_constraint": null, "gamma_initializer": {"class_name": "Ones", "config": {}}}, "name": "batch_normalization_1030"}, {"class_name": "Activation", "inbound_nodes": [[["batch_normalization_1030", 0, 0, {}]]], "config": {"trainable": true, "activation": "relu", "name": "activation_1030"}, "name": "activation_1030"}, {"class_name": "Conv2D", "inbound_nodes": [[["mixed9", 0, 0, {}]]], "config": {"padding": "same", "filters": 384, "name": "conv2d_1027", "dilation_rate": [1, 1], "bias_constraint": null, "bias_initializer": {"class_name": "Zeros", "config": {}}, "data_format": "channels_last", "strides": [1, 1], "kernel_regularizer": null, "kernel_initializer": {"class_name": "VarianceScaling", "config": {"seed": null, "mode": "fan_avg", "distribution": "uniform", "scale": 1.0}}, "activity_regularizer": null, "kernel_constraint": null, "trainable": true, "activation": "linear", "use_bias": false, "bias_regularizer": null, "kernel_size": [1, 1]}, "name": "conv2d_1027"}, {"class_name": "Conv2D", "inbound_nodes": [[["activation_1030", 0, 0, {}]]], "config": {"padding": "same", "filters": 384, "name": "conv2d_1031", "dilation_rate": [1, 1], "bias_constraint": null, "bias_initializer": {"class_name": "Zeros", "config": {}}, "data_format": "channels_last", "strides": [1, 1], "kernel_regularizer": null, "kernel_initializer": {"class_name": "VarianceScaling", "config": {"seed": null, "mode": "fan_avg", "distribution": "uniform", "scale": 1.0}}, "activity_regularizer": null, "kernel_constraint": null, "trainable": true, "activation": "linear", "use_bias": false, "bias_regularizer": null, "kernel_size": [3, 3]}, "name": "conv2d_1031"}, {"class_name": "BatchNormalization", "inbound_nodes": [[["conv2d_1027", 0, 0, {}]]], "config": {"beta_initializer": {"class_name": "Zeros", "config": {}}, "name": "batch_normalization_1027", "epsilon": 0.001, "axis": 3, "moving_mean_initializer": {"class_name": "Zeros", "config": {}}, "scale": false, "center": true, "beta_regularizer": null, "gamma_regularizer": null, "momentum": 0.99, "gamma_constraint": null, "trainable": true, "moving_variance_initializer": {"class_name": "Ones", "config": {}}, "beta_constraint": null, "gamma_initializer": {"class_name": "Ones", "config": {}}}, "name": "batch_normalization_1027"}, {"class_name": "BatchNormalization", "inbound_nodes": [[["conv2d_1031", 0, 0, {}]]], "config": {"beta_initializer": {"class_name": "Zeros", "config": {}}, "name": "batch_normalization_1031", "epsilon": 0.001, "axis": 3, "moving_mean_initializer": {"class_name": "Zeros", "config": {}}, "scale": false, "center": true, "beta_regularizer": null, "gamma_regularizer": null, "momentum": 0.99, "gamma_constraint": null, "trainable": true, "moving_variance_initializer": {"class_name": "Ones", "config": {}}, "beta_constraint": null, "gamma_initializer": {"class_name": "Ones", "config": {}}}, "name": "batch_normalization_1031"}, {"class_name": "Activation", "inbound_nodes": [[["batch_normalization_1027", 0, 0, {}]]], "config": {"trainable": true, "activation": "relu", "name": "activation_1027"}, "name": "activation_1027"}, {"class_name": "Activation", "inbound_nodes": [[["batch_normalization_1031", 0, 0, {}]]], "config": {"trainable": true, "activation": "relu", "name": "activation_1031"}, "name": "activation_1031"}, {"class_name": "Conv2D", "inbound_nodes": [[["activation_1027", 0, 0, {}]]], "config": {"padding": "same", "filters": 384, "name": "conv2d_1028", "dilation_rate": [1, 1], "bias_constraint": null, "bias_initializer": {"class_name": "Zeros", "config": {}}, "data_format": "channels_last", "strides": [1, 1], "kernel_regularizer": null, "kernel_initializer": {"class_name": "VarianceScaling", "config": {"seed": null, "mode": "fan_avg", "distribution": "uniform", "scale": 1.0}}, "activity_regularizer": null, "kernel_constraint": null, "trainable": true, "activation": "linear", "use_bias": false, "bias_regularizer": null, "kernel_size": [1, 3]}, "name": "conv2d_1028"}, {"class_name": "Conv2D", "inbound_nodes": [[["activation_1027", 0, 0, {}]]], "config": {"padding": "same", "filters": 384, "name": "conv2d_1029", "dilation_rate": [1, 1], "bias_constraint": null, "bias_initializer": {"class_name": "Zeros", "config": {}}, "data_format": "channels_last", "strides": [1, 1], "kernel_regularizer": null, "kernel_initializer": {"class_name": "VarianceScaling", "config": {"seed": null, "mode": "fan_avg", "distribution": "uniform", "scale": 1.0}}, "activity_regularizer": null, "kernel_constraint": null, "trainable": true, "activation": "linear", "use_bias": false, "bias_regularizer": null, "kernel_size": [3, 1]}, "name": "conv2d_1029"}, {"class_name": "Conv2D", "inbound_nodes": [[["activation_1031", 0, 0, {}]]], "config": {"padding": "same", "filters": 384, "name": "conv2d_1032", "dilation_rate": [1, 1], "bias_constraint": null, "bias_initializer": {"class_name": "Zeros", "config": {}}, "data_format": "channels_last", "strides": [1, 1], "kernel_regularizer": null, "kernel_initializer": {"class_name": "VarianceScaling", "config": {"seed": null, "mode": "fan_avg", "distribution": "uniform", "scale": 1.0}}, "activity_regularizer": null, "kernel_constraint": null, "trainable": true, "activation": "linear", "use_bias": false, "bias_regularizer": null, "kernel_size": [1, 3]}, "name": "conv2d_1032"}, {"class_name": "Conv2D", "inbound_nodes": [[["activation_1031", 0, 0, {}]]], "config": {"padding": "same", "filters": 384, "name": "conv2d_1033", "dilation_rate": [1, 1], "bias_constraint": null, "bias_initializer": {"class_name": "Zeros", "config": {}}, "data_format": "channels_last", "strides": [1, 1], "kernel_regularizer": null, "kernel_initializer": {"class_name": "VarianceScaling", "config": {"seed": null, "mode": "fan_avg", "distribution": "uniform", "scale": 1.0}}, "activity_regularizer": null, "kernel_constraint": null, "trainable": true, "activation": "linear", "use_bias": false, "bias_regularizer": null, "kernel_size": [3, 1]}, "name": "conv2d_1033"}, {"class_name": "AveragePooling2D", "inbound_nodes": [[["mixed9", 0, 0, {}]]], "config": {"padding": "same", "pool_size": [3, 3], "name": "average_pooling2d_99", "trainable": true, "strides": [1, 1], "data_format": "channels_last"}, "name": "average_pooling2d_99"}, {"class_name": "Conv2D", "inbound_nodes": [[["mixed9", 0, 0, {}]]], "config": {"padding": "same", "filters": 320, "name": "conv2d_1026", "dilation_rate": [1, 1], "bias_constraint": null, "bias_initializer": {"class_name": "Zeros", "config": {}}, "data_format": "channels_last", "strides": [1, 1], "kernel_regularizer": null, "kernel_initializer": {"class_name": "VarianceScaling", "config": {"seed": null, "mode": "fan_avg", "distribution": "uniform", "scale": 1.0}}, "activity_regularizer": null, "kernel_constraint": null, "trainable": true, "activation": "linear", "use_bias": false, "bias_regularizer": null, "kernel_size": [1, 1]}, "name": "conv2d_1026"}, {"class_name": "BatchNormalization", "inbound_nodes": [[["conv2d_1028", 0, 0, {}]]], "config": {"beta_initializer": {"class_name": "Zeros", "config": {}}, "name": "batch_normalization_1028", "epsilon": 0.001, "axis": 3, "moving_mean_initializer": {"class_name": "Zeros", "config": {}}, "scale": false, "center": true, "beta_regularizer": null, "gamma_regularizer": null, "momentum": 0.99, "gamma_constraint": null, "trainable": true, "moving_variance_initializer": {"class_name": "Ones", "config": {}}, "beta_constraint": null, "gamma_initializer": {"class_name": "Ones", "config": {}}}, "name": "batch_normalization_1028"}, {"class_name": "BatchNormalization", "inbound_nodes": [[["conv2d_1029", 0, 0, {}]]], "config": {"beta_initializer": {"class_name": "Zeros", "config": {}}, "name": "batch_normalization_1029", "epsilon": 0.001, "axis": 3, "moving_mean_initializer": {"class_name": "Zeros", "config": {}}, "scale": false, "center": true, "beta_regularizer": null, "gamma_regularizer": null, "momentum": 0.99, "gamma_constraint": null, "trainable": true, "moving_variance_initializer": {"class_name": "Ones", "config": {}}, "beta_constraint": null, "gamma_initializer": {"class_name": "Ones", "config": {}}}, "name": "batch_normalization_1029"}, {"class_name": "BatchNormalization", "inbound_nodes": [[["conv2d_1032", 0, 0, {}]]], "config": {"beta_initializer": {"class_name": "Zeros", "config": {}}, "name": "batch_normalization_1032", "epsilon": 0.001, "axis": 3, "moving_mean_initializer": {"class_name": "Zeros", "config": {}}, "scale": false, "center": true, "beta_regularizer": null, "gamma_regularizer": null, "momentum": 0.99, "gamma_constraint": null, "trainable": true, "moving_variance_initializer": {"class_name": "Ones", "config": {}}, "beta_constraint": null, "gamma_initializer": {"class_name": "Ones", "config": {}}}, "name": "batch_normalization_1032"}, {"class_name": "BatchNormalization", "inbound_nodes": [[["conv2d_1033", 0, 0, {}]]], "config": {"beta_initializer": {"class_name": "Zeros", "config": {}}, "name": "batch_normalization_1033", "epsilon": 0.001, "axis": 3, "moving_mean_initializer": {"class_name": "Zeros", "config": {}}, "scale": false, "center": true, "beta_regularizer": null, "gamma_regularizer": null, "momentum": 0.99, "gamma_constraint": null, "trainable": true, "moving_variance_initializer": {"class_name": "Ones", "config": {}}, "beta_constraint": null, "gamma_initializer": {"class_name": "Ones", "config": {}}}, "name": "batch_normalization_1033"}, {"class_name": "Conv2D", "inbound_nodes": [[["average_pooling2d_99", 0, 0, {}]]], "config": {"padding": "same", "filters": 192, "name": "conv2d_1034", "dilation_rate": [1, 1], "bias_constraint": null, "bias_initializer": {"class_name": "Zeros", "config": {}}, "data_format": "channels_last", "strides": [1, 1], "kernel_regularizer": null, "kernel_initializer": {"class_name": "VarianceScaling", "config": {"seed": null, "mode": "fan_avg", "distribution": "uniform", "scale": 1.0}}, "activity_regularizer": null, "kernel_constraint": null, "trainable": true, "activation": "linear", "use_bias": false, "bias_regularizer": null, "kernel_size": [1, 1]}, "name": "conv2d_1034"}, {"class_name": "BatchNormalization", "inbound_nodes": [[["conv2d_1026", 0, 0, {}]]], "config": {"beta_initializer": {"class_name": "Zeros", "config": {}}, "name": "batch_normalization_1026", "epsilon": 0.001, "axis": 3, "moving_mean_initializer": {"class_name": "Zeros", "config": {}}, "scale": false, "center": true, "beta_regularizer": null, "gamma_regularizer": null, "momentum": 0.99, "gamma_constraint": null, "trainable": true, "moving_variance_initializer": {"class_name": "Ones", "config": {}}, "beta_constraint": null, "gamma_initializer": {"class_name": "Ones", "config": {}}}, "name": "batch_normalization_1026"}, {"class_name": "Activation", "inbound_nodes": [[["batch_normalization_1028", 0, 0, {}]]], "config": {"trainable": true, "activation": "relu", "name": "activation_1028"}, "name": "activation_1028"}, {"class_name": "Activation", "inbound_nodes": [[["batch_normalization_1029", 0, 0, {}]]], "config": {"trainable": true, "activation": "relu", "name": "activation_1029"}, "name": "activation_1029"}, {"class_name": "Activation", "inbound_nodes": [[["batch_normalization_1032", 0, 0, {}]]], "config": {"trainable": true, "activation": "relu", "name": "activation_1032"}, "name": "activation_1032"}, {"class_name": "Activation", "inbound_nodes": [[["batch_normalization_1033", 0, 0, {}]]], "config": {"trainable": true, "activation": "relu", "name": "activation_1033"}, "name": "activation_1033"}, {"class_name": "BatchNormalization", "inbound_nodes": [[["conv2d_1034", 0, 0, {}]]], "config": {"beta_initializer": {"class_name": "Zeros", "config": {}}, "name": "batch_normalization_1034", "epsilon": 0.001, "axis": 3, "moving_mean_initializer": {"class_name": "Zeros", "config": {}}, "scale": false, "center": true, "beta_regularizer": null, "gamma_regularizer": null, "momentum": 0.99, "gamma_constraint": null, "trainable": true, "moving_variance_initializer": {"class_name": "Ones", "config": {}}, "beta_constraint": null, "gamma_initializer": {"class_name": "Ones", "config": {}}}, "name": "batch_normalization_1034"}, {"class_name": "Activation", "inbound_nodes": [[["batch_normalization_1026", 0, 0, {}]]], "config": {"trainable": true, "activation": "relu", "name": "activation_1026"}, "name": "activation_1026"}, {"class_name": "Concatenate", "inbound_nodes": [[["activation_1028", 0, 0, {}], ["activation_1029", 0, 0, {}]]], "config": {"trainable": true, "name": "mixed9_1", "axis": 3}, "name": "mixed9_1"}, {"class_name": "Concatenate", "inbound_nodes": [[["activation_1032", 0, 0, {}], ["activation_1033", 0, 0, {}]]], "config": {"trainable": true, "name": "concatenate_24", "axis": 3}, "name": "concatenate_24"}, {"class_name": "Activation", "inbound_nodes": [[["batch_normalization_1034", 0, 0, {}]]], "config": {"trainable": true, "activation": "relu", "name": "activation_1034"}, "name": "activation_1034"}, {"class_name": "Concatenate", "inbound_nodes": [[["activation_1026", 0, 0, {}], ["mixed9_1", 0, 0, {}], ["concatenate_24", 0, 0, {}], ["activation_1034", 0, 0, {}]]], "config": {"trainable": true, "name": "mixed10", "axis": 3}, "name": "mixed10"}, {"class_name": "GlobalAveragePooling2D", "inbound_nodes": [[["mixed10", 0, 0, {}]]], "config": {"trainable": true, "name": "global_average_pooling2d_10", "data_format": "channels_last"}, "name": "global_average_pooling2d_10"}, {"class_name": "Dense", "inbound_nodes": [[["global_average_pooling2d_10", 0, 0, {}]]], "config": {"name": "dense_344", "bias_constraint": null, "bias_initializer": {"class_name": "Zeros", "config": {}}, "kernel_regularizer": null, "kernel_initializer": {"class_name": "VarianceScaling", "config": {"seed": null, "mode": "fan_avg", "distribution": "uniform", "scale": 1.0}}, "activity_regularizer": null, "kernel_constraint": null, "bias_regularizer": null, "activation": "relu", "use_bias": true, "trainable": true, "units": 1024}, "name": "dense_344"}, {"class_name": "Dense", "inbound_nodes": [[["dense_344", 0, 0, {}]]], "config": {"name": "dense_345", "bias_constraint": null, "bias_initializer": {"class_name": "Zeros", "config": {}}, "kernel_regularizer": null, "kernel_initializer": {"class_name": "VarianceScaling", "config": {"seed": null, "mode": "fan_avg", "distribution": "uniform", "scale": 1.0}}, "activity_regularizer": null, "kernel_constraint": null, "bias_regularizer": null, "activation": "relu", "use_bias": true, "trainable": true, "units": 1024}, "name": "dense_345"}, {"class_name": "Dense", "inbound_nodes": [[["dense_345", 0, 0, {}]]], "config": {"name": "dense_346", "bias_constraint": null, "bias_initializer": {"class_name": "Zeros", "config": {}}, "kernel_regularizer": null, "kernel_initializer": {"class_name": "RandomUniform", "config": {"seed": null, "maxval": 0.05, "minval": -0.05}}, "activity_regularizer": null, "kernel_constraint": null, "bias_regularizer": null, "activation": "linear", "use_bias": true, "trainable": true, "units": 152}, "name": "dense_346"}], "name": "model_11", "input_layers": [["input_15", 0, 0]]}}